models/regression/neural_networks/19-02-2023, 10:42:51/model.pt (torch, 2349 bytes, 3 tensors)

layers.0.weight f4 [12, 12]
00000000: 20bf bebe 688d 4bbf 245e 07bf 1ab8 b9be
00000010: f0ce 5cbf affd ddbe 3b1f 7bbf c347 02bf
00000020: e9af d6be 1f2f 17bf 925b 21bf d311 2fbf
00000030: 142e 8fbe d0e4 d23c b12d 31be ca14 213e
00000040: 9c67 88be ba4b b5bd 7029 83bc 40aa 18bd
00000050: d098 303d c076 da3b 28d2 85bd 3802 73bd
00000060: 29ae 8abe 2990 b83f 0ea0 0e3f 0676 f83f
00000070: e560 6f40 5caa 6540 2ed5 6040 56b0 6640
00000080: c0c0 6340 6a63 6740 3a54 1c3e c7fb 533f
00000090: 033f 41be e3e0 983f 0d74 403f ddf1 d03f
000000a0: ad85 6540 165f 6b40 d102 6940 64ae 6340
000000b0: eaf2 5740 4f58 6240 1b17 cd3e 8681 3d3f
000000c0: 8b6c fcbe e10b 043f 9762 2d3f f607 ac3f
000000d0: 097d 2440 9ae2 3340 a1d0 1640 ea32 2240
000000e0: d528 1a40 80e4 2c40 701e 153d 48a4 e43d
000000f0: 2c0c 8bbd 443b 8ebe f4d2 283e ff80 0fbe
00000100: 24a9 8abe e41c 90be 620b 17be 360b 2f3e
00000110: da52 34be 54ff dcbd 0080 d33a 102c 103d
00000120: 52a2 d7bd c86b 133e 5cc0 57bd 6c83 bf3d
00000130: 2496 9f3d cccc 933d 4c07 7ebe 2d43 1fbe
00000140: c799 0ebe f05b ee3d 803c 5d3b 9dc5 45be
00000150: 668a 87be 80c9 093d 3160 82be 0884 113e
00000160: 80af 093d 5059 1bbe 1725 5cbe c0bc a73d
00000170: b49d 633e 3292 82bd c52d 87be 307e af3d
00000180: bdd9 1bbf 687f babe b90f 42bf 1f0e 4abf
00000190: 455b d3be a987 37bf 9f1e 2fbf 57c4 4fbf
000001a0: 065f 17bf 687a 2cbf 129a c6be 4f2a f6be
000001b0: a424 2abf 362c 73be 2e9a c8be 42d7 48bf
000001c0: 940f cfbe 48fe b4be 0e89 89be 56c7 15bf
000001d0: d5ea 23bf 04c8 00bf 89a8 28bf 61e5 cdbe
000001e0: 103c 24bf ec08 f5be 04e6 10bf dcb3 96be
000001f0: aee1 f6be 684f c9be 21e9 0ebf 6e3a 2fbf
00000200: c6be 31bf d04f 1ebf 7441 c4be 2f77 2cbf
00000210: 62a0 2b3e 4525 ca3f 6ba5 9a3f 0317 1040
00000220: a952 9440 362c 9240 64a3 9240 1a2b 8a40
00000230: 37d9 9140 2be0 9340 15be 7a3f 9073 883f
-0.37255192 -0.79512644 -0.5287802 -0.3627327 -0.8625326 -0.43357608 -0.9809453 -0.5089075
-0.41931084 -0.59056276 -0.6303035 -0.6838657 -0.27964842 0.025743872 -0.17302586 0.15730587
-0.26641548 -0.08852334 -0.01601097 -0.037271738 0.043114483 0.006666988 -0.06534225 -0.059328288
-0.27086 1.4418994 0.55712974 1.9411018 3.740289 3.588523 3.5130115 3.6045127
3.5586395 3.6154428 0.15266505 0.82806057 -0.18871693 1.194363 0.7517708 1.6323811
3.586284 3.6776786 3.640797 3.557519 3.3742013 3.53664 0.4005669 0.7402576
-0.49301562 0.51580626 0.6772856 1.343993 2.5701315 2.8107057 2.3564837 2.5343575
2.4087422 2.7014465 0.03640598 0.11164147 -0.06789431 -0.2777959 0.16486722 -0.14014052
-0.2708217 -0.28147042 -0.14750436 0.1709412 -0.1760973 -0.107908875 0.001613617 0.03519827
-0.10529007 0.14396584 -0.052673683 0.093512386 0.07792309 0.07216796 -0.24807471 -0.1555297
-0.13925849 0.116386294 0.0033757985 -0.19313665 -0.26472777 0.03363943 -0.25464013 0.14210522
0.033614635 -0.15170789 -0.21498524 0.08190298 0.22228128 -0.06375541 -0.26402107 0.0856899
-0.6087912 -0.36425328 -0.7580524 -0.789278 -0.4128057 -0.71691376 -0.684061 -0.81158966
-0.5912937 -0.6737428 -0.3878942 -0.48079154 -0.6646216 -0.23747334 -0.3918013 -0.7845346
-0.40441573 -0.3535025 -0.26862377 -0.5850729 -0.640302 -0.503052 -0.65882164 -0.40214065
-0.6415415 -0.4785837 -0.56600976 -0.29434097 -0.48219055 -0.39318395 -0.55824476 -0.6844853
-0.6943172 -0.61840534 -0.38331187 -0.6736936 0.167604 1.5792624 1.2081732 2.2514045
4.6350904 4.567897 4.582445 4.3177614 4.5577655 4.6211143 0.9794629 1.0660267

layers.0.bias f4 [12]
00000000: 9561 0ebf 78b2 33bd e7d1 5f40 c4e8 5f40
00000010: 39cc 1a40 d024 49be 882d c83d a0cb 1a3c
00000020: 3222 a7be 21dd acbe 7214 44bf 9390 8c40
-0.5561765 -0.043871373 3.4971864 3.498582 2.4187148 -0.19642949 0.097743094 0.009447962
-0.32643276 -0.33762458 -0.765937 4.392648

layers.2.weight f4 [1, 12]
00000000: 4e45 a43e 7072 a1bc 4c22 a73e 9abc 433e
00000010: ab6e b33c 144b ed3d 82cc fbbd 689e 913e
00000020: 2ebb f83e ed05 db3e e71d 983e 3840 0e3f
0.32084125 -0.019707888 0.32643354 0.19114915 0.021903357 0.11586586 -0.12294866 0.28441167
0.48580307 0.4277796 0.29710314 0.5556674
