models/regression/neural_networks/17-02-2023, 19:14:10/model.pt (torch, 2195 bytes, 3 tensors)

layers.0.weight f4 [12, 12]
000000 4d 6e 25 c1 19 15 a6 be 6c b3 c3 3d c8 2a 94 be
       -10.339429 -0.3243797 0.095557064 -0.2893889
000010 28 4f 3b 3e 0a 1b 43 be c0 e1 09 bc 4a 81 37 be
       0.18291914 -0.19053283 -0.008415639 -0.17920414
000020 a3 f1 a7 3d bc 27 9d bd af b3 08 bf b0 78 ac 3d
       0.082003854 -0.07673594 -0.53399175 0.08421457
000030 42 bb cc d2 0d cf 42 cf 41 07 11 cf b7 c2 60 ce
       -4.396575e+11 -3.2683492e+09 -2.4331717e+09 -9.427143e+08
000040 6d a1 3b cf ce 19 3e cf 13 87 40 cf 14 06 3f cf
       -3.1479186e+09 -3.1893622e+09 -3.2300777e+09 -3.2048466e+09
000050 cf 33 40 cf ca 3b 39 cf 77 0c ca d0 48 ff b3 ce
       -3.2246208e+09 -3.1077033e+09 -2.7118516e+10 -1.5099259e+09
000060 3f cb 29 cb 5c 9c 9b c7 8b a2 55 c7 08 6e de c6
       -1.1127615e+07 -79672.72 -54690.543 -28471.016
000070 5a c2 9c c7 fd 01 9f c7 aa 38 a1 c7 0a 30 a1 c7
       -80260.7 -81411.98 -82545.33 -82528.08
000080 e0 d2 a1 c7 3b 41 9c c7 1e 0c 1e c9 f7 9f 0a c7
       -82853.75 -80002.46 -647361.9 -35487.965
000090 e0 64 40 bc 36 8b 8b 3e 00 9f 48 3b 78 d3 60 3d
       -0.0117428005 0.27254647 0.003061235 0.054889172
0000a0 70 74 d1 bc ae 36 71 be ec 70 8e 3d f4 8e fb 3d
       -0.025568217 -0.23556015 0.06955132 0.122831255
0000b0 ce bf 6b be 97 6e 31 be c8 47 71 bd a8 e9 e9 3d
       -0.23022386 -0.17327343 -0.058906347 0.114215195
0000c0 42 07 f3 cb 61 ba 5e c8 87 e3 18 c8 fc 2e 9f c7
       -3.1854212e+07 -228073.52 -156558.11 -81501.97
0000d0 39 5f 60 c8 0d 97 63 c8 29 c2 66 c8 f7 b5 66 c8
       -229756.89 -233052.2 -236296.64 -236247.86
0000e0 05 9f 67 c8 41 a6 5f c8 1e 37 e2 c9 46 6a c6 c7
       -237180.08 -229017.02 -1.8531558e+06 -101588.55
0000f0 e1 cb 1f c3 98 98 33 c3 7e 9a 1f c3 53 c8 9d c1
       -159.7964 -179.59607 -159.60349 -19.722815
000100 ee c8 29 c3 da af 35 c3 c9 65 37 c3 6f ce 37 c3
       -169.78488 -181.68692 -183.3976 -183.80638
000110 68 82 3d c3 34 ae 2f c3 1d 9a 42 c4 63 2f 6f c2
       -189.5094 -175.68048 -778.408 -59.796276
000120 ab 3a ce c4 39 d4 10 c1 f3 02 a6 c0 65 41 38 c0
       -1649.8334 -9.051812 -5.18786 -2.8789914
000130 6b d3 49 c1 2d 93 49 c1 38 10 4a c1 7c 3d 46 c1
       -12.614116 -12.598432 -12.62896 -12.390011
000140 b6 e6 45 c1 0a 05 44 c1 e1 e2 c2 c2 24 59 65 c0
       -12.368826 -12.25123 -97.44312 -3.5835657
000150 b5 0a 30 be 00 1e 5b ba 74 de c0 3d 72 f4 a2 bd
       -0.17191584 -0.00083586574 0.094174296 -0.079567805
000160 28 10 58 be ee 25 24 3e b0 0d b0 bc 27 3e 91 be
       -0.21099913 0.16030094 -0.021490902 -0.2836773
000170 40 c1 da bc 42 9a 2b 3e 88 86 8a be 7b cc 88 be
       -0.026703477 0.16758063 -0.27055764 -0.26718506
000180 98 84 2a be 7c a6 46 bd 86 09 0f 3e e6 bf 34 3e
       -0.16652143 -0.048498616 0.13968477 0.17651328
000190 36 f2 2a be 6a 1a 7a be 82 ac 18 3e 40 d9 5c be
       -0.16693959 -0.24424139 0.14909557 -0.2156725
0001a0 f0 5a 45 be 76 12 4d be 2c 11 72 bd ea 19 84 3e
       -0.19272971 -0.20026574 -0.059098408 0.2580102
0001b0 5f db b1 d1 97 3c 29 ce 4e fb fb cd c1 41 43 cd
       -9.548621e+10 -7.098301e+08 -5.2844384e+08 -2.0474165e+08
0001c0 33 00 23 ce 92 25 25 ce 48 41 27 ce d3 f2 25 ce
       -6.836748e+08 -6.926757e+08 -7.0151834e+08 -6.960386e+08
0001d0 f3 f8 26 ce 1c eb 20 ce bb 86 af cf 91 5e 9c cd
       -7.0033325e+08 -6.749407e+08 -5.889685e+09 -3.279304e+08
0001e0 24 d0 3e c2 cd 42 9a be 96 b5 8c be 2e 9c fd 3d
       -47.703262 -0.3012909 -0.2748229 0.123833045
0001f0 bb 00 1b bf 4d 47 0a bf 9f 6f 1a bf f4 fd f3 be
       -0.6054799 -0.54015046 -0.6032657 -0.47654688
000200 c8 83 70 be f9 03 ed be 18 8a 3e c0 84 9d f7 3d
       -0.2348777 -0.46292093 -2.9771786 0.120905906
000210 50 c6 5c e6 1e 9f f4 e2 79 a4 93 e2 1a f3 4e e2
       -2.6064471e+23 -2.2562356e+21 -1.3617614e+21 -9.5438665e+20
000220 0b 7a 35 e3 df 37 37 e3 c9 b5 36 e3 b0 45 36 e3
       -3.3476548e+21 -3.37978e+21 -3.3704064e+21 -3.362329e+21
000230 db 82 37 e3 ba a1 30 e3 60 db 9e e4 8f 1a 73 e2
       -3.3851833e+21 -3.2582806e+21 -2.3443146e+22 -1.12111814e+21

layers.0.bias f4 [12]
000000 30 31 8a be dc 9a 1a ce cb 9e 83 c6 c8 90 09 3e
       -0.26990652 -6.4846e+08 -16847.396 0.13434136
000010 07 64 3c c7 3b 91 1f c2 f3 b5 15 c0 e2 f6 d9 bd
       -48228.027 -39.891827 -2.3392303 -0.10642792
000020 be 55 86 be 71 4f 06 cd 36 1a 9e 3d 12 cb 14 e2
       -0.2623729 -1.4083458e+08 0.07719843 -6.861877e+20

layers.2.weight f4 [1, 12]
000000 b3 2f 5f 40 8c 3e 9a d2 4d c5 01 cc 7e dd 22 3e
       3.4872863 -3.3123716e+11 -3.4018612e+07 0.15904805
000010 26 62 34 cb 9c a8 99 42 6a 80 49 45 1e 80 59 be
       -1.1821606e+07 76.829315 3224.026 -0.21240279
000020 98 89 28 be 25 1a 11 d2 30 2f be 41 00 15 e5 e4
       -0.16458738 -1.5580222e+11 23.77304 -3.380654e+22
