models/regression/neural_networks/Price_Night/22-02-2023, 23:42:07/model.pt (torch, 6923 bytes, 12 tensors)

layers.0.weight f4 [10, 11]
0	0x3e72c0f4	0.23706418
1	0xbdf1e747	-0.11811691
2	0xbe7bc74e	-0.24587747
3	0x395baa00	0.00020948797
4	0xbe9b4567	-0.30326387
5	0xbe65100b	-0.22369401
6	0x3e82077b	0.25396332
7	0x3d965dc0	0.073421
8	0xbe87985f	-0.26483437
9	0xbdcc7e1a	-0.099849895
10	0xbe2766d9	-0.16347827
11	0xbe7db8c3	-0.24777512
12	0x3df73b18	0.12071818
13	0xbd8031fc	-0.06259534
14	0xbd58f590	-0.05296856
15	0xbdd8399a	-0.105578616
16	0xbda55720	-0.080732584
17	0x3e2414e0	0.16023588
18	0xbd22f8d0	-0.039788067
19	0x3dc54880	0.09632969
20	0xbd8a55a8	-0.06754619
21	0xbe8715dd	-0.26383868
22	0x3e1d0f98	0.1533798
23	0xbdd47b63	-0.10375097
24	0xbe3a709f	-0.18207024
25	0xbe4e824b	-0.2016689
26	0x3e51f2f0	0.2050283
27	0xbdf00f23	-0.11721637
28	0xbe2650da	-0.1624178
29	0xbddcfa91	-0.10789979
30	0xbe9c5e8c	-0.30540884
31	0xbe5331a9	-0.20624413
32	0xbe366bf1	-0.17814614
33	0x3e18528e	0.14875242
34	0x3d988663	0.07447507
35	0x3d66c11c	0.056336507
36	0xbd827e36	-0.06371729
37	0xbde0bc2d	-0.10973392
38	0xbe9253e3	-0.28579625
39	0x3e071538	0.13191688
40	0xbe6bff81	-0.23046686
41	0xbe399c69	-0.18126072
42	0xbd5c85b1	-0.053838436
43	0xbde6d38a	-0.112708166
44	0xc0ea0bd4	-7.313944
45	0xc08de92a	-4.4347124
46	0xc0179617	-2.3685358
47	0xc0ea00df	-7.3126063
48	0xc0eab578	-7.334652
49	0xc0f781c9	-7.734593
50	0xc0f9d920	-7.8077545
51	0xc0fca2f7	-7.894893
52	0xc0e0b9bf	-7.022674
53	0xc26d7f77	-59.374477
54	0xc0549c99	-3.322058
55	0xbe91dfe6	-0.28491133
56	0x3e85a734	0.26104128
57	0xbe59a6dd	-0.2125506
58	0xbe183ea3	-0.14867644
59	0x3e25d420	0.161942
60	0x3dace2f8	0.08441728
61	0xbe306532	-0.17226103
62	0xbe04e276	-0.12977013
63	0x3cb13dd0	0.02163592
64	0xbe265d5f	-0.16246556
65	0xbe85cd0a	-0.26132995
66	0xbd5eb6e6	-0.054373644
67	0xbe14f8a7	-0.14547978
68	0x3e03bbc3	0.12864594
69	0xbd51c830	-0.051216304
70	0x3e1e34a7	0.15449773
71	0xbe364d81	-0.17803003
72	0xbe92a4db	-0.286414
73	0x3c8f6834	0.017505743
74	0x3e7d2bfd	0.24723811
75	0xbd871597	-0.06595915
76	0x3e6dfa38	0.23239982
77	0xbd3a269c	-0.045446977
78	0x3e56160c	0.20906848
79	0x3e8bdf22	0.27318674
80	0xbe52fa64	-0.20603329
81	0xbe97c55b	-0.29642758
82	0x3e768024	0.2407232
83	0xbeb1861f	-0.3467264
84	0x38b51000	8.633733e-05
85	0x3e7d2892	0.24722508
86	0xbe935248	-0.28773713
87	0xbd8e2039	-0.0693974
88	0x3e1a5f8e	0.15075514
89	0xbe140091	-0.14453341
90	0x3c7e65c0	0.015527189
91	0x3ce1a2a0	0.027543366
92	0x3e006d26	0.12541637
93	0xbd6a20d8	-0.05716023
94	0xbe09a414	-0.13441497
95	0xbda66910	-0.08125508
96	0x3d91f91c	0.07127592
97	0xbe81dd83	-0.25364313
98	0x3e157efc	0.14599222
99	0xc1cdca17	-25.723677
100	0xc1837a3e	-16.434689
101	0xc10061b5	-8.023854
102	0xc1d3fa86	-26.497326
103	0xc1da8c4b	-27.318502
104	0xc1da88d5	-27.316813
105	0xc1d841dd	-27.03216
106	0xc1dab862	-27.34003
107	0xc1cfb741	-25.96448
108	0xc34d155a	-205.0834
109	0xc12e8d81	-10.909547

layers.0.bias f4 [10]
0	0x3e6d6d41	0.23186208
1	0x3dbb5b68	0.09148294
2	0x3ddee2f6	0.10883133
3	0xbe92dcf0	-0.28684187
4	0xbfc73302	-1.5562441
5	0xbe3889d8	-0.18021333
6	0xbe1d7643	-0.15377145
7	0x3ddd8c53	0.1081778
8	0xbe01f7ee	-0.12692234
9	0xc0adce78	-5.4314537

layers.3.weight f4 [10, 10]
0	0xbd0623b8	-0.032748908
1	0x3e18c34c	0.1491825
2	0xbdd794a0	-0.10526395
3	0x3e7fa28e	0.24964353
4	0x3c39bb20	0.011336118
5	0xbd008ca0	-0.03138411
6	0xbe20801b	-0.15673868
7	0xbe222d1e	-0.15837523
8	0x3e2fdcaa	0.1717402
9	0xbde19762	-0.11015202
10	0x3e9874be	0.29776567
11	0xbd6eec68	-0.058330923
12	0xbe6b3c1a	-0.22972146
13	0x3da25f0e	0.079282865
14	0xc1df846e	-27.939663
15	0xbe87ef87	-0.26549932
16	0x3e289798	0.16464078
17	0x3e8b5dcc	0.2722
18	0x3e002a06	0.1251603
19	0xc309156b	-137.08366
20	0x3d35aa68	0.044351965
21	0xbea14835	-0.31500402
22	0x3d1c5bba	0.038173415
23	0xbdc62e8c	-0.09676847
24	0xc0d02b4a	-6.5052843
25	0x3ea15859	0.31512716
26	0x3e74b82e	0.23898384
27	0xbe76a730	-0.24087214
28	0xbd7382b0	-0.059450805
29	0xc1d128dc	-26.14495
30	0x3e4593bc	0.19294637
31	0x3e541b32	0.20713499
32	0xbc0f4800	-0.0087451935
33	0x3d98c250	0.07458937
34	0xbe7a35a5	-0.24434526
35	0xbe9d9cbe	-0.30783647
36	0xbdd77228	-0.105198205
37	0xbe771c30	-0.24131846
38	0xbe7e1c73	-0.2481554
39	0xbe41c87c	-0.18924135
40	0x3e6bdc29	0.23033203
41	0xbc0da080	-0.008644223
42	0xbe2282f5	-0.15870269
43	0x3e575999	0.21030273
44	0xc19bf6bd	-19.495478
45	0x3e084d3c	0.13310713
46	0x3e8b9fc5	0.27270332
47	0x3ecc1e1c	0.39866722
48	0x3d716d80	0.058942318
49	0xc2b2ad62	-89.33864
50	0xbe9ce665	-0.30644527
51	0xbea1b4cb	-0.31583247
52	0x3e7910cb	0.24322812
53	0xbe95a1d3	-0.29225025
54	0xbd4a62a0	-0.049410462
55	0xbe820c1c	-0.25399864
56	0x3e274e18	0.16338384
57	0xbe548e9e	-0.20757529
58	0xbe8626a3	-0.26201352
59	0xbe93a56a	-0.28837138
60	0x3e824ea5	0.25450626
61	0xbe52b83a	-0.2057809
62	0xbe7dc6da	-0.24782887
63	0x3dc0ce6d	0.094143726
64	0xbe10e5f8	-0.14150226
65	0xbe2fe5a6	-0.17177448
66	0x3d3f3af8	0.046687096
67	0x3e284722	0.16433385
68	0xbe472d6a	-0.19450918
69	0xbe400f04	-0.18755728
70	0xbe89f265	-0.26942745
71	0xbc82ff60	-0.015990913
72	0xbd89acca	-0.0672241
73	0xbe121330	-0.14265132
74	0xbb825140	-0.003976971
75	0x3e0469b6	0.1293095
76	0x3e259690	0.16170716
77	0x3cb4fd70	0.022093505
78	0xbe5ce33f	-0.21571063
79	0xbf72ff46	-0.94920766
80	0x3cadc6f4	0.021213032
81	0xbda062cc	-0.07831344
82	0xbe83499a	-0.2564209
83	0x3e56aa2b	0.20963351
84	0xbee6023d	-0.44923583
85	0xbb85b5c0	-0.004080504
86	0xbe513477	-0.2043017
87	0xbdafb676	-0.085797235
88	0x3cc23f80	0.02371192
89	0xbe5b0c7c	-0.21391481
90	0xbd3a98b3	-0.04555578
91	0xbe4ef9f2	-0.20212534
92	0xbe8126f6	-0.25225037
93	0xbdcc8030	-0.09985387
94	0xc229a372	-42.409615
95	0x3d6d3008	0.057907134
96	0x3db0b058	0.08627385
97	0x3d0fe450	0.035129845
98	0x3e9bfca3	0.30466184
99	0xc3454c81	-197.29884

layers.3.bias f4 [10]
0	0xbc4bb5e6	-0.012433505
1	0xbf9bce2d	-1.2172295
2	0xbe47d6d6	-0.19515547
3	0xc0c14b4d	-6.040442
4	0xbf3636c8	-0.7117734
5	0xbe9ab466	-0.30215758
6	0xbe65b1ee	-0.22431156
7	0xbcdb9d4d	-0.026808405
8	0xc0b447e0	-5.633774
9	0xbfd63297	-1.6734189

layers.6.weight f4 [10, 10]
0	0x3e6a0300	0.22852707
1	0xbe7bc033	-0.24585037
2	0x3de31246	0.1108747
3	0xbdd6c00f	-0.10485851
4	0x3e470b3c	0.1943788
5	0xbea1b9ef	-0.3158717
6	0xbe7df4a0	-0.24800348
7	0xbe471ded	-0.1944501
8	0xbe540d7a	-0.20708266
9	0xbe036572	-0.12831667
10	0xbe9b5e77	-0.30345508
11	0xbd827ca8	-0.063714325
12	0x3e9ab91b	0.3021935
13	0x3e2a6bca	0.16642681
14	0xbe138660	-0.14406729
15	0xbccdd810	-0.02512744
16	0xbe7c1ee0	-0.24621153
17	0xbe002b05	-0.1251641
18	0xc0b65c60	-5.6987762
19	0xbe7d0dfe	-0.24712369
20	0xbe16b900	-0.1471901
21	0xbe035406	-0.12825021
22	0xbde89c1b	-0.113579
23	0x3d0ba307	0.034091022
24	0xbeaefcbb	-0.34177193
25	0x3a1d58a8	0.00060022855
26	0xbe0f9b3d	-0.14024062
27	0xbb2a70ac	-0.00260071
28	0xbf9e84a0	-1.2384224
29	0xbd3d730b	-0.04625229
30	0xbe9c369a	-0.30510408
31	0x3d28580c	0.041099593
32	0x3e750d46	0.23930845
33	0xbe814675	-0.25249067
34	0xbd94a7b2	-0.07258548
35	0xbe644ad8	-0.22294176
36	0x3d6ae46a	0.05734674
37	0xbd6990ab	-0.05702273
38	0xbe968aad	-0.29402676
39	0xbec10c6e	-0.37704796
40	0xbc9d0f68	-0.019172385
41	0xc1c3f5bf	-24.494993
42	0xc15111b3	-13.066821
43	0xc08ccb4f	-4.399818
44	0xc1a19a6c	-20.200401
45	0x3d3a6560	0.045506835
46	0x3e6247c6	0.22097692
47	0xb9ae5000	-0.0003324747
48	0xc11e80ca	-9.906443
49	0xc2775abd	-61.83861
50	0x3e5983f9	0.2124175
51	0xc2200aa9	-40.01041
52	0xc1abc94c	-21.47329
53	0xbe1aa957	-0.1510366
54	0xc20d5900	-35.336914
55	0xbcaaf0a0	-0.020866692
56	0x3e061e44	0.13097483
57	0xbed6326e	-0.4183535
58	0xbdc7f666	-0.09763794
59	0xc2c32996	-97.58122
60	0xbe885277	-0.26625416
61	0xbf274fd1	-0.65356165
62	0xc06015ab	-3.5013225
63	0xbe2f766a	-0.17135015
64	0xc04007d8	-3.0004787
65	0xbe50351c	-0.2033276
66	0xbea13f23	-0.31493482
67	0x3d66f946	0.05639007
68	0xbec43ef6	-0.38329285
69	0xc16eab11	-14.916764
70	0x3ec85eb4	0.39134753
71	0xc2b3c9c0	-89.89404
72	0xc22889db	-42.134624
73	0x3e99285e	0.2991361
74	0xc292c6cb	-73.38827
75	0xbb5f7c00	-0.003410101
76	0xbe40d763	-0.18832164
77	0xbf400938	-0.75014067
78	0x3d58c208	0.052919418
79	0xc34c659c	-204.39691
80	0xbd5b0f28	-0.05348125
81	0xbe83bf00	-0.2573166
82	0x3ce91340	0.028451562
83	0xbe827db3	-0.25486526
84	0xbdcc29e4	-0.099689275
85	0xbe2d73f9	-0.16938771
86	0xbe8ca992	-0.27473122
87	0x3dd4e844	0.10395864
88	0xbdaa986e	-0.08329855
89	0xbda76b70	-0.08174789
90	0xbe4ef44d	-0.20210381
91	0xbf10d777	-0.56578773
92	0xbe35361f	-0.17696427
93	0x3e5b4617	0.21413456
94	0xbdb42dbf	-0.08797788
95	0xbd34bd28	-0.044125706
96	0xbd8052c4	-0.06265786
97	0x3e853459	0.260165
98	0xbe471f6b	-0.19445579
99	0xbf90fd02	-1.1327212

layers.6.bias f4 [10]
0	0x40fd67d4	7.9189243
1	0xbee60e4e	-0.4493279
2	0x40eb1615	7.3464456
3	0xbad4fa30	-0.0016248878
4	0xc2272426	-41.7853
5	0xbf2ecd16	-0.68281686
6	0xbf2e3054	-0.6804249
7	0xbf452f13	-0.77024955
8	0xbe08c57e	-0.13356587
9	0xbead3023	-0.33825788

layers.9.weight f4 [1, 10]
0	0x40fd69c6	7.919162
1	0xc02897ac	-2.6342573
2	0x40eb15f3	7.3464293
3	0xbd466fd9	-0.04844651
4	0xc2e6f007	-115.4688
5	0xc2c4e990	-98.45618
6	0xc04e0f9b	-3.2197025
7	0xc372a1a6	-242.63144
8	0xbe9a00c6	-0.30078715
9	0xbe80a193	-0.2512327

layers2.0.weight f4 [10, 11]
0	0x3e97e054	0.29663336
1	0xbc2f2120	-0.01068905
2	0xbe832341	-0.25612834
3	0x3dde6940	0.108599186
4	0xbe290186	-0.16504487
5	0xbe83a906	-0.25714892
6	0x3ca30ce0	0.0199036
7	0x3e8e8b16	0.2784049
8	0xbcc99ff0	-0.024612397
9	0x3e97e09a	0.29663545
10	0xbca36760	-0.019946754
11	0xbe226177	-0.15857492
12	0x3ddd14cc	0.10794982
13	0xbe8c392c	-0.2738737
14	0xbdec165e	-0.11527704
15	0x3e66c068	0.22534335
16	0xbe4d7a24	-0.20066124
17	0xbe6b0a3f	-0.22953127
18	0x3c5ed200	0.013599873
19	0xbe56c671	-0.20974137
20	0x3e8ff682	0.28117758
21	0xbe1b8611	-0.15187861
22	0xbe009eb5	-0.12560542
23	0x3dc8f42c	0.09812197
24	0xbdf043f0	-0.11731708
25	0x3d10be58	0.035337776
26	0x3ba74500	0.005104661
27	0x3e8dc30e	0.27687877
28	0xbdcf9ee0	-0.10137725
29	0x3e6fcbf4	0.23417646
30	0x3e5da1d0	0.21643758
31	0x3b62dd80	0.0034616888
32	0xbe984cab	-0.29745993
33	0x3e04a1b4	0.1295231
34	0xbbf2f100	-0.0074139833
35	0x3e228ec0	0.15874767
36	0xbdab349c	-0.08359644
37	0x3d9eff50	0.07763541
38	0xbdcfe218	-0.10150546
39	0x3e724850	0.23660398
40	0x3e7da758	0.24770868
41	0xbe99fa87	-0.3007395
42	0x3e50f944	0.20407587
43	0xbe4e12ee	-0.20124409
44	0xbe4853f4	-0.19563276
45	0x3dfd84dc	0.123788565
46	0x3e4972b2	0.19672659
47	0x3d2a7428	0.04161468
48	0xbe44347e	-0.19160649
49	0xbe5cc8a6	-0.21560916
50	0xbe864ef7	-0.2623212
51	0x3d21db30	0.039515674
52	0x3c74c6a0	0.014939934
53	0x3e498128	0.19678175
54	0x3e73cc7c	0.23808473
55	0x3c414aa0	0.011797577
56	0xbe5c42c7	-0.21509849
57	0x3e4276d4	0.18990642
58	0x3e647624	0.22310692
59	0xbe5aeaca	-0.21378627
60	0x3e5dded4	0.21667033
61	0xbc6a2dc0	-0.014293134
62	0xbddee796	-0.10884015
63	0xbd9d57ba	-0.07682748
64	0xbd87eb5a	-0.066366866
65	0x3e7461d0	0.23865438
66	0xbdcd9eec	-0.100400776
67	0x3e544334	0.20728761
68	0x3e4a74ca	0.19771114
69	0xbe5c6b11	-0.21525218
70	0xbde558e0	-0.11198592
71	0xbe0307be	-0.12795922
72	0x3e963d2a	0.2934354
73	0xbe78b4da	-0.2428774
74	0xbde9dee2	-0.11419465
75	0xbe664e6f	-0.22490858
76	0xbe76c489	-0.2409841
77	0xbe2a2f5a	-0.16619626
78	0x3de2b648	0.11069924
79	0x3e1175c4	0.1420508
80	0xbb4e7e00	-0.0031508207
81	0x3deeba08	0.116565764
82	0xbd8013d0	-0.06253779
83	0x3e67ac88	0.22624409
84	0x3db48454	0.08814302
85	0xbcbc5770	-0.022990912
86	0x3da133b8	0.07871193
87	0x3e517e90	0.20458436
88	0xbe4efa8a	-0.2021276
89	0x3e7df96c	0.24802178
90	0xbcf50520	-0.02990967
91	0xbe4d0aa4	-0.2002359
92	0x3e913340	0.28359413
93	0x3e6e6eec	0.23284501
94	0xbc1f9d60	-0.009742111
95	0xbe0f1221	-0.1397176
96	0xbd72f9d4	-0.059320286
97	0xbbbcdb00	-0.0057634115
98	0xbe64c8b6	-0.2234219
99	0x3e5cf780	0.21578789
100	0xbe58e676	-0.21181664
101	0x3c27e860	0.010248274
102	0xbe170067	-0.14746247
103	0x3e4629c8	0.19351876
104	0xbdc18ce2	-0.094506994
105	0x3e1227f2	0.1427305
106	0x3e0f6840	0.14004612
107	0xbdeb2c1c	-0.114830226
108	0xbe909067	-0.2823517
109	0xbd5f4e98	-0.054518312

layers2.0.bias f4 [10]
0	0x3df75474	0.12076655
1	0x3d19a2e8	0.037508875
2	0x3e981852	0.29706055
3	0xbe02def6	-0.12780365
4	0x3e856a20	0.2605753
5	0xbe83730e	-0.25673717
6	0xbca30be0	-0.019903123
7	0x3d600e80	0.05470133
8	0x3dd1cda8	0.10244304
9	0x3e0b509e	0.13604972

layers2.3.weight f4 [10, 10]
0	0x3e982909	0.29718807
1	0xbc143f00	-0.0090482235
2	0xbd4192d0	-0.047259152
3	0xbcbeb2f0	-0.023278683
4	0x3dfe42f0	0.12415111
5	0x3d235410	0.03987509
6	0xbe80af74	-0.2513386
7	0x3ea0ee71	0.31431916
8	0x3d553dd0	0.052060902
9	0x3e42f736	0.19039616
10	0x3e958521	0.29203132
11	0x3e9531db	0.291396
12	0x3e3ea8c6	0.1861907
13	0xbe9b51e4	-0.30335915
14	0xbe48f6e8	-0.19625437
15	0xbe9fee19	-0.31236342
16	0x3d696a88	0.05698636
17	0xbdca891a	-0.09889431
18	0x3e9ca2e7	0.30593035
19	0xbe6bc9ac	-0.2302615
20	0x3e6831f6	0.22675309
21	0x3e54a2de	0.20765254
22	0x3e632982	0.22183803
23	0x3d54a0a8	0.051911026
24	0xbe4d40b8	-0.2004422
25	0x3e18c95a	0.1492056
26	0xbe6599fa	-0.22422019
27	0x3c1763e0	0.009240121
28	0xbe517a7a	-0.20456877
29	0xbe024a2a	-0.12723604
30	0x3da7a900	0.08186531
31	0x3e361d3c	0.1778459
32	0x3e8a6cb1	0.2703605
33	0xbdfe38d8	-0.12413186
34	0x3e898dc7	0.2686598
35	0xbe913d29	-0.28366974
36	0x3e397ef6	0.18114838
37	0xbd33d090	-0.043900073
38	0x3e24275a	0.16030636
39	0x3d622ce0	0.055218577
40	0x3e077d02	0.1323128
41	0x3e49f346	0.19721708
42	0x3e5c5566	0.21516952
43	0x3dcd2e28	0.10018569
44	0x3e459b12	0.19297436
45	0x3e8e788d	0.27826348
46	0xbdd62b60	-0.10457492
47	0x3c285640	0.01027447
48	0x3d5a85a0	0.05335009
49	0xbe22b106	-0.15887842
50	0xbdcaa2f8	-0.09894365
51	0xbe9cda4e	-0.30635303
52	0xbe930643	-0.28715715
53	0xbe4d71f7	-0.20063005
54	0xbe1b440b	-0.15162675
55	0xbe513392	-0.20429829
56	0x3e9af4af	0.30264804
57	0xbe307cd1	-0.17235114
58	0xbe8a7712	-0.27043968
59	0x3e405846	0.18783674
60	0x3e3fb586	0.1872159
61	0xbe0f9c2a	-0.14024416
62	0x3e2d2950	0.1691029
63	0x3e337ea2	0.17528775
64	0xbe84ff8d	-0.2597622
65	0xbe83a4b2	-0.2571159
66	0xba76d600	-0.0009416044
67	0x3e9a8233	0.3017746
68	0x3e69c082	0.22827342
69	0x3e62915e	0.22125766
70	0x3d571a40	0.05251527
71	0x3e7ddc42	0.24791053
72	0xbe3fa0c2	-0.18713668
73	0xbe6f9dd5	-0.23400052
74	0x3e1d4874	0.1535967
75	0xbe4d99a6	-0.20078143
76	0xbe4eda60	-0.20200491
77	0x3e212a90	0.15738893
78	0x3d485858	0.048912376
79	0x3df61d30	0.12017286
80	0x3c945110	0.01810506
81	0x3e41a6a6	0.18911228
82	0x3e50f776	0.20406899
83	0xbe5c6af1	-0.2152517
84	0x3e0a0b3e	0.13480851
85	0x3e214c9e	0.15751883
86	0x3deb3320	0.11484361
87	0x3e285972	0.1644037
88	0xbe8514c8	-0.25992417
89	0xbd056160	-0.032563567
90	0xbe92cf93	-0.28673992
91	0x3cb850d0	0.022499472
92	0x3e18da94	0.14927131
93	0x3cfec240	0.031098485
94	0x3d782880	0.0605855
95	0xbe4065ca	-0.1878883
96	0xbe9973ed	-0.29971257
97	0x3df32efc	0.11874196
98	0xbe9b0b80	-0.3028221
99	0xbda1a110	-0.07892048

layers2.3.bias f4 [10]
0	0xbe45a043	-0.19299416
1	0x3c7822e0	0.015145034
2	0x3e69adee	0.22820255
3	0x3db317ac	0.087447494
4	0xbdd94e32	-0.10610618
5	0x3e297c3c	0.16551298
6	0x3e2bbb08	0.16770566
7	0xbab6fb00	-0.0013960302
8	0x3e9ef779	0.31048182
9	0xbd7ea038	-0.062164515

layers2.6.weight f4 [1, 10]
0	0x3e6131de	0.21991679
1	0xbdb7de2a	-0.08977921
2	0x3e982f4b	0.29723582
3	0x3d7fa048	0.062408715
4	0xbc94c1c0	-0.018158793
5	0x3db98cb4	0.0906004
6	0xbe6e5e8a	-0.23278251
7	0xbde74318	-0.11292094
8	0x3e9f3293	0.31093273
9	0x3d565330	0.052325428
