models/regression/neural_networks/19-02-2023, 10:59:58/model.pt (torch, 2349 bytes, 3 tensors)

layers.0.weight f4 [12, 12]
-0.24091983 -0.27311411 0.16699487 0.19987246 -0.025705248 -0.21234612 0.20035979 0.025974572
0.19365677 -0.26338786 -0.2785236 -0.0748131 -0.5540503 -0.4349926 -0.35381615 -0.73780006
-0.31436932 -0.8659736 -0.78560174 -0.32760492 -0.8395022 -0.680037 -0.8749288 -0.35350576
-0.57789475 -0.43427706 -0.6988344 -0.421949 -0.32221326 -0.33931333 -0.73959386 -0.62508583
-0.51379347 -0.7716211 -0.54100907 -0.55542344 0.10769651 9.381968 7.1430745 12.612585
0.43537474 0.28846157 0.06531258 0.73205143 0.08352756 -0.32338578 0.81457317 10.869968
-0.5049772 -0.50042075 -0.917522 -0.8379397 -0.74935436 -0.6593657 -0.5690834 -0.7019154
-0.6917844 -0.50965333 -0.64020437 -0.9492552 -0.23150285 -0.0590304 -0.28393507 0.19911352
-0.07758917 -0.010492563 0.061208457 -0.20613489 -0.27775803 -0.25923133 -0.1700705 0.007553369
-0.090589315 -0.2034877 -0.12008569 0.17373383 0.21697843 -0.10889305 0.04864648 -0.23411955
-0.088824764 0.025399446 -0.115022644 0.19445968 -0.5466645 -0.28600082 -0.14378278 -0.4765496
-0.3168167 -0.1063373 -0.62118024 -0.5301231 -0.29017594 -0.49427697 -0.11611552 -0.623384
-0.39519808 -0.46472266 -0.1954051 -0.4163754 -0.23850965 -0.5208413 -0.12510368 -0.19949786
-0.2929309 -0.5068313 -0.23850925 -0.3355141 -0.5599661 -0.85668814 -0.43593514 -0.6774241
-0.5487613 -0.5592449 -0.41556385 -0.8586459 -0.6868593 -0.96821326 -0.72924757 -0.7729816
-0.5017213 4.357813 3.3527575 6.01778 1.4225044 0.9880582 1.0687432 1.0335982
1.1232107 0.48095816 0.15088087 5.3874097 -0.14791596 9.207045 6.991723 12.342142
-0.029724512 0.20454088 -0.25001562 0.25140843 -0.04902652 -0.46568504 0.42008954 10.323445
00000000: b0b3 76be 9dd5 8bbe b400 2b3e 5eab 4c3e
00000010: d093 d2bc 4371 59be 1e2b 4d3e a0c8 d43c
00000020: f64d 463e c6da 86be a59a 8ebe 9c37 99bd
00000030: 3ed6 0dbf 5ab7 debe 6427 b5be 77e0 3cbf
00000040: 04f5 a0be 72b0 5dbf 321d 49bf d5bb a7be
00000050: 9ee9 56bf e816 2ebf 55fb 5fbf b5fe b4be
00000060: e9f0 13bf 9059 debe d0e6 32bf b309 d8be
00000070: 23f9 a4be 7aba adbe 0656 3dbf a005 20bf
00000080: f887 03bf f688 45bf 927f 0abf 3b30 0ebf
00000090: fd8f dc3d 8a1c 1641 1194 e440 26cd 4941
000000a0: 70e9 de3e 3cb1 933e 9ac2 853d b967 3b3f
000000b0: 7f10 ab3d d292 a5be de87 503f 64eb 2d41
000000c0: 3046 01bf 931b 00bf b9e2 6abf 3783 56bf
000000d0: b0d5 3fbf 31cc 28bf 73af 11bf bab0 33bf
000000e0: c818 31bf a478 02bf 6fe4 23bf 6402 73bf
000000f0: 150f 6dbe dcc9 71bd f05f 91be 6ae4 4b3e
00000100: 12e7 9ebd 00e9 2bbc b8b5 7a3d 0615 53be
00000110: 4d36 8ebe f8b9 84be f626 2ebe 4082 f73b
00000120: e486 b9bd 145f 50be 7cef f5bd 48e7 313e
00000130: 982f 5e3e 5203 dfbd 8841 473d 09bd 6fbe
00000140: c2e9 b5bd 8012 d03c fe90 ebbd 7020 473e
00000150: 34f2 0bbf b36e 92be cb3b 13be 4ffe f3be
00000160: cc35 a2be 5fc7 d9bd ab05 1fbf 26b6 07bf
00000170: f191 94be df11 fdbe f9cd edbd 1896 1fbf
00000180: 6757 cabe 21f0 edbe 4618 48be 282f d5be
00000190: e03b 74be db55 05bf 2e1b 00be 2b49 4cbe
000001a0: 0afb 95be b2bf 01bf c53b 74be 81c8 abbe
000001b0: f059 0fbf ea4f 5bbf e432 dfbe aa6b 2dbf
000001c0: 9f7b 0cbf ac2a 0fbf c9c4 d4be 38d0 5bbf
000001d0: 03d6 2fbf d3dc 77bf f8af 3abf 1fe2 45bf
000001e0: cf70 00bf 3473 8b40 9493 5640 a791 c040
000001f0: a014 b63f 62f1 7c3f 94cc 883f f24c 843f
00000200: 5ec5 8f3f 2640 f63e 8480 1a3e a965 ac40
00000210: 4877 17be 0e50 1341 32bc df40 6a79 4541
00000220: d280 f3bc 2a73 513e 0c02 80be 9bb8 803e
00000230: 08d0 48bd 456e eebe fa15 d73e d52c 2541

layers.0.bias f4 [12]
-0.1016569 -0.7871968 -0.43870437 0.12066775 -0.9487508 -0.13745818 0.081802934 -0.46338314
-0.34828064 -0.44684616 0.965859 -0.48874238
00000000: 7e31 d0bd bb85 49bf dc9d e0be a720 f73d
00000010: 55e1 72bf d6c1 0cbe 4c88 a73d 8e40 edbe
00000020: d751 b2be 05c9 e4be 8942 773f 713c fabe

layers.2.weight f4 [1, 12]
0.28186524 0.4210106 0.59765977 0.650433 0.32319504 0.2351008 0.13648379 -0.081783645
0.5600756 0.49534157 0.43324283 0.5430125
00000000: a450 903e b48e d73e 3b00 193f c782 263f
00000010: d279 a53e 44be 703e 68c2 0b3e 2f7e a7bd
00000020: 1d61 0f3f 699d fd3e 01d2 dd3e de02 0b3f
