models/regression/neural_networks/19-02-2023, 11:08:34/model.pt (torch, 2349 bytes, 3 tensors)

layers.0.weight f4 [12, 12]
00000000: 748b f5bc d7b6 f23f 9991 0040 48dd 0440
00000010: 9c11 a2bd 4364 513e 4a11 813e 3bbc a2bd
00000020: aa1e 2f3e 906e ecbc 3f7e 54be 701f dc3f
00000030: 6145 56be 53b0 93bc 7f7f 913e 3e65 213e
00000040: 8fff 0abe b508 98be 8dad ac3d 9346 76be
00000050: cef9 57be d36c 0ebe 69da a43e a223 283e
00000060: cff8 6dbe dfda 71be fb61 0d3e 93f1 8abe
00000070: 56eb e43d 85d5 11be 2b66 a2bd 6fea d4bd
00000080: a955 a3ba 71f7 d23b c537 29bd d3c1 103d
00000090: 04e6 2cbd 8590 de3f b564 d63f 5c46 f93f
000000a0: 9e52 e8bd cba8 7cbd 284b b33e b07a 073c
000000b0: b12f 92bd 5a18 3a3b 7579 de3e aeb2 0e40
000000c0: 27c7 27bd 5938 f03f a18c 0540 6ff1 f43f
000000d0: 08dc 563e 0728 dd3e 6409 d13e 4aec a03d
000000e0: bba8 443d 4368 ab3e bcc9 aabd c3db 0640
000000f0: 0894 d83d a84b c13f 6dd1 f03f e3c0 f03f
00000100: 5999 8a3e 7930 143f e418 833e a360 8e3e
00000110: dd42 4d3e 98df f8bc c1ca d63e 790f e23f
00000120: 8a24 98bd 7465 1640 162f 0f40 041f 1440
00000130: 517b 0d3f 81a7 0b3f ca41 7d3f e9eb 493f
00000140: 2ac4 4d3f 78bc 643f f22b 5f3f 1e0d 2340
00000150: 6cf4 34bd 0e80 c1bd f0a5 62bd fcba 6f3e
00000160: 80bf d63c 8866 f5bd 0089 a6ba d951 8bbe
00000170: 12bd 843e c291 413e 0e0e c5bd 2cce 5e3e
00000180: 570a 76be 7f5a 6bbe 7b2c 563e 9339 4b3e
00000190: 6457 523d f2b4 923d 8fb2 223d 992a 78be
000001a0: 7f3a 09bd 738d a0be 4c64 fd3b c636 24be
000001b0: fdde 293e 3fa7 d93f 7a83 e43f cc33 ef3f
000001c0: 0f9a ed3e 895e 3b3e ce80 ca3e d3ec c83e
000001d0: d57b b13e 726c 6a3e 903f 0a3f 94e5 e73f
000001e0: 6570 1ebe f8af 6cbd 8770 5b3e 5429 05be
000001f0: 82c4 1f3e 9fc0 063d 73ed 4abe 1f45 9abe
00000200: 8369 65bc 42be 50bd 48db 83bd d218 a6be
00000210: c840 04bd 8643 ddbd d072 84be 00f9 deba
00000220: d4c3 f63d 28ef 463e 1873 70bd bc5f 82be
00000230: 98fc fcbd 7ea0 1e3e 0763 69be dcf3 5b3e
-0.029973723 1.8962048 2.0088866 2.076006 -0.07913515 0.20448403 0.25208503 -0.07946058
0.17101541 -0.028861314 -0.20751284 1.7197094 -0.20924903 -0.018028414 0.28417584 0.15761277
-0.1357405 -0.29694143 0.0843154 -0.2405036 -0.21091387 -0.139087 0.32197884 0.16419843
-0.23239444 -0.23618649 0.13806908 -0.27137432 0.11177699 -0.14241607 -0.07929643 -0.10396277
-0.0012461442 0.0064381887 -0.04131295 0.035341095 -0.042211547 1.7387854 1.6749483 1.9474597
-0.11343883 -0.06168441 0.35018277 0.008268997 -0.07138003 0.0028395862 0.4345204 2.2296557
-0.04096141 1.8767196 2.0867083 1.913618 0.20982373 0.431946 0.40827477 0.078575686
0.048012476 0.33477983 -0.08339259 2.1071632 0.1057511 1.5101213 1.8813912 1.8808864
0.2707012 0.57886463 0.25604928 0.27808103 0.20045038 -0.030380055 0.41951564 1.7660972
-0.07428844 2.3499422 2.237249 2.314393 0.5526629 0.54552466 0.9892851 0.78875595
0.8037745 0.8935008 0.8717643 2.5476756 -0.04417841 -0.094482526 -0.05533403 0.23411173
0.026214361 -0.11982447 -0.0012705624 -0.27210882 0.259255 0.18903258 -0.09621821 0.21758336
-0.24027382 -0.2298374 0.20915405 0.19846182 0.051352873 0.07163419 0.039721068 -0.24235
-0.03350305 -0.31357917 0.0077329036 -0.1603652 0.1658897 1.7004164 1.7852623 1.8687682
0.464066 0.18297781 0.39551395 0.39243183 0.3466479 0.22892931 0.5400324 1.8116937
-0.15472563 -0.057785004 0.21429645 -0.13004047 0.15602306 0.03289854 -0.19817142 -0.3013086
-0.014002207 -0.050962694 -0.06438309 -0.3244081 -0.032288343 -0.10803895 -0.25868845 -0.0017011464
0.1204907 0.19427168 -0.058703512 -0.25463665 -0.12352866 0.1549091 -0.22791682 0.21479744

layers.0.bias f4 [12]
00000000: 8944 e63d 6b75 8d3d ef9e 333e dc40 4b3e
00000010: 1109 403e d6ef 023e 2d24 0a3f 04cb 5c3e
00000020: de32 33be 231c 0a3f 6364 37bc 009a 3fbc
0.11243541 0.06907161 0.17541097 0.1984896 0.18753459 0.12786803 0.5396145 0.2156182
-0.17499873 0.53949183 -0.011193368 -0.011694431

layers.2.weight f4 [1, 12]
00000000: fecd 8c3e 2ace 75be 344e 0fbc ba0c 893e
00000010: 0cbe a53e 7bb2 983e ec3e b93f 7096 e7bc
00000020: c34b 06be 0024 bc3e 0b64 b1bd c3c6 1abe
0.2750091 -0.24004427 -0.008746672 0.26767522 0.32371557 0.2982367 1.4472327 -0.028269976
-0.13114838 0.36746216 -0.0866166 -0.15114884
