models/regression/neural_networks/17-02-2023, 19:50:27/model.pt (torch, 2195 bytes, 3 tensors)

layers.0.weight f4 [12, 12]
0	0xca824152	-4.268201e+06
1	0xc6bcb158	-24152.672
2	0xc66915e4	-14917.473
3	0xc600bb52	-8238.83
4	0xc7016957	-33129.34
5	0xc702ebd6	-33515.836
6	0xc7021046	-33296.273
7	0xc702dcb6	-33500.71
8	0xc702642d	-33380.176
9	0xc7007a6b	-32890.418
10	0xc8867c49	-275426.28
11	0xc63575de	-11613.467
12	0xbdeb6854	-0.114945084
13	0xbc828c90	-0.015936166
14	0xbe119a97	-0.14219128
15	0x3c881af0	0.016614407
16	0x3e51fcbe	0.2050657
17	0x3e872b8c	0.2640041
18	0xbe26720e	-0.16254446
19	0xbc945170	-0.018105239
20	0xbd58ce58	-0.05293116
21	0xbe74fabc	-0.23923773
22	0xbdfb1aaa	-0.12260945
23	0xbd5cbd98	-0.05389175
24	0xbfc70e97	-1.5551327
25	0xbd38ba83	-0.045099746
26	0xbe8ed6cc	-0.27898252
27	0xbe98997c	-0.298046
28	0x3d8d4746	0.0689836
29	0xbde2dcb8	-0.11077255
30	0xbcb890e6	-0.02253003
31	0x3e6fa46f	0.2340257
32	0xbd945b04	-0.07243922
33	0x3e4c798c	0.19968241
34	0xbe4d41ad	-0.20044585
35	0xbd8ffad6	-0.07030265
36	0xcaae5330	-5.71228e+06
37	0xc6fc8874	-32324.227
38	0xc69bf928	-19964.578
39	0xc62c4b13	-11026.769
40	0xc72d3223	-44338.137
41	0xc72f36d8	-44854.844
42	0xc72e114d	-44561.3
43	0xc72f2325	-44835.145
44	0xc72e81e2	-44673.883
45	0xc72bf2a6	-44018.65
46	0xc8b3fca3	-368613.1
47	0xc672dbd9	-15542.962
48	0xc1dd99dd	-27.700129
49	0xbe558bf4	-0.20854169
50	0xbe91329b	-0.2835892
51	0xbdd71ce9	-0.10503561
52	0xbf194491	-0.5987025
53	0xbf16bd52	-0.5888263
54	0xbf04a0f6	-0.51808107
55	0xbebe032d	-0.37111798
56	0xbe069b10	-0.13145089
57	0xbe37994c	-0.17929572
58	0xbfff2c7c	-1.993545
59	0xbe341418	-0.1758579
60	0xbe1cf567	-0.15327989
61	0x3e0e3ba6	0.13889942
62	0x3e3da1b3	0.18518715
63	0x3d1345bc	0.035955176
64	0xbea9ea60	-0.33186626
65	0xbe31b74d	-0.1735508
66	0xbeaad5a5	-0.33366123
67	0xbe81af21	-0.25328925
68	0xbd30b64e	-0.04314261
69	0x3dfbf319	0.123022266
70	0xbe1cae78	-0.1530093
71	0x3d8203ca	0.06348379
72	0xc1d40e78	-26.507065
73	0xbe0f7306	-0.14008722
74	0xbe32f601	-0.17476656
75	0xbeba52ef	-0.36391398
76	0xbf12ef34	-0.57396245
77	0xbf005cc8	-0.5014157
78	0xbe58318e	-0.21112654
79	0xbd184eb8	-0.037184447
80	0xbf0ee47e	-0.558174
81	0xbe8e3e50	-0.27781916
82	0xc00af591	-2.1712382
83	0x3d8f0a6e	0.06984411
84	0xcb89f54c	-1.8082456e+07
85	0xc7c7da19	-102324.195
86	0xc776ddc0	-63197.75
87	0xc70859bb	-34905.73
88	0xc809106b	-140353.67
89	0xc80aa9a4	-141990.56
90	0xc809c132	-141060.78
91	0xc80a9a0f	-141928.23
92	0xc80a1a3f	-141416.98
93	0xc80813ad	-139342.7
94	0xc98e7059	-1.1668591e+06
95	0xc7403229	-49202.16
96	0xcb5290f4	-1.3799668e+07
97	0xc798847f	-78088.99
98	0xc73c6597	-48229.59
99	0xc6d01c59	-26638.174
100	0xc7d1335f	-107110.74
101	0xc7d3a41d	-108360.23
102	0xc7d2415f	-107650.74
103	0xc7d38c57	-108312.68
104	0xc7d2c94f	-107922.62
105	0xc7cfb1e9	-106339.82
106	0xc95967b3	-890491.2
107	0xc712ac97	-37548.59
108	0xc99056c1	-1.1824241e+06
109	0xc5d115d6	-6690.7295
110	0xc58125c6	-4132.7217
111	0xc50ea636	-2282.3882
112	0xc60f676c	-9177.855
113	0xc611142f	-9285.046
114	0xc6101f09	-9223.759
115	0xc6110313	-9280.769
116	0xc6107d28	-9247.289
117	0xc60e5f97	-9111.897
118	0xc79506d4	-76301.66
119	0xc5491166	-3217.0874
120	0xc0c3ec09	-6.122563
121	0x3e659f6c	0.22424096
122	0x3e01252f	0.1261184
123	0x3e625b2e	0.22105095
124	0x3e4b6782	0.19863704
125	0xbea0d527	-0.31412622
126	0xbe75655a	-0.23964444
127	0x3e398b07	0.18119441
128	0xbea2009e	-0.31641096
129	0xbd280030	-0.041015804
130	0xbf105286	-0.5637592
131	0xbe85ccd7	-0.26132843
132	0xcbbe4f5f	-2.4944318e+07
133	0xc809d876	-141153.84
134	0xc7aa45ec	-87179.84
135	0xc73c171d	-48151.113
136	0xc83d1378	-193613.88
137	0xc83f481a	-195872.4
138	0xc83e077c	-194589.94
139	0xc83f32a1	-195786.52
140	0xc83e824d	-195081.2
141	0xc83bb6de	-192219.47
142	0xc9c47dae	-1.6096538e+06
143	0xc784909b	-67873.21

layers.0.bias f4 [12]
0	0xc5d48424	-6800.5176
1	0xbca05bc0	-0.019575
2	0x3e5586da	0.20852223
3	0xc60e3665	-9101.599
4	0xbe54d967	-0.20786057
5	0x3e417a11	0.18894221
6	0xbe447dd6	-0.19188628
7	0xc6e11660	-28811.188
8	0xc6abc6f1	-21987.47
9	0xc4eb7bd0	-1883.8691
10	0x3e0e22b4	0.13880426
11	0xc71b4032	-39744.195

layers.2.weight f4 [1, 12]
0	0xcac64310	-6.496648e+06
1	0x3dd05378	0.101721704
2	0x3e141a3e	0.14463136
3	0xca654fbd	-3.7570392e+06
4	0x4199f8d6	19.246502
5	0xbdb4f62c	-0.08836016
6	0x41b187cf	22.191313
7	0xc9a533dc	-1.3533395e+06
8	0xcb20b1ad	-1.0531245e+07
9	0xcab8c080	-6.053952e+06
10	0x40b708d4	5.7198277
11	0xcb6a46e8	-1.5353576e+07
