models/regression/neural_networks/17-02-2023, 19:51:25/model.pt (torch, 2195 bytes, 3 tensors)

layers.0.weight f4 [12, 12]
0	0xbeac3df7	-0.33641025
1	0xbbc32438	-0.0059552453
2	0xbe91fac3	-0.28511629
3	0xbd901165	-0.07034568
4	0x3b7a6ca0	0.0038211718
5	0xbd3d7b90	-0.046260417
6	0x3e3dd189	0.18536963
7	0xbe83cd9e	-0.2574281
8	0x3e379567	0.17928086
9	0xbdbcd386	-0.092200324
10	0xbd7b4168	-0.061341673
11	0x3df7d3d1	0.12100948
12	0xbece9db6	-0.403547
13	0x3d89b33c	0.06723639
14	0xbe7e3a9a	-0.24827042
15	0xbe6ac209	-0.22925581
16	0xbe48a3ca	-0.1959373
17	0x3d71261c	0.058874235
18	0xbe5330fe	-0.20624158
19	0xbccd9fa0	-0.02510053
20	0xbeb04dde	-0.34434408
21	0x3e186dee	0.14885685
22	0xbec293c0	-0.3800335
23	0x3daf482e	0.08558689
24	0xc236853e	-45.63012
25	0xbe5e9e54	-0.21740085
26	0xbe378955	-0.17923482
27	0xbec9a97f	-0.39387128
28	0xbe740242	-0.23828986
29	0xbf02b196	-0.51052225
30	0xbebefebf	-0.3730373
31	0xbebb919a	-0.36634523
32	0xbf24a2dc	-0.64311004
33	0xbf30a6d1	-0.6900454
34	0xc06837df	-3.62841
35	0x3d8ce614	0.068798214
36	0xc845dcda	-202611.4
37	0xc4cdd452	-1646.635
38	0xc48cd2f2	-1126.592
39	0xc405ff18	-535.98584
40	0xc4c949be	-1610.3044
41	0xc4cae983	-1623.2972
42	0xc4cb1487	-1624.6415
43	0xc4ca59cc	-1618.8062
44	0xc4cd07dc	-1640.2456
45	0xc4c365c3	-1563.18
46	0xc6325e98	-11415.648
47	0xc4334ea4	-717.22876
48	0xbe001446	-0.12507734
49	0x3e09a07c	0.13440126
50	0xbe7344f1	-0.23756768
51	0xbe8df4fe	-0.27725977
52	0x3bdb1840	0.0066862404
53	0xbe4782f2	-0.19483545
54	0xbc81f720	-0.015864909
55	0x3e2210be	0.15826699
56	0xbdf25708	-0.11833006
57	0x3c98f8e0	0.01867336
58	0xbd41b97c	-0.047296032
59	0xbe8e8ce2	-0.2784186
60	0xcb6a98ac	-1.5374508e+07
61	0xc7f4146b	-124968.836
62	0xc7a6f828	-85488.31
63	0xc71ecd3f	-40653.246
64	0xc7eeab5f	-122198.74
65	0xc7f098f0	-123185.875
66	0xc7f0d331	-123302.38
67	0xc7efeb78	-122838.94
68	0xc7f3215a	-124482.7
69	0xc7e7a9e0	-118611.75
70	0xc9537d38	-866259.5
71	0xc754ac60	-54444.375
72	0xbf33b89d	-0.7020357
73	0xbe3f96a0	-0.18709803
74	0xbd2e901c	-0.042617902
75	0x3e663663	0.22481684
76	0x3d9627ee	0.07331835
77	0x3d5d7ae8	0.05407229
78	0xbe80dc34	-0.25168002
79	0xbdc6dc72	-0.09710015
80	0x3d7713a4	0.060321465
81	0xbc7ad308	-0.015309103
82	0xbeb6e8dc	-0.35724533
83	0x3e4d1b53	0.20029955
84	0xbe1cc0e6	-0.1530796
85	0xbe2921c2	-0.16516784
86	0x3e17849f	0.14796685
87	0x3d8edc22	0.06975581
88	0xbe8b42d6	-0.2719943
89	0xbe95dfd6	-0.29272336
90	0xbe9d09ed	-0.30671635
91	0x3d9d08b3	0.07667675
92	0x3e13a2a2	0.14417508
93	0x3dc838fb	0.09776493
94	0xbe8faaa7	-0.28059885
95	0xbe2f445c	-0.17115921
96	0xc8c774dd	-408486.9
97	0xc54f8194	-3320.0986
98	0xc50df362	-2271.2114
99	0xc4870159	-1080.0421
100	0xc54ae5eb	-3246.3699
101	0xc54c8b31	-3272.6995
102	0xc54cbdbe	-3275.859
103	0xc54bf747	-3263.4548
104	0xc54eb27c	-3307.1553
105	0xc544f345	-3151.2043
106	0xc6b3ce71	-23015.22
107	0xc4b4d0d0	-1446.5254
108	0xcbaf4b77	-2.2976238e+07
109	0xc8366191	-186758.27
110	0xc7f98666	-127756.8
111	0xc76d51ad	-60753.676
112	0xc832569c	-182618.44
113	0xc833c75e	-184093.47
114	0xc833f2d8	-184267.38
115	0xc83345b1	-183574.77
116	0xc835abc2	-186031.03
117	0xc82d1a63	-177257.55
118	0xc99e0753	-1.2945704e+06
119	0xc79eea16	-81364.17
120	0xc1c148d4	-24.16056
121	0xbd82d53e	-0.06388329
122	0xbe4b0c92	-0.19829014
123	0xbd84f3bc	-0.06491801
124	0xbdd195b4	-0.10233632
125	0xbeb5be7a	-0.35496885
126	0xbea3de4e	-0.32005543
127	0xbeb17a9a	-0.3466385
128	0xbee0c9b6	-0.43903893
129	0xbe2a12d2	-0.16608742
130	0xbff593e0	-1.9185753
131	0xbe914c4b	-0.2837852
132	0xbd899c16	-0.06719224
133	0x3c8bc3e4	0.017061181
134	0xbe03e354	-0.12879688
135	0xbe86f8d3	-0.26361713
136	0x3e41ec93	0.18937902
137	0x3c405790	0.0117396265
138	0x3e135f58	0.1439184
139	0xbe6d66e0	-0.23183775
140	0x3b64a840	0.0034890324
141	0xbe85e3dc	-0.26150405
142	0xbe28adc4	-0.16472536
143	0xbcb524de	-0.022112306

layers.0.bias f4 [12]
0	0x3dfc4bdd	0.12319157
1	0xbe7b58f7	-0.24545656
2	0xbcf7ed44	-0.030264504
3	0xc3a55651	-330.67435
4	0x3e6f422c	0.23365086
5	0xc6c3f42c	-25082.086
6	0x3e276fbd	0.16351219
7	0x3b96c41e	0.0046010157
8	0xc4268cf8	-666.20264
9	0xc7126b5a	-37483.35
10	0x3def07bc	0.11671397
11	0xbe947b4f	-0.29000327

layers.2.weight f4 [1, 12]
0	0xbdb7071e	-0.08936904
1	0x3f4b993e	0.79530704
2	0x41ba56df	23.292418
3	0xc89aa3e2	-316703.06
4	0x3e66aa74	0.2252596
5	0xca147411	-2.4322602e+06
6	0xbdcbbe01	-0.0994835
7	0x3e1a9471	0.15095688
8	0xc9110e18	-594145.5
9	0xcb9df735	-2.0704874e+07
10	0x420317fd	32.773426
11	0xbd6f2bc2	-0.05839134
