models/regression/neural_networks/Price_Night/22-02-2023, 20:13:11/model.pt (torch, 5923 bytes, 8 tensors)

layers.0.weight f4 [14, 12]
-0.20350602 -0.2867988 0.09384632 -0.21010464 -0.09204951 -0.23779643 -0.23758647 -0.24013638
-0.08732484 0.08707562 0.03353414 0.009911418 0.14506379 -0.21404539 0.20424455 0.18151656
0.15554217 -0.24442928 0.15451846 0.04102543 0.03565696 -0.0119147 -0.042635962 -0.23516157
0.01700306 0.13228264 -0.24352786 0.17825669 -0.043440297 0.048556954 0.23196536 -0.24604437
0.26767588 -0.100629374 -0.20694229 0.23758525 0.15802184 0.095784664 0.22959363 -0.13015305
0.08581093 0.02214861 -0.1261497 0.21071753 0.024941921 0.19736692 0.28348613 -0.14592241
-0.035123557 0.15980867 0.1769273 0.124379605 -0.04318632 0.06266466 0.10224661 0.1644825
-0.17549485 0.17110604 -0.06115718 0.18800184 -0.05537997 -0.24824643 -0.21799521 0.12250829
-0.044855684 -0.16519934 -0.12860934 0.22047764 0.2828256 -0.10006063 0.25056332 -0.1805657
-0.19676852 -0.14192794 0.14655656 0.14641783 0.23402905 -0.013189167 0.105790704 -0.081514284
0.095324785 0.013677329 -0.11826189 0.10340685 -0.2008599 -0.24817376 0.241701 0.21646297
-0.21435228 -0.19283849 -0.15195937 -0.18562864 0.08324596 0.23654419 -0.0027300417 0.23909992
-0.15179336 0.07168129 0.17955482 -0.023123443 0.22980255 -0.2330915 -0.17137155 -0.011490583
-0.063964844 -0.0958865 0.008017659 0.030389637 -0.11372414 0.21020856 0.03367442 0.15409386
-0.111965135 -0.059343725 0.12856239 0.11609101 0.040907085 -0.11924788 0.048312306 0.28152448
-0.008283079 -0.110475376 0.048799187 -0.22692794 0.21516228 0.17704731 -0.003117323 0.24115157
0.13220635 -0.13458295 -0.06889805 -0.24305385 -0.19221812 -0.25378186 -0.1979011 0.13714242
-0.060326874 0.26499683 -0.21247135 -0.28809628 0.2693643 -0.19783574 0.082369864 0.18886554
0.11336312 -0.18959843 0.06659451 -0.26287344 0.099950016 0.100218356 0.20016775 -0.2711211
0.0028100908 -0.19502738 -0.045289084 0.15134671 0.062601954 0.27899784 -0.037370086 0.09391865
0.20146707 0.18824786 -0.19950727 0.099725425 -0.19521374 0.08470389 -0.08775662 -0.22370034
00000000: e263 50be 4bd7 92be 8032 c03d ac25 57be
00000010: 7484 bcbd e880 73be de49 73be 50e6 75be
00000020: 5ed7 b2bd b454 b23d 185b 093d 8063 223c
00000030: 9a8b 143e b72e 5bbe 7c25 513e 7adf 393e
00000040: 7246 1f3e ab4b 7abe 163a 1e3e 480a 283d
00000050: 080d 123d e035 43bc 0ca3 2ebd 32ce 70be
00000060: 004a 8b3c 1a75 073e 5e5f 79be ec88 363e
00000070: 74ee 31bd a8e3 463d 5488 6d3e 0ef3 7bbe
00000080: d00c 893e c616 cebd aee8 53be 8c49 733e
00000090: 7ad0 213e c02a c43d 981a 6b3e d746 05be
000000a0: a4bd af3d 0071 b53c 632d 01be 56c6 573e
000000b0: 0053 cc3c 8e1a 4a3e 1825 913e af6c 15be
000000c0: b8dd 0fbd e2a4 233e 6e2c 353e bcba fe3d
000000d0: 24e4 30bd 5456 803d ac66 d13d 1a6e 283e
000000e0: ecb4 33be 6c36 2f3e f47f 7abd 8e83 403e
000000f0: 1cd6 62bd 5034 7ebe 233a 5fbe a0e5 fa3d
00000100: 98ba 37bd 042a 29be 2bb2 03be e4c4 613e
00000110: 84ce 903e 96ec ccbd d649 803e 37e6 38be
00000120: b07d 49be 8f55 11be ec12 163e 8eee 153e
00000130: 50a5 6f3e 6017 58bc cca8 d83d f6f0 a6bd
00000140: a439 c33d e016 603c 4a33 f2bd f8c6 d33d
00000150: 38ae 4dbe 4321 7ebe 7880 773e 78a8 5d3e
00000160: 2a7f 5bbe 7477 45be 3d9b 1bbe 6f15 3ebe
00000170: dc7c aa3d a438 723e 80ea 32bb 9cd6 743e
00000180: b86f 1bbe a4cd 923d 38dd 373e 606d bdbc
00000190: 5c51 6b3e 8aaf 6ebe 067c 2fbe 0043 3cbc
000001a0: 0000 83bd 2460 c4bd 805c 033c b0f3 f83c
000001b0: 34e8 e8bd ea40 573e 30ee 093d c8ca 1d3e
000001c0: fa4d e5bd 6812 73bd dca5 033e 20c1 ed3d
000001d0: 308e 273d 3c38 f4bd 20e3 453d fa23 903e
000001e0: c0b5 07bc ea40 e2bd a8e1 473d cc5f 68be
000001f0: 8053 5c3e e44b 353e 004c 4cbb 70f0 763e
00000200: 1a61 073e 1dd0 09be 6c1a 8dbd 1ce3 78be
00000210: d4d4 44be b2ef 81be 96a6 4abe 106f 0c3e
00000220: 5019 77bd aaad 873e 1792 59be 5b81 93be
00000230: 1eea 893e 7495 4abe 88b1 a83d f865 413e
00000240: ec2a e83d 1726 42be b462 883d 5997 86be
00000250: 98b2 cc3d 483f cd3d c6f8 4c3e 63d0 8abe
00000260: 8029 383b 42b5 47be 0c81 39bd a2fa 1a3e
00000270: 7435 803d ced8 8e3e 6011 19bd 6c58 c03d
00000280: 624d 4e3e 0cc4 403e a24b 4cbe d83c cc3d
00000290: 1ce6 47be 3c79 ad3d beb9 b3bd b411 65be

layers.0.bias f4 [14]
-0.03820452 -0.1471069 0.017489016 -0.18335825 -0.26970255 0.050468504 -0.12747486 0.17262495
0.25585574 -0.055004835 0.22988272 0.18211791 0.11884466 0.069160074
00000000: 587c 1cbd 31a3 16be 2045 8f3c 44c2 3bbe
00000010: 7416 8abe 10b8 4e3d c588 02be 98c4 303e
00000020: 86ff 823e c04c 61bd 6066 6b3e 1e7d 3a3e
00000030: d464 f33d cca3 8d3d

layers.2.weight f4 [14, 14]
-0.16496164 -0.11481851 0.1418559 -0.23098329 -0.08479832 -0.045960978 -0.25417954 0.26465955
-0.06550041 0.01087454 -0.09715095 0.0809899 -0.17892827 0.16134927 -0.117354155 0.26247373
0.032865107 0.12136337 -0.1954844 0.15794826 -0.03338936 0.08820143 0.22335607 0.2371771
0.05052498 -0.07597396 -0.07692216 -0.09169027 0.034074366 0.07028729 0.03524238 0.18439344
0.025749624 -0.16009238 -0.2660838 -0.09803255 0.07102355 0.08072084 0.15547085 0.25455162
-0.0317249 -0.044172555 -0.019638702 0.21929058 -0.13225618 0.061508417 -0.049613506 -0.1258231
-0.25045472 -0.14886859 -0.11609124 0.076898396 0.035952985 0.24029711 0.09628847 0.23379925
0.2430391 -0.14083083 0.16327122 0.16368979 -0.13017932 -0.066881254 -0.01984936 0.19571877
0.18377227 -0.025421947 0.14700297 0.05400148 -0.21172753 0.1024591 0.0907636 -0.07831608
-0.23945616 0.14482117 0.25199154 0.2584767 0.11884937 -0.1336929 0.010828733 0.04398796
-0.25276923 -0.15566951 0.23607227 0.13889363 -0.24001104 0.1525662 -0.2275405 -0.06676927
0.22521138 -0.058815613 -0.18541038 -0.2593398 -0.13794851 0.20284119 0.15724698 0.19496343
-0.23178001 -0.19692466 -0.24614534 0.0166803 -0.067441836 -0.21448632 0.16744545 0.2144466
-0.099169284 -0.22412053 -0.16994445 0.22695169 0.144355 -0.104576126 0.05199349 -0.22554988
0.22122887 -0.01956001 0.045022964 0.19560158 0.11168745 0.19075471 0.027613461 0.10702446
0.124319226 0.2528616 0.15916121 0.110179335 0.19446823 0.17510977 -0.03048478 -0.08983615
-0.11201882 0.252692 -0.24307394 -0.22790822 0.21655467 -0.20509377 -0.22694044 -0.20457457
0.1637825 0.014976293 0.24414322 -0.17995538 0.13290104 0.21208951 0.08169317 -0.23596498
-0.07402307 -0.12220988 -0.14827763 -0.040701747 0.09537974 0.17750144 -0.11269243 0.009793103
0.22436965 0.14427665 -0.08162752 -0.25861678 -0.098851934 0.047199667 0.23978433 0.24733391
0.18418103 0.016747743 0.23527637 0.14387792 -0.015452325 0.0077981055 -0.21964017 0.18303931
-0.10105604 -0.12669042 -0.12548646 0.13449076 -0.1238507 -0.097354576 -0.23409036 -0.0037660599
0.11200127 -0.07908119 0.06739527 -0.12485866 0.17032129 0.22358382 0.20110053 -0.032572255
-0.15116888 0.19932619 -0.18381506 -0.22908002 -0.26445764 -0.14608753 -0.22348009 -0.2496198
-0.019016638 -0.032469824 -0.18330741 -0.25837263
00000000: b4eb 28be f825 ebbd ac42 113e e286 6cbe
00000010: beaa adbd 9441 3cbd d223 82be 7581 873e
00000020: 1425 86bd 202b 323c 14f7 c6bd 08de a53d
00000030: f938 37be be38 253e 6057 f0bd f562 863e
00000040: 909d 063d 5c8d f83d 102d 48be 30bd 213e
00000050: 48c3 08bd f4a2 b43d 74b7 643e 8ede 723e
00000060: 48f3 4e3d 3c98 9bbd 5e89 9dbd 1cc8 bbbd
00000070: 9091 0b3d c8f2 8f3d 505a 103d a2d1 3c3e
00000080: e0f0 d23c 42ef 23be 233c 88be 4ac5 c8bd
00000090: cc74 913d f850 a53d c033 1f3e 9754 823e
000000a0: f8f1 01bd 48ee 34bd 58e1 a0bc b68d 603e
000000b0: 2a6e 07be 40f0 7b3d 8837 4bbd c5d7 00be
000000c0: 9a3b 80be 0271 18be 3ec1 edbd e87c 9d3d
000000d0: 7043 133d 7210 763e e432 c53d 1269 6f3e
000000e0: 3edf 783e f535 10be 9230 273e 4c9e 273e
000000f0: ba4d 05be 0af9 88bd 209b a2bc 806a 483e
00000100: cc2e 3c3e b041 d0bc f287 163e a830 5d3d
00000110: 1acf 58be 14d6 d13d 44e2 b93d 2e64 a0bd
00000120: ff33 75be 004c 143e 0905 813e 0f57 843e
00000130: 4c67 f33d cbe6 08be 006b 313c b82c 343d
00000140: f86a 81be d467 1fbe eebc 713e 223a 0e3e
00000150: 74c5 75be 503a 1c3e 6000 69be 54be 88bd
00000160: d09d 663e a4e8 70bd 38dc 3dbe 30c8 84be
00000170: 6042 0dbe 9ab5 4f3e 5a05 213e 7ea4 473e
00000180: bd57 6dbe 9ea6 49be 860d 7cbe 20a5 883c
00000190: f21e 8abd 4da2 5bbe d276 2b3e e497 5b3e
000001a0: 4419 cbbd da7f 65be eb05 2ebe 0666 683e
000001b0: ccd1 133e 022c d6bd 20f7 543d 8cf6 66be
000001c0: d289 623e 503c a0bc 006a 383d c84b 483e
000001d0: 64bc e43d 3455 433e a035 e23c a42f db3d
000001e0: 149b fe3d 1377 813e 28fb 223e b4a5 e13d
000001f0: ae22 473e fa4f 333e 38bb f9bc 04fc b7bd
00000200: 206a e5bd d960 813e 60e8 78be c660 69be
00000210: 82c0 5d3e 1a04 52be 1363 68be ff7b 51be
00000220: 9ab6 273e 205f 753c ae00 7a3e 3946 38be
00000230: 3617 083e fe2d 593e c04e a73d cea0 71be
00000240: 6899 97bd 2c49 fabd 17d6 17be e0b6 26bd
00000250: 7456 c33d f0c2 353e 4acb e6bd 4073 203c
00000260: 28c1 653e 42bd 133e 542c a7bd 6b69 84be
00000270: e272 cabd 7054 413d 068a 753e 1a45 7d3e
00000280: f499 3c3e 9032 893c 4aec 703e bc54 133e
00000290: c02b 7dbc 4087 ff3b 5ae9 60be a86e 3b3e
000002a0: 78f6 cebd 22bb 01be 867f 00be f2b7 093e
000002b0: 70a5 fdbd d661 c7bd 62b5 6fbe 00d0 76bb
000002c0: ec60 e53d 52f5 a1bd 8806 8a3d e6b5 ffbd
000002d0: b468 2e3e 28f3 643e 4ced 4d3e 7c6a 05bd
000002e0: 04cc 1abe 2a1c 4c3e 043a 3cbe f493 6abe
000002f0: fe66 87be f897 15be f7d7 64be 559c 7fbe
00000300: c8c8 9bbc 14ff 04bd f0b4 3bbe 6b49 84be

layers.2.bias f4 [14]
-0.027031988 0.22969636 -0.2057307 0.018752515 -0.06081371 0.13308349 -0.23770024 0.16303524
0.009136528 -0.24789107 -0.0793239 0.08920038 -0.19734785 -0.16335899
00000000: 3072 ddbc 8635 6b3e 12ab 52be e09e 993c
00000010: cc17 79bd 0a47 083e b167 73be b6f2 263e
00000020: 60b1 153c 28d7 7dbe 9274 a2bd b0ae b63d
00000030: 8e15 4abe 9447 27be

layers.4.weight f4 [1, 14]
0.085660994 -0.12493701 0.16976684 -0.25297204 -0.07747577 0.24069288 -0.177298 0.11945951
-0.15331785 -0.18476325 0.11040476 0.14091036 -0.20988306 -0.1747761
00000000: 086f af3d fade ffbd 5cd7 2d3e 8d85 81be
00000010: 9eab 9ebd 3278 763e 9b8d 35be 30a7 f43d
00000020: 5bff 1cbe 9432 3dbe e41b e23d ce4a 103e
00000030: 96eb 56be 82f8 32be

layers2.0.weight f4 [14, 12]
0.04496 2.2476528 2.0270412 2.7500606 0.16443467 0.40436596 0.076508746 0.13673043
0.41108346 0.2053735 0.10267663 2.273833 0.0414028 -1.8772924 -1.6744077 -2.3124912
0.21594813 0.38010642 0.39416212 0.12632807 0.105935454 0.7128092 0.2838188 -2.486033
0.14898238 1.7593338 1.5321264 2.2469485 0.272643 0.37047458 0.53527623 0.53318954
0.2287979 0.3994601 0.2610392 2.1648395 -0.22089885 0.16596106 0.003077795 -0.053863704
0.03377052 0.17644414 0.2050543 -0.34025434 -0.06648176 -0.28421813 -0.23339209 0.11887413
0.095183045 -1.6881267 -1.7908275 -2.6653922 0.57612723 0.12560104 0.18803598 0.1142398
0.35940132 0.6927895 0.12738883 -2.1390972 0.10216419 1.8040684 1.30974 2.1850705
0.09682022 -0.013317302 -0.09305657 0.46180046 -0.099333234 0.23594381 -0.09377164 2.3674104
-0.036946613 2.3285322 1.9538273 2.9948668 0.61388665 0.57887137 0.37549743 0.68705195
0.06868689 0.2133021 0.30032292 2.67443 -0.06262996 2.6002936 2.1654608 3.3984227
0.3735197 0.71650636 0.4983923 0.73079854 0.6307299 0.27980134 0.31332833 2.799651
0.06462703 2.048156 1.3862153 2.3984509 0.59159863 0.53942174 0.095406495 0.09327897
0.092926495 -0.00079921354 0.28617665 1.9410326 0.17379369 2.0252383 1.4807106 2.511653
0.5360162 0.3522901 0.5061227 0.13463756 0.18948653 0.35440046 0.53823525 1.8946801
0.13298574 -1.8801994 -1.7602679 -2.2000084 0.07691548 0.22027013 0.35010457 0.3579253
0.0854723 0.36395943 0.09534984 -2.2803235 -0.17842643 0.13042435 -0.18438657 -0.018153334
-0.09765726 0.14260274 0.06898271 -0.024873344 -0.028719662 0.07561784 -0.08309048 -0.13036834
-0.117654376 2.1942406 1.7708596 2.654258 0.12078807 0.17321058 0.22076344 0.25788704
0.5140189 0.21309032 0.17961225 2.3401623 -0.3035523 0.015051512 0.032610863 -0.10423535
-0.2449571 -0.2825762 0.13442676 -0.14799139 0.0004558146 -0.058947694 0.1395218 -0.050834116
00000000: fa27 383d 8bd9 0f40 0bbb 0140 fe00 3040
00000010: 9061 283e 0e09 cf3e 9eb0 9c3d 1003 0c3e
00000020: 8879 d23e 6e4d 523e 2048 d23d 7b86 1140
00000030: fb95 293d 1e4b f0bf fe52 d6bf dbff 13c0
00000040: 8221 5d3e 4f9d c23e 9ecf c93e 255c 013e
00000050: b0f4 d83d aa7a 363f b350 913e 2a1b 1fc0
00000060: d68e 183e da31 e13f b81c c43f 01ce 0f40
00000070: dd97 8b3e d8ae bd3e dd07 093f 1c7f 083f
00000080: ff49 6a3e 0986 cc3e eea6 853e bb8c 0a40
00000090: 4f33 62be b2f1 293e d5b4 493b 30a0 5cbd
000000a0: f552 0a3d c6ad 343e c1f9 513e d135 aebe
000000b0: 9727 88bd 0a85 91be 56fe 6ebe 4874 f33d
000000c0: 54ef c23d 8914 d8bf d639 e5bf c995 2ac0
000000d0: 137d 133f 8f9d 003e 818c 403e 8ef6 e93d
000000e0: 7303 b83e a75a 313f 3872 023e f8e6 08c0
000000f0: 753b d13d b7eb e63f 8fa5 a73f 32d8 0b40
00000100: ae49 c63d d030 5abc 7194 bebd 1c71 ec3e
00000110: 396f cbbd 419b 713e 580b c0bd a783 1740
00000120: 5555 17bd ac06 1540 0317 fa3f e6ab 3f40
00000130: ad27 1d3f ea30 143f 3341 c03e a3e2 2f3f
00000140: b6ab 8c3d de6b 5a3e edc3 993e dc29 2b40
00000150: 2344 80bd 366b 2640 e996 0a40 c27f 5940
00000160: f93d bf3e f66c 373f 472d ff3e 9d15 3b3f
00000170: 8477 213f 1f42 8f3e 926c a03e 7b2d 3340
00000180: 2d5b 843d fd14 0340 816f b13f 3880 1940
00000190: 0273 173f 8b17 0a3f 7b64 c33d 0b09 bf3d
000001a0: 3f50 be3d 5082 51ba bf85 923e c273 f83f
000001b0: f9f6 313e 819d 0140 ed87 bd3f ecbe 2040
000001c0: 5c38 093f 5e5f b43e 4291 013f 6ede 093e
000001d0: c208 423e fa73 b53e c9c9 093f e184 f23f
000001e0: 6a2d 083e 60aa f0bf 7550 e1bf f0cc 0cc0
000001f0: dd85 9d3d 7e8e 613e e840 b33e fc41 b73e
00000200: 1a0c af3d e458 ba3e c746 c33d d2f0 11c0
00000210: 6bb5 36be f68d 053e d5cf 3cbe 4db6 94bc
00000220: 8800 c8bd 7406 123e cf46 8d3d 2fc3 cbbc
00000230: 7f45 ebbc 87dd 9a3d 572b aabd 477f 05be
00000240: c7f4 f0bd 706e 0c40 87ab e23f 5ddf 2940
00000250: bc5f f73d 1d5e 313e d00f 623e c509 843e
00000260: be96 033f 5934 5a3e 46ec 373e 38c5 1540
00000270: 356b 9bbe 9e9a 763c f892 053d 5879 d5bd
00000280: 09d6 7abe d4ad 90be 2ba7 093e 0e8b 17be
00000290: 66fa ee39 2373 71bd cede 0e3e 6f37 50bd

layers2.0.bias f4 [14]
0.46926874 0.20484191 0.54104704 -0.061071757 0.28901488 0.026080584 0.1688772 0.2542589
0.27236503 0.40942186 0.4181562 -0.2644097 0.249514 -0.0075479746
00000000: fe43 f03e 14c2 513e 0f82 0a3f 6126 7abd
00000010: c2f9 933e f3a6 d53c 25ee 2c3e 392e 823e
00000020: 6e73 8b3e be9f d13e 9218 d63e b560 87be
00000030: 9980 7f3e 0055 f7bb

layers2.2.weight f4 [1, 14]
0.25538823 -0.08547195 0.32818085 -0.093220815 -0.5039571 0.15054996 0.83304757 0.9183654
0.35707033 0.3438198 -0.3776557 -0.16017011 0.8712293 -0.07288578
00000000: 3fc2 823e eb0b afbd 5207 a83e 8eea bebd
00000010: 5503 01bf c529 1a3e 9b42 553f ff19 6b3f
00000020: ecd1 b63e 2609 b03e 175c c1be a203 24be
00000030: e208 5f3f 2445 95bd
