models/regression/neural_networks/18-02-2023, 11:48:52/model.pt (torch, 2195 bytes, 3 tensors)

layers.0.weight f4 [12, 12]
0	0xc57fa28e	-4090.1597
1	0xc20e1e85	-35.529804
2	0xc1acd3aa	-21.603352
3	0xc1639486	-14.223761
4	0xc22e1f65	-43.53066
5	0xc230bd7e	-44.18505
6	0xc22f6caf	-43.856136
7	0xc22c6570	-43.09906
8	0xc22f4e52	-43.826485
9	0xc22bd217	-42.955166
10	0xc389be7e	-275.48822
11	0xc17392cb	-15.223338
12	0xd946854f	-3.4924137e+15
13	0xd58cc3c3	-1.9346552e+13
14	0xd5245f54	-1.1295584e+13
15	0xd4ce8145	-7.0954564e+12
16	0xd5b289d8	-2.4538138e+13
17	0xd5b3f53f	-2.4733238e+13
18	0xd5b7a000	-2.5237228e+13
19	0xd5b61cf3	-2.5029432e+13
20	0xd5b80a3b	-2.529426e+13
21	0xd5af210f	-2.4069565e+13
22	0xd716df0d	-1.6588474e+14
23	0xd502d3ea	-8.990417e+12
24	0xbde0b716	-0.10972421
25	0xbe5bbdde	-0.21459147
26	0xbc277180	-0.010219932
27	0xbd92830a	-0.071539
28	0x3d472298	0.048616976
29	0x3dd5c7e4	0.10438517
30	0xbd14bb68	-0.036311537
31	0x3d439780	0.047751904
32	0x3cb75190	0.02237776
33	0x3c78acc0	0.015177906
34	0xbe484b3a	-0.19559947
35	0xbe825641	-0.25456432
36	0xd985705a	-4.694963e+15
37	0xd5bd3c08	-2.6008191e+13
38	0xd55cf897	-1.5185015e+13
39	0xd50ace3c	-9.538648e+12
40	0xd5f003d2	-3.29874e+13
41	0xd5f1ec5b	-3.324968e+13
42	0xd5f6da5b	-3.3927211e+13
43	0xd5f4d208	-3.3647864e+13
44	0xd5f76928	-3.4003877e+13
45	0xd5eb6e82	-3.2357482e+13
46	0xd74ad232	-2.2300413e+14
47	0xd52fe03f	-1.2086104e+13
48	0xc540aeec	-3082.9326
49	0xc1d99c13	-27.201208
50	0xc182b125	-16.336496
51	0xc129c73c	-10.611141
52	0xc203ebae	-32.980156
53	0xc2048a4c	-33.135056
54	0xc204a2ed	-33.159107
55	0xc20250d2	-32.578926
56	0xc20553a4	-33.33168
57	0xc200b0d8	-32.1727
58	0xc34f7760	-207.46631
59	0xc1355080	-11.332153
60	0xbe853529	-0.2601712
61	0xbdf337fa	-0.11875911
62	0xbd04ba88	-0.032404453
63	0x3e325eb4	0.17418939
64	0x3e607988	0.2192136
65	0x3e3d0218	0.1845783
66	0xbe2ae07c	-0.16687196
67	0xbe8e0fb2	-0.2774635
68	0x3e30a842	0.17251685
69	0x3dbed0ec	0.093171924
70	0xbe5346d2	-0.20632485
71	0xbe29d24c	-0.16584128
72	0xda099fe5	-9.684469e+15
73	0xd6432ba1	-5.364804e+13
74	0xd5e3e70b	-3.1322683e+13
75	0xd58f28e2	-1.967572e+13
76	0xd6778b33	-6.8044307e+13
77	0xd6798312	-6.8585335e+13
78	0xd67e98a5	-6.998289e+13
79	0xd67c7fff	-6.9406667e+13
80	0xd67f2bef	-7.014104e+13
81	0xd672d118	-6.6744966e+13
82	0xd7d12ee8	-4.5999878e+14
83	0xd5b56493	-2.4930446e+13
84	0xda18dcd9	-1.0756755e+16
85	0xd658c7b7	-5.958807e+13
86	0xd5fd22e7	-3.4790793e+13
87	0xd59f02b8	-2.1854253e+13
88	0xd68979e7	-7.557833e+13
89	0xd68a91bb	-7.617926e+13
90	0xd68d6493	-7.773155e+13
91	0xd68c3a8a	-7.7091526e+13
92	0xd68db65f	-7.790721e+13
93	0xd686d9d9	-7.41351e+13
94	0xd7e8582b	-5.1093075e+14
95	0xd5c97a21	-2.7690797e+13
96	0xc527e777	-2686.4666
97	0xc1d21ea9	-26.26497
98	0xc17d004f	-15.812575
99	0xc1135f3b	-9.21075
100	0xc200398d	-32.056202
101	0xc202c123	-32.68861
102	0xc2026b93	-32.605053
103	0xc2016eee	-32.35833
104	0xc201e469	-32.473057
105	0xc1fd7bfd	-31.685541
106	0xc3519bd0	-209.60864
107	0xc12bf555	-10.7473955
108	0xbe740e54	-0.23833591
109	0x3d4e1f18	0.050322622
110	0xbe12d11b	-0.1433758
111	0x3c974be0	0.018468797
112	0xbe094658	-0.1340574
113	0xbdb43412	-0.08798994
114	0xbe7622fd	-0.24036784
115	0x3dff0ba0	0.12453389
116	0xbd5a4514	-0.053288534
117	0xbe54c6d5	-0.20778973
118	0x3da45ecc	0.080258936
119	0x3e836642	0.25663954
120	0xc566d3a5	-3693.2278
121	0xc200211e	-32.03234
122	0xc19dbc5a	-19.716969
123	0xc14bda6c	-12.740826
124	0xc21c9925	-39.149555
125	0xc21ea656	-39.662437
126	0xc21e9102	-39.64161
127	0xc21d9833	-39.398632
128	0xc21e6f52	-39.60871
129	0xc21b4b3d	-38.823475
130	0xc378597b	-248.34953
131	0xc15777bc	-13.466732
132	0xcb35df37	-1.1919159e+07
133	0xcc086769	-3.5757476e+07
134	0xcc086769	-3.5757476e+07
135	0x3debf278	0.115208566
136	0xcc438328	-5.1252384e+07
137	0xcc55b313	-5.6020044e+07
138	0xcc512718	-5.482813e+07
139	0xcc5ecb0a	-5.840388e+07
140	0xcc55b313	-5.6020044e+07
141	0xcc4c9b1d	-5.3636212e+07
142	0xccb5df37	-9.535327e+07
143	0xcb35df37	-1.1919159e+07

layers.0.bias f4 [12]
0	0xc10f07b3	-8.93938
1	0xd494859f	-5.1031756e+12
2	0xbce44c10	-0.0278683
3	0xd4c7a9ad	-6.8603614e+12
4	0xc0d142b3	-6.539392
5	0xbe8a709c	-0.2703904
6	0xd54ded07	-1.4151119e+13
7	0xd564b9f7	-1.571796e+13
8	0xc0d4ff30	-6.656151
9	0xbe51353d	-0.20430465
10	0xc104e1f6	-8.305166
11	0xcb35df37	-1.1919159e+07

layers.2.weight f4 [1, 12]
0	0x45448fd4	3144.9893
1	0xd8a98a47	-1.4912909e+15
2	0xbd4585d0	-0.048223317
3	0xda1b71a5	-1.0938394e+16
4	0x4566a9af	3690.6052
5	0x3c796400	0.015221596
6	0xd9affd16	-6.192049e+15
7	0xd9d716b2	-7.567759e+15
8	0x430cfc9b	140.98674
9	0x3d1c3fb0	0.038146675
10	0x456ed0ed	3821.0579
11	0x4c678687	6.069302e+07
