models/regression/neural_networks/17-02-2023, 19:46:11/model.pt (torch, 2195 bytes, 3 tensors)

layers.0.weight f4 [12, 12]
-2.5534338e+06 -15780.441 -9460.106 -8317.223 -20958.055 -21320.135 -21231.309 -21152.459
-21375.19 -20631.281 -152815.73 -7849.3984 -1.2885876e+07 -79635.23 -47739.324 -41973.28
-105765.42 -107590.93 -107143.99 -106744.305 -107870.164 -104114.305 -771183.44 -39612.586
-7.8238875e+06 -48352.094 -28985.822 -25484.969 -64217.258 -65325.867 -65054.52 -64811.855
-65495.375 -63214.758 -468237.6 -24051.607 -0.17965227 -0.23320186 -0.14094529 0.030488044
-0.2199755 0.03422931 0.16872406 -0.18219125 0.0027956367 0.018465549 0.01565358 -0.11502753
-22.465136 0.002150625 -0.33104575 0.082881056 -0.27789277 -0.036227673 -0.54869795 -0.19008195
-0.44834667 -0.43745273 -1.9824481 -0.27591896 -3.0043732e+06 -18567.215 -11130.439 -9786.141
-24659.49 -25085.066 -24980.943 -24887.396 -25149.908 -24274.295 -179802.72 -9235.787
-0.16697487 -0.24705231 0.15469944 0.20703855 -0.023171842 0.17213154 0.04697475 -0.060520202
-0.19710484 -0.26427275 -0.121263295 0.10997 -3.136308e+06 -19382.742 -11619.548 -10216.083
-25742.35 -26186.45 -26077.98 -25980.57 -26254.604 -25340.617 -187698.89 -9641.333
-7.655561 -0.1285851 0.07236412 0.020459086 -0.31581542 0.1405878 -0.13359693 -0.32429656
-0.2198115 -0.07505268 -0.7476431 -0.19639263 -1.0255267e+07 -63377.855 -37993.285 -33404.42
-84173.69 -85626.69 -85270.74 -84952.46 -85849.266 -82860.01 -613748.94 -31525.805
-2.0846976e+06 -12883.608 -7723.5205 -6790.5215 -17111.115 -17406.305 -17333.69 -17269.072
-17451.674 -16843.707 -124763.44 -6408.5996 -799122.06 -4938.423 -2960.5115 -2603.148
-6558.993 -6672.0195 -6644.2754 -6619.979 -6689.6025 -6456.9473 -47825.38 -2456.432
00000000: 67d9 1bca c491 76c6 6dd0 13c6 e4f4 01c6
00000010: 1cbc a3c6 4590 a6c6 9ede a5c6 eb40 a5c6
00000020: 61fe a6c6 902e a1c6 ef3b 15c8 304b f5c5
00000030: 749f 44cb 9d89 9bc7 537b 3ac7 48f5 23c7
00000040: b692 cec7 7723 d2c7 ff43 d1c7 277c d0c7
00000050: 15af d2c7 2759 cbc7 f746 3cc9 96bc 1ac7
00000060: 1fc4 eeca 18e0 3cc7 a573 e2c6 f019 c7c6
00000070: 42d9 7ac7 de2d 7fc7 851e 7ec7 db2b 7dc7
00000080: 60d7 7fc7 c2ee 76c7 b3a1 e4c8 37e7 bbc6
00000090: c4f6 37be 78cc 6ebe f653 10be 10c2 f93c
000000a0: 4241 61be 0834 0c3d 00c6 2c3e 5890 3abe
000000b0: 0037 373b 1045 973c f03b 803c 8e93 ebbd
000000c0: 99b8 b3c1 80f1 0c3b d47e a9be 8bbd a93d
000000d0: f647 8ebe 7863 14bd 7877 0cbf d8a4 42be
000000e0: b28d e5be cef9 dfbe dcc0 fdbf 4045 8dbe
000000f0: 555f 37ca 6e0e 91c6 c2e9 2dc6 90e8 18c6
00000100: fba6 c0c6 22fa c3c6 e329 c3c6 cb6e c2c6
00000110: d17b c4c6 97a4 bdc6 ae96 2fc8 264f 10c6
00000120: 76fb 2abe 48fb 7cbe 8869 1e3e ea01 543e
00000130: e0d2 bdbc 4043 303e 9868 403d 08e4 77bd
00000140: dad5 49be c24e 87be e458 f8bd f437 e13d
00000150: d06c 3fca 7c6d 97c6 318e 35c6 55a0 1fc6
00000160: b31c c9c6 e694 ccc6 f6bb cbc6 24f9 cac6
00000170: 351d cdc6 3cf9 c5c6 b94c 37c8 55a5 16c6
00000180: 5bfa f4c0 d0ab 03be a433 943d d099 a73c
00000190: 8fb2 a1be 40f6 0f3e a2cd 08be 330a a6be
000001a0: 4416 61be 38b5 99bd 8a65 3fbf 261b 49be
000001b0: a37b 1ccb db91 77c7 4969 14c7 6c7c 02c7
000001c0: d866 a4c7 583d a7c7 5f8b a6c7 3bec a5c7
000001d0: a2ac a7c7 01d6 a1c7 4fd7 15c9 9c4b f6c6
000001e0: cd7a fec9 6f4e 49c6 2a5c f1c5 2c34 d4c5
000001f0: 3bae 85c6 9cfc 87c6 616b 87c6 25ea 86c6
00000200: 5957 88c6 6a97 83c6 b8ad f3c7 cc44 c8c5
00000210: 2119 43c9 6253 9ac5 2f08 39c5 5eb2 22c5
00000220: f2f7 ccc5 2880 d0c5 34a2 cfc5 d5df cec5
00000230: d20c d1c5 94c7 c9c5 61d1 3ac7 e986 19c5

layers.0.bias f4 [12]
-4317.51 -21788.52 -13229.359 0.07203671 -0.34380686 -5079.7446 0.07992062 -5302.8667
-0.026848033 -17340.486 -3524.6626 -1351.0205
00000000: 14ec 86c5 0a39 aac6 70b5 4ec6 fc87 933d
00000010: 7407 b0be f5bd 9ec5 6cad a33d efb6 a5c5
00000020: 68f0 dbbc f978 87c6 9a4a 5cc5 a8e0 a8c4

layers.2.weight f4 [1, 12]
-108221.164 -6.244666e+06 -5.4191905e+06 0.03327602 22.933697 -1.1187521e+07 0.048704207 -5.1717405e+06
16.564398 -5.4110855e+06 -776780.2 -1.1913903e+07
00000000: 955e d3c7 7492 beca 6d61 a5ca 704c 083d
00000010: 3678 b741 41b5 2acb 107e 473d 39d4 9dca
00000020: e383 8441 1b22 a5ca c3a4 3dc9 afca 35cb
