models/regression/neural_networks/18-02-2023, 12:38:57/model.pt (torch, 2195 bytes, 3 tensors)

layers.0.weight f4 [12, 12]
000000 e6 f8 70 be 24 dd 27 be 70 78 92 3d 65 cf 38 3e
       -0.23532447 -0.16392952 0.07151878 0.18047865
000010 47 48 28 3c 49 9e 08 be 24 ec 23 3e 6b d7 50 be
       0.0102711385 -0.13341631 0.16008049 -0.20394675
000020 71 b3 0a be b8 9a 06 3e 93 1c d1 bd c1 ad 3f 3e
       -0.13545014 0.13144958 -0.10210528 0.18718626
000030 d4 41 49 bd 7c 3a 24 be 17 19 7f be bc 43 5a bd
       -0.049135044 -0.16037935 -0.24911915 -0.053287253
000040 78 05 00 be 4d 8e 41 be 70 57 bd 3c 4e 23 56 3e
       -0.12502086 -0.1890194 0.023112983 0.20911905
000050 08 8f 8b be 1a 18 52 3e c0 7c 8c 3c f1 29 8f be
       -0.27257562 0.20517007 0.01714933 -0.27961686
000060 75 c7 23 be 47 46 79 be 15 d5 d1 3d 15 af 98 be
       -0.15994056 -0.24343215 0.1024572 -0.29821077
000070 af 6b 2f be 4f 67 8a 3d eb 43 2e be 57 60 9d 3d
       -0.17130922 0.06757986 -0.17018096 0.07684391
000080 f2 95 36 be f1 1b 14 3e 8a bf 0c 3c 20 92 1d 3d
       -0.17830637 0.14463784 0.008590588 0.038469434
000090 e6 85 09 3e e6 29 29 be dc c6 2e bc d4 c1 b8 be
       0.13429984 -0.16519889 -0.010667529 -0.3608538
0000a0 e9 88 79 bf 47 8b 0d bf 23 ef 36 bf 3f 2b 44 bf
       -0.97474533 -0.55290645 -0.71458644 -0.7662849
0000b0 ca 76 45 bf cf 4f 11 bf a9 8d 57 bd 5e 03 b6 be
       -0.7713438 -0.56762403 -0.052625332 -0.35549444
0000c0 5e 3f 28 bd e6 93 56 3f 52 e6 30 3f a7 c4 de 3e
       -0.041076057 0.83819425 0.6910144 0.4350941
0000d0 64 f4 d6 3e bb 00 d0 3f 06 d2 b6 3f 88 ba 97 3f
       0.4198333 1.6250223 1.4282844 1.18538
0000e0 02 5a c4 3f 03 0d c6 3f 7d cf 35 3f ba c9 e3 3e
       1.5339968 1.5472721 0.71019727 0.44489843
0000f0 b2 e3 28 3e 16 ff 98 3e 82 fb 18 3f 52 6c 82 3e
       0.16493109 0.29882115 0.5975877 0.25473267
000100 73 98 62 3e 7b 81 8f 3f bd b4 43 3f 9b 57 48 3f
       0.22128467 1.1211389 0.7644766 0.78258675
000110 7d 58 95 3f 9c 14 65 3f 8c 2b 6a 3e d2 ef 21 3f
       1.166763 0.8948457 0.22868174 0.6325656
000120 a6 c2 2f 3e 2c aa fe 3e 19 fc f3 3d 6f 3d 2c 3f
       0.17164096 0.49739206 0.11913318 0.6728124
000130 49 3d 8d 3e b7 36 a1 3f 0e 76 53 3f 28 6b 57 3f
       0.2758582 1.2594823 0.8260201 0.8414788
000140 37 9b 89 3f d2 48 4d 3f 57 bb c3 3e cf b2 42 3f
       1.0750493 0.8018924 0.38228866 0.7605409
000150 30 28 28 3e dd b6 56 3f 9a b7 21 3e 51 87 3a 3f
       0.1642158 0.8387278 0.15792695 0.72862726
000160 93 91 2b 3e 92 68 64 3f 92 cb 49 3f 15 8b 9d 3f
       0.16754751 0.8922206 0.7882625 1.230807
000170 99 36 88 3f 20 4a 9f 3f 0d 68 28 3e fa 04 66 3e
       1.0641662 1.2444496 0.16445942 0.22462836
000180 01 f2 47 3e 52 61 b0 be 65 f1 20 3d d5 5b df be
       0.19525911 -0.3444925 0.03929271 -0.4362475
000190 96 dd f9 bd 7e 08 65 bf 69 ba 33 bf 5d 36 3f bf
       -0.12200467 -0.89466083 -0.70206314 -0.74692327
0001a0 10 9c 76 bf 4b bc 80 bf b3 ff 99 3b 1b 38 86 bb
       -0.9633188 -1.0057462 0.004699671 -0.0040960438
0001b0 3e f8 6e 3d ea f3 55 3f 55 64 fd 3e 9e 4b 05 3f
       0.05834221 0.8357531 0.4949061 0.5206851
0001c0 39 81 02 3f a8 6b 8b 3f 63 20 aa 3f 9b 94 ac 3f
       0.5097843 1.0892229 1.3291134 1.3482851
0001d0 4d 57 b4 3f ff 9a a8 3f 47 19 33 3f 95 dc 29 3f
       1.4089142 1.3172301 0.69960445 0.66352206
0001e0 3b 5c 91 be 40 66 0b bd 28 09 43 3d 10 2f 3a 3e
       -0.2839068 -0.03403306 0.047616154 0.18182015
0001f0 84 ef ec 3d c0 bc c7 bb 5c 58 b2 3d 28 25 ac 3d
       0.115691215 -0.006095499 0.087082595 0.084055245
000200 20 57 7f bd c0 15 2d 3c c9 7a 88 be 54 57 04 be
       -0.06233895 0.010564268 -0.26656178 -0.12923938
000210 7f bc 15 be 16 ae 66 3f b2 71 08 3f bc a0 56 3f
       -0.14622687 0.90109384 0.53298485 0.8383901
000220 49 ac ef 3e fd 1e f9 3f 6a 0e e2 3f b2 85 da 3f
       0.4681113 1.9462582 1.7660649 1.707205
000230 43 8c c5 3f 0c e0 d0 3f 52 23 32 3f 1d 63 48 3f
       1.543343 1.6318374 0.69585145 0.78276235

layers.0.bias f4 [12]
000000 8e d0 b2 bd 80 d1 9b bb 89 5d 83 be c8 ba 1a bf
       -0.08731185 -0.004755199 -0.256573 -0.60441256
000010 a4 8e d2 3f 35 20 4f 3f 1f 1e a0 3f 88 72 8c 3f
       1.644978 0.8090852 1.2509192 1.0972452
000020 aa 21 62 bf 6f e6 83 3f 6d 30 86 be cf 29 e3 3f
       -0.8833262 1.0304698 -0.2620882 1.7747134

layers.2.weight f4 [1, 12]
000000 5b 3b a9 3b 3c d1 b1 3d 9e 54 f9 bc 2e 4d 86 be
       0.0051645464 0.086824864 -0.030435856 -0.26230758
000010 c4 2b e4 3e f7 c7 ed 3d b4 95 92 3e da 7f c3 3e
       0.4456464 0.11610406 0.2862984 0.3818348
000020 a3 64 3c be c5 ec bf 3e 90 eb f2 3c 54 36 5d 3f
       -0.18397765 0.37485328 0.02965334 0.86411023
