models/regression/neural_networks/18-02-2023, 11:42:34/model.pt (torch, 2195 bytes, 3 tensors)

layers.0.weight f4 [12, 12]
0	0xcc59da10	-5.7108544e+07
1	0xcac1a562	-6.345393e+06
2	0xca41a564	-3.172697e+06
3	0xca41a563	-3.1726968e+06
4	0xcb686012	-1.5228946e+07
5	0xcb6d3767	-1.5546215e+07
6	0xcb720ebd	-1.5863485e+07
7	0xcb720ebd	-1.5863485e+07
8	0xcb6d3767	-1.5546215e+07
9	0xcb59da10	-1.4277136e+07
10	0xcbc1a563	-2.5381574e+07
11	0xca41a562	-3.1726965e+06
12	0xda5527a5	-1.499944e+16
13	0xd6aeb1b7	-9.603915e+13
14	0xd65c307b	-6.0525195e+13
15	0xd64471fa	-5.399845e+13
16	0xd6ebb55a	-1.29582066e+14
17	0xd6eed422	-1.31297435e+14
18	0xd6ed9e07	-1.3063149e+14
19	0xd6e9665f	-1.28312945e+14
20	0xd6ed24f2	-1.3037147e+14
21	0xd6e76a73	-1.2722219e+14
22	0xd871354b	-1.0608448e+15
23	0xd6220053	-4.453057e+13
24	0xda5ccab3	-1.5536841e+16
25	0xd6b4f3ff	-9.948002e+13
26	0xd664140d	-6.2693692e+13
27	0xd64b7bc5	-5.593311e+13
28	0xd6f42747	-1.3422477e+14
29	0xd6f762ab	-1.3600157e+14
30	0xd6f62175	-1.3531178e+14
31	0xd6f1c31d	-1.3291015e+14
32	0xd6f5a40a	-1.35042446e+14
33	0xd6efb4ff	-1.31780326e+14
34	0xd879d9aa	-1.098853e+15
35	0xd627ce30	-4.6126003e+13
36	0xda24dce3	-1.1601191e+16
37	0xd6871da0	-7.428065e+13
38	0xd62a4db8	-4.6812694e+13
39	0xd617f05b	-4.1764644e+13
40	0xd6b64e83	-1.0022416e+14
41	0xd6b8b853	-1.015509e+14
42	0xd6b7c879	-1.01035826e+14
43	0xd6b4856a	-9.924255e+13
44	0xd6b76ad4	-1.00834726e+14
45	0xd6b2fc93	-9.839893e+13
46	0xd83a8f7b	-8.205016e+14
47	0xd5fa98d5	-3.444179e+13
48	0xbe41da32	-0.18930891
49	0x3e914104	0.28369915
50	0x3e0589f4	0.13040906
51	0x3c40bf60	0.011764377
52	0xbe731a56	-0.23740515
53	0xbe8f34f0	-0.27970076
54	0x3d73dac8	0.059534818
55	0xbe7a598d	-0.24448223
56	0xbe72d6c6	-0.23714742
57	0xbdc5eece	-0.09664689
58	0xbc54b200	-0.012981892
59	0x3d6967d0	0.05698377
60	0xc5ede641	-7612.7817
61	0xc2853b6d	-66.616066
62	0xc2173437	-37.80099
63	0xc1a56742	-20.675419
64	0xc271d390	-60.456604
65	0xc276623b	-61.59593
66	0xc27817e6	-62.02334
67	0xc2765fc9	-61.59354
68	0xc2761796	-61.523033
69	0xc26fca8a	-59.947792
70	0xc3e4b813	-457.43808
71	0xc1dbf053	-27.492346
72	0xcde232aa	-4.743714e+08
73	0xcbb1469f	-2.3235902e+07
74	0xcb31469f	-1.1617951e+07
75	0xcb31469f	-1.1617951e+07
76	0xcc5b4252	-5.747745e+07
77	0xcc5929b7	-5.6927964e+07
78	0xcc5a54b2	-5.723412e+07
79	0xcc5d9847	-5.8089756e+07
80	0xcc5c6d4b	-5.7783596e+07
81	0xcc547dcb	-5.570334e+07
82	0xcddfd6dd	-4.6942506e+08
83	0xcb31469f	-1.1617951e+07
84	0xd843e6b8	-8.615828e+14
85	0xd4a08dc0	-5.5165835e+12
86	0xd44a5dcb	-3.476628e+12
87	0xd4348b4d	-3.1017248e+12
88	0xd4d8a115	-7.4433236e+12
89	0xd4db7f37	-7.541857e+12
90	0xd4da6235	-7.503604e+12
91	0xd4d681f0	-7.370424e+12
92	0xd4d9f2ed	-7.488668e+12
93	0xd4d4af20	-7.3077694e+12
94	0xd65daf0f	-6.0935985e+13
95	0xd414e363	-2.5578803e+12
96	0xd5539157	-1.4538824e+13
97	0xd1ad64b7	-9.308988e+10
98	0xd15a8cc3	-5.866653e+10
99	0xd142fb84	-5.234021e+10
100	0xd1e9f40f	-1.2560275e+11
101	0xd1ed0ce3	-1.2726543e+11
102	0xd1ebd918	-1.2661994e+11
103	0xd1e7a978	-1.2437258e+11
104	0xd1eb60ea	-1.2636791e+11
105	0xd1e5b157	-1.2331535e+11
106	0xd36f6985	-1.0282675e+12
107	0xd120cb85	-4.316308e+10
108	0xc551ddb1	-3357.8557
109	0xc1eb1da3	-29.389471
110	0xc185425d	-16.657404
111	0xc110f1e5	-9.059056
112	0xc1d6bd65	-26.842478
113	0xc1d75929	-26.918535
114	0xc1d8064d	-27.003077
115	0xc1d9c338	-27.220322
116	0xc1d8a459	-27.080248
117	0xc1d4dc51	-26.607576
118	0xc34a06fd	-202.0273
119	0xc14386c6	-12.220404
120	0xc50dfbe0	-2271.7422
121	0xc19ee945	-19.863901
122	0xc1392902	-11.572512
123	0xc0c3e14a	-6.121251
124	0xc1903f98	-18.031052
125	0xc1910bd4	-18.130775
126	0xc192575a	-18.292652
127	0xc1949ff7	-18.578108
128	0xc1935345	-18.415659
129	0xc18f29ab	-17.895346
130	0xc308415c	-136.25531
131	0xc101fdf9	-8.124505
132	0xc5d1bc84	-6711.5645
133	0xc269bd2b	-58.434734
134	0xc204df92	-33.21833
135	0xc1910608	-18.127945
136	0xc255f1c3	-53.486095
137	0xc258bdcf	-54.18536
138	0xc25a253c	-54.53636
139	0xc258c668	-54.193756
140	0xc25afe59	-54.748386
141	0xc2530e69	-52.764072
142	0xc3c9ac44	-403.34583
143	0xc1c25e0e	-24.295925

layers.0.bias f4 [12]
0	0xca41a562	-3.1726965e+06
1	0xd5bf9d7f	-2.6335395e+13
2	0xd5c67aff	-2.7278946e+13
3	0xd5943403	-2.0368889e+13
4	0x3dd4492c	0.10365519
5	0xc1466159	-12.3987665
6	0xcb31469f	-1.1617951e+07
7	0xd3b01aea	-1.5127316e+12
8	0xd0be303f	-2.5526663e+10
9	0xc0af9746	-5.487216
10	0xc06cbabe	-3.6988978
11	0xc12d594b	-10.8343

layers.2.weight f4 [1, 12]
0	0xcc2b191f	-4.4852348e+07
1	0xd9f77de5	-8.7078427e+15
2	0xd891e9d0	-1.2834672e+15
3	0xda8b96eb	-1.9645479e+16
4	0x3df01c2c	0.11724123
5	0x44ffc112	2046.0334
6	0xcd5f1775	-2.3392853e+08
7	0xda4208af	-1.3653923e+16
8	0xd6a1f71b	-8.904134e+13
9	0x456967a6	3734.478
10	0x45a2e054	5212.041
11	0x45f5678f	7852.945
