models/regression/neural_networks/17-02-2023, 19:52:59/model.pt (torch, 2195 bytes, 3 tensors)

layers.0.weight f4 [12, 12]
0	0xc148cc32	-12.549852
1	0xbe5daa1e	-0.21646926
2	0xbeabdcab	-0.33566794
3	0x3e2a98fe	0.16659924
4	0xbe2cd5d8	-0.1687845
5	0xbe8bfd9c	-0.27341926
6	0xbe59d187	-0.21271335
7	0xbeb08ffe	-0.34484857
8	0x3d55781a	0.05211649
9	0x3d2fce9c	0.042921647
10	0xbf34a85c	-0.70569396
11	0xbe34d11c	-0.17657894
12	0xcca50c0d	-8.65322e+07
13	0xc90832c7	-557868.44
14	0xc8c4663a	-402225.8
15	0xc83faed3	-196283.3
16	0xc9362d0a	-746192.6
17	0xc93847a4	-754810.25
18	0xc938ae44	-756452.25
19	0xc9385f2b	-755186.7
20	0xc9396679	-759399.56
21	0xc9340af4	-737455.25
22	0xcad12c49	-6.8541805e+06
23	0xc8529120	-215620.5
24	0xcb21caeb	-1.0603243e+07
25	0xc79ae6cc	-79309.59
26	0xc743141e	-49940.117
27	0xc6b8724d	-23609.15
28	0xc7930c07	-75288.055
29	0xc79489c1	-76051.51
30	0xc796fd05	-77306.04
31	0xc795ae31	-76636.38
32	0xc7968dfa	-77083.95
33	0xc78d995c	-72498.72
34	0xc9168d4f	-616660.94
35	0xc6ff1bfd	-32653.994
36	0xc1061b0e	-8.381605
37	0xbe40bbef	-0.18821691
38	0x3e6d31aa	0.23163477
39	0xbe2cca8b	-0.16874139
40	0x3d0fbde2	0.035093196
41	0xbddb70b7	-0.10714858
42	0x3e186cab	0.14885204
43	0xbe16713f	-0.14691637
44	0xbebc0886	-0.36725253
45	0xbd7cefce	-0.061752133
46	0xbf22c8bb	-0.6358754
47	0xbdaf7bf9	-0.08568568
48	0xc1c15c41	-24.170046
49	0x3d9c5422	0.076332346
50	0xbe7dbf0c	-0.2477991
51	0xbe862daf	-0.2620673
52	0xbeefd816	-0.46844548
53	0xbda76cf2	-0.081750765
54	0xbc0ef730	-0.008725926
55	0xbd86187c	-0.06547639
56	0xbf01fb82	-0.50774395
57	0xbedf64fd	-0.43631735
58	0xbfcfd486	-1.6236732
59	0xbea63056	-0.32458752
60	0xcdbac7c3	-3.9170672e+08
61	0xc9f8df42	-2.0387602e+06
62	0xc989a172	-1.1274702e+06
63	0xc93f6960	-784022.0
64	0xca3d93da	-3.1060385e+06
65	0xca3ffaab	-3.1453868e+06
66	0xca426932	-3.1852285e+06
67	0xca423851	-3.1821002e+06
68	0xca446931	-3.2179962e+06
69	0xca3618e9	-2.9834822e+06
70	0xcb8abd65	-1.8184906e+07
71	0xc96a5ea0	-959978.0
72	0xce8969cf	-1.1527064e+09
73	0xcab7180a	-5.999621e+06
74	0xca4a8224	-3.317897e+06
75	0xca0cd20c	-2.307203e+06
76	0xcb0b78a2	-9.140386e+06
77	0xcb0d3cf5	-9.256181e+06
78	0xcb0f06f2	-9.373426e+06
79	0xcb0ee2fa	-9.364218e+06
80	0xcb107f9f	-9.469855e+06
81	0xcb05f7d1	-8.779729e+06
82	0xcc4c23ef	-5.3514172e+07
83	0xca2c6cad	-2.8250032e+06
84	0xcaa974a9	-5.5527245e+06
85	0xc7223cb2	-41532.695
86	0xc6cc5156	-26152.668
87	0xc6412fce	-12363.951
88	0xc71a0320	-39427.125
89	0xc71b9319	-39827.098
90	0xc71e23d4	-40483.83
91	0xc71cc4f1	-40132.94
92	0xc71daf47	-40367.277
93	0xc7144e16	-37966.086
94	0xc89daebb	-322933.84
95	0xc6859857	-17100.17
96	0xcbb6bd65	-2.3952074e+07
97	0xc82ef4bb	-179154.92
98	0xc7dc55ff	-112811.99
99	0xc75053e3	-53331.887
100	0xc82615ab	-170070.67
101	0xc827c509	-171796.14
102	0xc82a8984	-174630.06
103	0xc8290f2e	-173116.72
104	0xc82a0bd6	-174127.34
105	0xc81fee5b	-163769.42
106	0xc9aa0b35	-1.3929986e+06
107	0xc790121e	-73764.234
108	0xbe03e58e	-0.12880537
109	0xbe8d730a	-0.2762683
110	0xbe27fb46	-0.16404447
111	0xbe2fec53	-0.17179994
112	0xbd9129ac	-0.070880264
113	0xbdcb60fa	-0.09930606
114	0xbbd3d5c0	-0.00646469
115	0x3e1d3212	0.15351132
116	0x3d182d40	0.03715253
117	0xbd9993c8	-0.0749889
118	0xbd90e140	-0.07074213
119	0xbe899ebd	-0.2687892
120	0xbe14dc06	-0.14537057
121	0xbe878938	-0.26471877
122	0xbd8b3d02	-0.06798746
123	0x3d278b18	0.040904135
124	0x3d896d7c	0.067103356
125	0x3e904ac4	0.28182042
126	0xbe1ba7b2	-0.1520069
127	0xbe707af5	-0.23484404
128	0xbe8f16a8	-0.27946973
129	0xbe63d559	-0.22249354
130	0x3d88a180	0.06671429
131	0x3e19a0d2	0.15002754
132	0xbea5c433	-0.3237625
133	0xbdbc9d8f	-0.092097394
134	0xbdf7b8b0	-0.12095773
135	0xbda680cc	-0.08130035
136	0xbe5830cc	-0.21112365
137	0xbcc5c3f4	-0.02414129
138	0xbe9b4dc4	-0.30332768
139	0xbe194ed6	-0.1497148
140	0xbe0beee6	-0.13665351
141	0xbe4a8736	-0.19778141
142	0xbf44c4aa	-0.76862586
143	0x3de70d6a	0.112818554

layers.0.bias f4 [12]
0	0x3e410cca	0.18852535
1	0xc8159294	-153162.31
2	0xc6749045	-15652.067
3	0xbe63755f	-0.22212742
4	0xbdfcc623	-0.12342479
5	0xc91d9f04	-645616.25
6	0xc9e7ec18	-1.899907e+06
7	0xc6001246	-8196.568
8	0xc70a1d04	-35357.016
9	0x3d6809f8	0.056650132
10	0x3e007752	0.12545517
11	0xbe40f6df	-0.18844174

layers.2.weight f4 [1, 12]
0	0x421217dc	36.5233
1	0x4c9c1f1d	8.185265e+07
2	0xc90151db	-529693.7
3	0x41e4e0f3	28.609838
4	0x41023677	8.138297
5	0x4e503ed2	8.734445e+08
6	0x4f9f9a36	5.3553674e+09
7	0xcb1a858e	-1.0126734e+07
8	0xcbcff57e	-2.7257596e+07
9	0x3dd61f4c	0.10455188
10	0xbe2f2064	-0.171022
11	0xbf8ff9f5	-1.1248156
