models/regression/neural_networks/Price_Night/23-02-2023, 21:41:27/model.pt (torch, 3263 bytes, 5 tensors)

layers.0.weight f4 [10, 11]
00000000: 934c cbbb eae5 883d d821 3dbe 1e01 1ebe
00000010: 2fd7 14be fe99 45be bc3a 21be 20e7 183e
00000020: b26c 56bd 8ef3 aebd 825f f6bd 9c32 99be
00000030: 8c1a bd3d fa84 853e d8a2 05be 70ed 18be
00000040: a88f 6e3e 00fc 7d3a 4002 8dbc 8b91 55be
00000050: 000c 483a d88b 68be b09d 8bc3 022b 29c3
00000060: c2cb c2c2 edf2 a6c3 537d a6c3 4ece a7c3
00000070: e660 a6c3 08a1 a7c3 7ee2 a1c3 4000 15c5
00000080: 0226 cec2 d452 a2be 5ff6 99be dcda 173d
00000090: 986f c0bc 7c6e 9fbd 62ae 20be 80f4 46be
000000a0: a8ba 09be 9daa a0be b6ae 57be 90c6 6a3e
000000b0: 167f f6bd f0ff c23c 60d8 19bc d062 993e
000000c0: 3029 6f3d 40e6 eebc 55dc 97be 38df c3bd
000000d0: c85b d53d a8b2 febd 94c1 6cbd 0b9a 51c2
000000e0: 6134 f6c1 0a16 95c1 4745 80c2 5a76 80c2
000000f0: be9b 80c2 5e44 7fc2 8883 80c2 9446 79c2
00000100: 8086 e0c3 7cce 9ac1 149a ab3e 7040 873e
00000110: 90cc 7ebd f5aa 4c3e b37e 403e ac57 273d
00000120: 3a02 90be f25f ed3d 4020 463c 1c43 78bf
00000130: bd27 c9bc 2ae2 8dbe f2d8 21be 09d0 f9bd
00000140: e3f9 35be d93a 8fbe bc7d 99bd 8063 c23c
00000150: 8034 6fbd 1cc0 db3d 3cc9 9dbf b52a 6cbe
00000160: 4a04 6bbe 0406 903d b8fc cc3d bed9 3dbe
00000170: 804e 54be ccd4 8a3e 9052 a7bc 063e 813e
00000180: 0056 47bc 6ef6 3ebe cc1b cabd ba8b 123f
00000190: 4d2d 1b3f b0de 923e 1ee3 99bf 6dea 78bf
000001a0: 2f60 99bf 9c57 27bf 8207 97bf 3cd2 97bf
000001b0: 2030 4ac0 5ab5 e33d
-0.0062041967 0.066844776 -0.18469942 -0.15430114 -0.14535211 -0.19297025 -0.15745062 0.14931917
-0.052349754 -0.08542548 -0.120299354 -0.29921424 0.09233579 0.26078016 -0.13050401 -0.14934325
0.23296988 0.0009688735 -0.017212987 -0.20856301 0.00076311827 -0.22709596 -279.23193 -169.168
-97.397964 -333.89786 -332.9791 -335.61176 -332.75702 -335.25806 -323.76947 -2384.0156
-103.074234 -0.31703818 -0.3007078 0.037073955 -0.023490712 -0.07784745 -0.15691522 -0.19429207
-0.1345011 -0.31380168 -0.2106274 0.22927308 -0.120359585 0.023803681 -0.009389967 0.299582
0.05838889 -0.029162526 -0.29660287 -0.0956406 0.104178965 -0.1243642 -0.057801798 -52.400433
-30.775576 -18.635761 -64.13531 -64.231155 -64.304184 -63.816765 -64.2569 -62.318924
-449.05078 -19.350822 0.3351599 0.2641635 -0.062206805 0.1998709 0.18798332 0.040855095
-0.281267 0.11590566 0.01209265 -0.969774 -0.024555082 -0.27711612 -0.15805414 -0.12197883
-0.17771105 -0.27974585 -0.07494685 0.023729086 -0.058399677 0.10730001 -1.2327037 -0.23063166
-0.22950855 0.070323974 0.1000914 -0.18540093 -0.2073307 0.27115476 -0.020425111 0.25242633
-0.0121665 -0.18648693 -0.09868583 0.57244456 0.60616 0.28685522 -1.2022436 -0.97232705
-1.1982478 -0.65368056 -1.1799166 -1.1861033 -3.1591873 0.111185744

layers.0.bias f4 [10]
00000000: ad9f dc3d a796 30be e783 87c2 63ed 563e
00000010: f80f 813d 6be5 4fc1 125b b4bd 0805 373e
00000020: 800e 50be e2b3 cdbe
0.10772643 -0.1724497 -67.75762 0.20988993 0.06301874 -12.99351 -0.08806433 0.17873013
-0.20318031 -0.40176302

layers.3.weight f4 [10, 10]
00000000: 9ac6 1e3e 2c3b aa3d 5706 72c4 bf89 593e
00000010: ce7f 27be 019f 63c3 3eaf 463e 83bf 593f
00000020: 525b 4d3e 60a1 a1be f600 563e ea71 1c3e
00000030: 08bb 55be c6b6 4abe b6a7 3f3e 7c8e 5fbe
00000040: b040 71be 0906 34be 1c11 c33d f8d8 76bd
00000050: 96f9 7b3e 00bb 363e 9f28 26be 1036 cd3c
00000060: 7560 983e af50 41be 0f10 1b3e 20cd a0be
00000070: 100d 243d 9217 953f 867f 1fbd c87b 27bd
00000080: 8b41 70be 22a1 e8bd d03c c2bc ae29 82be
00000090: 3ad4 6a3d 30fe 1a3c 2014 443d e902 ea3f
000000a0: 30d1 3fbe 741a 89bd 2fca 46be 5ce8 eabd
000000b0: 85e2 4bbe 88fe 4ebe 5f04 5cbe 40ae 26bb
000000c0: 9061 1c3d 6bd6 84c1 4183 1ebe a618 593e
000000d0: 215e 97be 003a d23a 1cd2 05be 4631 223f
000000e0: 28cb 7bbd ee30 943e 7862 1bbe ee49 68be
000000f0: f238 98be 22e8 c1bd 38de 3ebd 7c57 8dbe
00000100: 4ebb 8abe 1086 89be b87c 87be 70fa f4bc
00000110: f03d 1c3d 6a84 b140 3800 1b3d 9806 ea3d
00000120: 847d 56c5 36cd 15be 309a 54bd 0421 48c4
00000130: 6577 91bf f548 ffbd 7c08 e93d e0e6 3abc
00000140: 9a27 84be e065 afbd 9c7d 10c0 2372 573e
00000150: b2b6 633e 72f4 e8be eb84 29bf 6620 16bf
00000160: 41e8 62be 3daa a540 a23b 23be 86a3 113e
00000170: 78f0 43be 460e 1bbe e497 cfbd e360 84be
00000180: 12b0 6fbe a804 81bd 8918 8ebe 03ab e1bf
0.15505448 0.083120674 -968.09906 0.21243952 -0.16357347 -227.62111 0.19402787 0.8505785
0.20054367 -0.31568432 0.20898804 0.1527783 -0.20872128 -0.19796285 0.1871632 -0.21831697
-0.23559833 -0.17580427 0.09524748 -0.06026551 0.24606928 0.17844772 -0.16226433 0.025050193
0.2976109 -0.18878435 0.15142845 -0.31406498 0.04005152 1.1647818 -0.038939975 -0.04088953
-0.23462503 -0.11358859 -0.023710638 -0.25422424 0.0573313 0.009460017 0.047870755 1.8282138
-0.18732142 -0.06694499 -0.19413064 -0.114701 -0.19910629 -0.20214283 -0.21486042 -0.002543345
0.03817898 -16.604696 -0.15479757 0.21200809 -0.29564002 0.0016039014 -0.13068432 0.63356435
-0.06147304 0.2894358 -0.15174282 -0.22684452 -0.29730946 -0.09468104 -0.046598643 -0.27605808
-0.27096027 -0.26860094 -0.2646234 -0.029904574 0.038145006 5.547414 0.037842005 0.11427039
-3431.8447 -0.14629063 -0.051904857 -800.51587 -1.1364561 -0.12465087 0.113785714 -0.011407584
-0.25811464 -0.08564353 -2.2576666 0.21039633 0.22237661 -0.45498997 -0.6621844 -0.58643186
-0.2215891 5.177031 -0.15940717 0.14222535 -0.191347 -0.15142164 -0.10136393 -0.2585517
-0.23407009 -0.06299716 -0.27753094 -1.7630314

layers.3.bias f4 [10]
00000000: f51b 02c1 5d04 94be ed23 c4bd 95a5 9740
00000010: d26b bc40 215a 8cbe 0397 a640 3550 fec1
00000020: adae b540 adb0 21be
-8.131825 -0.2890958 -0.09577165 4.7389627 5.8881617 -0.27412513 5.205934 -31.789164
5.6775727 -0.15790053

layers.6.weight f4 [1, 10]
00000000: 84e5 d8c4 d926 833e eec0 843f d5e9 9740
00000010: a775 bb40 ca30 1b3f eee9 a640 5d3d 18c3
00000020: 1d34 b640 76e5 b83d
-1735.1724 0.25615576 1.0371377 4.747294 5.858112 0.6062132 5.216056 -152.2397
5.6938615 0.09028141
