models/regression/neural_networks/18-02-2023, 11:01:54/model.pt (torch, 2195 bytes, 3 tensors)

layers.0.weight f4 [12, 12]
000000 97 c4 43 d9 c3 36 a4 d5 a0 d3 4a d5 0b e8 01 d5
       -3.4439858e+15 -2.2569388e+13 -1.3938142e+13 -8.927101e+12
000010 17 03 ae d5 7e d9 b1 d5 ed 4e b1 d5 52 e8 b1 d5
       -2.3916037e+13 -2.444346e+13 -2.4369068e+13 -2.445142e+13
000020 f7 82 b3 d5 cc d5 ab d5 1d b0 21 d7 36 60 13 d5
       -2.4671884e+13 -2.3616842e+13 -1.7777777e+14 -1.012759e+13
000030 a8 f1 48 bd a0 6f f6 bc 70 83 99 3d 72 30 34 3e
       -0.049058586 -0.030082524 0.07495773 0.17596605
000040 56 62 89 be d0 69 09 bd 12 7c 59 be b4 40 90 be
       -0.26832837 -0.033548176 -0.21238735 -0.28174365
000050 00 ec 66 3e 1c fb 0d 3e 70 c2 c8 bc e8 f3 0a 3d
       0.22550964 0.13865322 -0.024506778 0.033924013
000060 c8 e3 2c be 92 9a da c7 a5 9a 5a c7 8f 9a 5a c7
       -0.16883767 -111925.14 -55962.645 -55962.56
000070 02 65 7b c8 0b 6e 80 c8 d3 ff 6a c8 9d a0 88 c8
       -257428.03 -263024.34 -240639.3 -279812.9
000080 c7 ff 6a c8 c5 ff 6a c8 a5 9d 31 c9 87 9a 5a c7
       -240639.11 -240639.08 -727514.3 -55962.527
000090 68 e8 13 be a0 1a 18 bd 00 dc 10 3a d7 43 7e be
       -0.14444125 -0.037134767 0.00055259466 -0.24830566
0000a0 26 4e 33 be 20 b7 86 bc dc e0 39 3e fe fa 54 be
       -0.1751028 -0.016444743 0.18152183 -0.20798871
0000b0 a4 ea bb 3d 34 71 a6 3d b0 71 1d bd a4 82 49 be
       0.091756135 0.081270605 -0.0384385 -0.19678742
0000c0 34 1d 3e be f0 7f 4c 3e 86 bc 1e 3e cc 77 02 3e
       -0.18565828 0.1997068 0.15501603 0.12741011
0000d0 d8 a1 4e bd 49 a5 80 be d6 45 11 be 65 05 4a be
       -0.050447315 -0.25126103 -0.14186797 -0.1972862
0000e0 76 82 08 3e e4 53 6c 3e 98 0e 01 bd dc 92 0e 3e
       0.13331017 0.23078877 -0.03150806 0.1392321
0000f0 94 9a 99 c5 7d ff 02 c2 d0 5d a9 c1 74 90 39 c1
       -4915.3223 -32.7495 -21.170807 -11.597767
000100 03 95 32 c2 f9 2b 34 c2 2f fc 32 c2 1a ee 31 c2
       -44.64552 -45.042942 -44.746273 -44.48252
000110 9e 55 33 c2 28 8e 2d c2 7a ef 98 c3 03 16 47 c1
       -44.83361 -43.388824 -305.8709 -12.442874
000120 c2 66 aa d7 9b ef 0e d4 a7 8b b0 d3 d0 25 62 d3
       -3.7471664e+14 -2.455621e+12 -1.5165144e+12 -9.71297e+11
000130 eb 76 17 d4 09 ce 1a d4 6b 55 1a d4 ef da 1a d4
       -2.6021407e+12 -2.6595266e+12 -2.6514322e+12 -2.6603922e+12
000140 5f 40 1c d4 d7 91 15 d4 bf bc 8c d5 99 47 80 d3
       -2.6843795e+12 -2.5695877e+12 -1.9342786e+13 -1.101914e+12
000150 a9 4a 0b c5 65 be 6b c1 e5 36 17 c1 a8 9e a2 c0
       -2228.6663 -14.733983 -9.450902 -5.081867
000160 92 ae a3 c1 cb 14 a4 c1 b3 c2 a3 c1 1e 6e a0 c1
       -20.46024 -20.510153 -20.470068 -20.053768
000170 ce 4f a4 c1 5a b8 9e c1 b4 a8 0a c3 7d 9b b8 c0
       -20.538967 -19.840015 -138.659 -5.7689805
000180 09 0c 18 be 59 e7 33 be 58 1d 16 bd 20 95 c9 3d
       -0.14848341 -0.17568721 -0.036649078 0.098428965
000190 2c 84 86 be 08 c8 e9 3d d4 96 5b 3e ba 4b 4c be
       -0.26272714 0.11415106 0.21444255 -0.19950762
0001a0 1c 9b ad 3d 70 7c 23 3e 74 85 37 be f4 22 5a 3e
       0.084768504 0.15965438 -0.17922002 0.21302396
0001b0 2c 44 73 c5 27 78 d0 c1 d4 1f 85 c1 ad 72 0e c1
       -3892.2607 -26.058668 -16.640541 -8.902997
0001c0 a8 84 0c c2 7d 18 0f c2 ac f5 0e c2 d3 59 0c c2
       -35.129547 -35.773914 -35.739914 -35.08772
0001d0 5e 9d 0d c2 51 f2 09 c2 be 02 72 c3 5b 26 1a c1
       -35.40368 -34.486637 -242.01071 -9.634364
0001e0 0b bc b0 d9 93 3f 14 d6 66 1b b7 d5 80 8d 6a d5
       -6.218294e+15 -4.0750193e+13 -2.5166038e+13 -1.6118341e+13
0001f0 07 18 1d d6 eb 8e 20 d6 d3 11 20 d6 4f 9c 20 d6
       -4.318163e+13 -4.4133922e+13 -4.3999604e+13 -4.41483e+13
000200 07 0f 22 d6 eb 20 1b d6 cb f7 91 d7 1d 0c 85 d5
       -4.4546356e+13 -4.264142e+13 -3.209869e+14 -1.8285884e+13
000210 86 9f 96 d9 f0 b0 fc d5 da 0d 9c d5 28 e6 47 d5
       -5.2995805e+15 -3.4729609e+13 -2.1447913e+13 -1.3736958e+13
000220 5d e2 05 d6 3a d6 08 d6 9c 6b 08 d6 a2 e1 08 d6
       -3.6801817e+13 -3.761342e+13 -3.749894e+13 -3.7625667e+13
000230 95 1d 0a d6 96 35 04 d6 e2 cd 78 d7 e5 c7 62 d5
       -3.7964915e+13 -3.634142e+13 -2.7356314e+14 -1.558426e+13

layers.0.bias f4 [12]
000000 0b 38 91 d4 d4 da cb 3d bb 9a 5a c7 70 be 03 be
       -4.989684e+12 0.099538475 -55962.73 -0.12865615
000010 80 4c 8f bb c4 79 0f c1 f3 cd fc d2 ff 4e 75 c0
       -0.004373133 -8.967228 -5.428935e+11 -3.8329465
000020 36 51 26 be 17 11 e0 c0 a0 19 03 d5 38 76 df d4
       -0.16241917 -7.002086 -9.00913e+12 -7.6780887e+12

layers.2.weight f4 [1, 12]
000000 47 c4 38 d9 2c 4d 13 be 87 7b 50 c9 c4 e2 42 3e
       -3.2504503e+15 -0.14384907 -853944.44 0.19031817
000010 d0 88 8d bc 00 fc 8e 45 05 57 0a d9 69 d6 b7 44
       -0.017277151 4575.5 -2.4337016e+15 1470.7003
000020 a0 78 23 bc d7 e3 23 44 44 ef 8d d9 21 c7 c6 d9
       -0.00997749 655.56 -4.993881e+15 -6.993874e+15
