models/regression/neural_networks/19-02-2023, 16:59:02/model.pt (torch, 2349 bytes, 3 tensors)

layers.0.weight f4 [12, 12]
-0.07297819 1.7024114 1.8475959 1.9528778 0.74690974 0.7443424 0.39376533 0.51227903
0.48451635 0.38149557 0.5908208 2.2865293 -0.14958213 -0.143886 -0.0039204657 -0.16928516
0.040092617 -0.12810561 0.11284724 -0.18843806 0.12102345 -0.22489198 0.0066025555 -0.24648413
-0.0043141246 -0.09164514 -0.05054453 0.026483089 0.13928822 -0.048658222 0.029954106 -0.22119798
0.11426726 -0.20079345 0.0002489388 -0.21586992 0.05365998 -0.90047324 -1.2815826 -1.1376827
0.09671365 0.14880918 -0.07813035 -0.25400606 0.21506625 0.307436 0.2557504 -1.3457067
-0.21825056 -0.18561319 0.048090637 0.119724125 -0.06248951 -0.0700811 0.13076156 -0.15470031
-0.2715368 -0.2663854 -0.024713874 0.015513688 -0.38315699 0.122830965 -0.042109646 0.045785993
0.07496923 0.07753895 -0.17453627 -0.065829374 0.16661863 -0.22429222 0.22111055 -0.13067077
-0.15718216 0.22073734 0.17458785 -0.034997225 -0.14282618 0.13585994 0.27989316 0.031383663
-0.13639957 -0.005998552 -0.26967984 -0.020253628 0.22068962 1.7039683 1.4587218 1.4373616
0.6726448 0.58869666 0.7216619 0.5722989 0.55813074 0.6627137 0.44717336 1.5110128
-0.25507036 0.09215218 -0.28206274 -0.11803734 0.174152 -0.32200342 0.019415503 0.14008935
0.008383271 0.16638403 -0.15104258 -0.09662798 0.029128965 2.0225914 1.877145 2.0244777
0.5561206 0.63573796 0.41081786 0.4129498 0.67644215 0.39520004 0.1932967 2.0383558
0.07744033 -1.2138112 -1.1930089 -1.6421872 0.029086184 0.19560598 -0.03624381 0.09631988
-0.12346895 0.042602357 -0.14707848 -1.009451 -0.09971099 2.3457892 2.4769068 2.319237
0.8650265 1.0399958 1.02211 0.7418446 0.9990421 0.9435783 0.9338087 2.751121
00000000: 9775 95bd 9ee8 d93f 067e ec3f e6f7 f93f
00000010: 7a35 3f3f 398d 3e3f 9c9b c93e b824 033f
00000020: 8712 f83e 6353 c33e 0840 173f 7f56 1240
00000030: 0f2c 19be da56 13be 4077 80bb 1759 2dbe
00000040: 2838 243d 1e2e 03be 741c e73d e8f5 40be
00000050: 24db f73d 154a 66be 405a d83b 5666 7cbe
00000060: 805d 8dbb 72b0 bbbd c807 4fbd 10f3 d83c
00000070: 92a1 0e3e d84d 47bd 5062 f53c b981 62be
00000080: f404 ea3d cc9c 4dbe 0084 8239 010d 5dbe
00000090: 91ca 5b3d 6a85 66bf e60a a4bf 969f 91bf
000000a0: ce11 c63d 6f61 183e ce02 a0bd 150d 82be
000000b0: 543a 5c3e 4068 9d3e b7f1 823e 1e40 acbf
000000c0: 137d 5fbe 6211 3ebe b0fa 443d ec31 f53d
000000d0: 00f5 7fbd ae86 8fbd 5ce6 053e c269 1ebe
000000e0: df06 8bbe ab63 88be c074 cabc 202d 7e3c
000000f0: 272d c4be cd8e fb3d 2a7b 2cbd 188a 3b3d
00000100: 7889 993d becc 9e3d a3b9 32be 8dd1 86bd
00000110: 139e 2a3e dcac 65be ce6a 623e 8fce 05be
00000120: 5cf4 20be f808 623e 28c7 323e 4059 0fbd
00000130: 0741 12be de1e 0b3e 284e 8f3e 288c 003d
00000140: 54ac 0bbe 808f c4bb 7a13 8abe f0ea a5bc
00000150: 76fc 613e a21b da3f 65b7 ba3f 77fb b73f
00000160: 7332 2c3f d3b4 163f d6be 383f 2e82 123f
00000170: a8e1 0e3f 9ba7 293f e8f3 e43e de68 c13f
00000180: 9598 82be 48ba bc3d 876a 90be 90bd f1bd
00000190: e754 323e a2dd a4be 430d 9f3c 9573 0f3e
000001a0: fd59 093c 9360 2a3e e8aa 1abe e4e4 c5bd
000001b0: de9f ee3c 2372 0140 4a46 f03f 0b91 0140
000001c0: eb5d 0e3f b9bf 223f b856 d23e 286e d33e
000001d0: 502b 2d3f a957 ca3e 92ef 453e 6c74 0240
000001e0: 0999 9e3d 2a5e 9bbf 84b4 98bf 3133 d2bf
000001f0: 2646 ee3c ef4c 483e 6474 14bd 5b43 c53d
00000200: 4add fcbd cf7f 2e3d be9b 16be b135 81bf
00000210: 4735 ccbd 6921 1640 a485 1e40 616e 1440
00000220: 6072 5d3f 951e 853f 80d4 823f 87e9 3d3f
00000230: 39c1 7f3f 598e 713f 160e 6f3f 5e12 3040

layers.0.bias f4 [12]
0.6386004 0.0876379 -0.06450306 0.06138764 -0.22191685 0.21248975 0.22457004 0.327572
0.23418353 0.43800476 0.29594922 0.7692586
00000000: 517b 233f 807b b33d 2e1a 84bd 9b71 7b3d
00000010: 2c3e 63be ea96 593e b0f5 653e 84b7 a73e
00000020: cfcd 6f3e 2942 e03e a886 973e 22ee 443f

layers.2.weight f4 [1, 12]
0.47874314 -0.015569299 -0.10311043 -0.098822095 0.25352025 -0.46310955 0.08124402 0.39243233
-0.12254226 0.43665466 -0.08035333 1.1288708
00000000: d21d f53e 6016 7fbc 902b d3bd 3d63 cabd
00000010: 68cd 813e b21c edbe 4463 a63d e4ec c83e
00000020: 70f7 fabd 3391 df3e 4990 a4bd d77e 903f
