models/regression/neural_networks/Price_Night/20-02-2023, 06:41:51/model.pt (torch, 2349 bytes, 3 tensors)

layers.0.weight f4 [12, 12]
-0.026214812 1.8371279 1.5656277 1.768543 0.16276745 0.17851862 -0.09475137 0.18460014
-0.17330003 -0.013112167 -0.03646281 1.5848696 -0.04163237 1.6917578 2.1869001 1.5474819
0.6565738 0.68540466 0.63047206 0.684317 0.35202774 0.3233442 0.4292422 1.8756051
-0.026040468 1.8252228 1.8022004 1.6515458 0.41130954 0.5337136 0.21956027 0.1168231
0.3430209 0.13118388 0.22402732 1.9671715 0.084778965 1.5178415 1.4550456 1.2780818
0.36073384 0.0688748 -0.012407709 0.42234668 0.52467734 0.31997314 -0.012254287 1.3957871
-0.03503368 1.6946375 1.9852563 1.6502105 0.5286695 0.33440754 0.5529134 0.29781467
0.605166 0.22442828 0.5479692 1.8982255 0.146648 1.393497 1.6597962 1.545202
0.5609401 0.37283212 0.21873027 0.49729738 -0.012945202 0.19877635 0.39849082 1.4586148
-0.030417953 1.764624 1.8607538 1.8655301 0.63592935 0.49093586 0.16207528 0.46200442
0.55954975 0.28816843 0.34562358 2.0832827 -0.19560102 0.16311094 0.19815987 0.086551994
0.23183084 -0.20642743 0.27171654 0.08009085 -0.13826054 -0.13537456 -0.057165474 -0.012418181
-0.24921212 0.054385994 -0.03230763 -0.18687056 -0.16100703 0.19281054 0.06693451 -0.12506872
0.16334248 -0.26361704 -0.021157091 -0.33701384 0.18123786 1.3361732 1.7267693 1.2826971
0.08296071 0.3947466 0.4451197 0.4636882 0.3364417 0.47014633 0.08408479 1.287707
-0.24529313 -0.23788516 0.09827916 0.052898213 -0.22269638 -0.288249 -0.24312346 0.044722512
-0.08628458 -0.05992158 0.07427336 -0.329075 0.023747748 1.8021482 1.8338794 1.48859
0.2609933 0.38082603 0.040626053 0.15242036 0.25198606 0.10664107 0.034971476 1.3671391
00000000: 72c0 d6bc 0227 eb3f 7d66 c83f 9e5f e23f
00000010: 83ac 263e 96cd 363e 020d c2bd d207 3d3e
00000020: 9075 31be 6ad4 56bc 075a 15bd 02dd ca3f
00000030: b486 2abd 858b d83f 2cf6 0b40 e313 c63f
00000040: 3815 283f ae76 2f3f 9e66 213f 662f 2f3f
00000050: fb3c b43e 5f8d a53e a2c5 db3e d413 f03f
00000060: d252 d5bc e7a0 e93f 81ae e63f da65 d33f
00000070: 2a97 d23e 74a1 083f 68d4 603e f340 ef3d
00000080: 6fa0 af3e 1155 063e 6b67 653e 47cc fb3f
00000090: 98a0 ad3d a148 c23f ef3e ba3f 2f98 a33f
000000a0: 1bb2 b83e 3b0e 8d3d b449 4bbc d33d d83e
000000b0: 4151 063f 85d3 a33e 34c6 48bc 27a9 b23f
000000c0: 7a7f 0fbd e2e9 d83f e11c fe3f 193a d33f
000000d0: e256 073f 7737 ab3e bc8b 0d3f 2a7b 983e
000000e0: 29ec 1a3f 87d0 653e b647 0c3f 0ef9 f23f
000000f0: e52a 163e 1c5e b23f 3474 d43f 2ec9 c53f
00000100: c599 0f3f dae3 be3e d4fa 5f3e c39d fe3e
00000110: 1d18 54bc 078c 4b3e fd06 cc3e e4b3 ba3f
00000120: 122f f9bc 33df e13f 2e2d ee3f b1c9 ee3f
00000130: 44cc 223f f25b fb3e 10f7 253e d88b ec3e
00000140: a73e 0f3f d08a 933e 93f5 b03e 8154 0540
00000150: a24b 48be 8e06 273e 6cea 4a3e 2c42 b13d
00000160: 1065 6d3e b661 53be 6e1e 8b3e ac06 a43d
00000170: 2c94 0dbe a19f 0abe 5826 6abd a075 4bbc
00000180: 7631 7fbe d9c3 5e3d 0155 04bd ff5a 3fbe
00000190: 07df 24be 2070 453e f614 893d 0412 00be
000001a0: 4043 273e d0f8 86be a351 adbc 148d acbe
000001b0: 6b96 393e b907 ab3f c706 dd3f 6b2f a43f
000001c0: 4ee7 a93d 3a1c ca3e bbe6 e33e 8a68 ed3e
000001d0: 1642 ac3e 05b7 f03e a534 ac3d 95d3 a43f
000001e0: 1f2e 7bbe 2b98 73be 9646 c93d ccab 583d
000001f0: 850a 64be 5f95 93be 5bf5 78be f42e 373d
00000200: f8b5 b0bd 5570 75bd a21c 983d 857c a8be
00000210: a38a c23c cbac e63f 8fbc ea3f 1e8a be3f
00000220: eaa0 853e a1fb c23e 8167 263d 1514 1c3e
00000230: 5104 813e a266 da3d 403e 0f3d 6afe ae3f

layers.0.bias f4 [12]
0.16304101 0.3189533 0.32715556 0.0040603043 0.24749888 0.41010508 0.6098216 -0.04195544
0.06384169 0.093291834 -0.06697335 0.5221853
00000000: 39f4 263e d94d a33e ef80 a73e 4d0c 853b
00000010: 5970 7d3e 4bf9 d13e 451d 1c3f 78d9 2bbd
00000020: 6fbf 823d ca0f bf3d 5329 89bd f0ad 053f

layers.2.weight f4 [1, 12]
0.089732476 0.87339 0.60483474 0.15084086 0.73028624 0.13801661 0.62318933 0.20207664
0.04475674 0.23185019 -0.21732467 0.3236725
00000000: a9c5 b73d 7d96 5f3f 73d6 1a3f 0776 1a3e
00000010: 0af4 3a3f 3a54 0d3e 5689 1f3f 2eed 4e3e
00000020: d852 373d 236a 6d3e 5c8a 5ebe 67b8 a53e
