models/classification/neural_networks/bedrooms/27-02-2023, 20_41_37/model.pt (torch, 3519 bytes, 5 tensors)

layers.0.weight f4 [12, 11]
00000000: 00ff ef3d bcec 0abe 6e47 3d3e a82b 73be
00000010: 0806 5b3d c8c3 14bd 24cf 91be 4465 823e
00000020: 2438 8b3e cc6e 503e 83f1 0fbe 7bae 6d3e
00000030: 8054 47be 09f0 8e3d 5c4f bd3e 09a9 a03d
00000040: 4dee 193e 446d 6b3c 7f01 233e 5e69 4ebe
00000050: e402 07be 1a23 5b3e 7f1a a0bd 562d b83b
00000060: e5b6 a7bd 4e51 543a 9c1a 843e 7f54 57bd
00000070: 18e5 0c3e 458a a4bd ae85 553e 92d9 493b
00000080: b9ac 08be 6005 213e 10ff 7c3e d8b6 033d
00000090: 2de1 86be 321b 6cbe 3d77 96be c7d3 953d
000000a0: 13f2 f63d 8209 47be 6623 79be f12f 163e
000000b0: 7be5 5ebd daa5 cf3c 2ca9 5dbc 7277 b23e
000000c0: 6f65 fe3d 8d6b 9c3e 177d b9bd 0bf2 8d3e
000000d0: 76a6 843d 8ac9 d8bd 7694 f5bd 58bf 02be
000000e0: e7cb cdbd 92fb 38be 4704 d23e 9065 753d
000000f0: 301d 92be fd2f da3c e25e 71be 2a68 ac3c
00000100: 7b8b 68be d1ba a83e f63d 1dbe 407a e03d
00000110: b8f7 aebd ab38 01be e8fc 633e 9148 46be
00000120: 4aa4 023e 90b0 583e 3e3c 85be 08f7 493e
00000130: d1ba 31be a86f 913e f1af 943d 5532 c9bc
00000140: 6309 b83e 2885 58be 8108 433e 0839 963e
00000150: 165f 2a3e b313 69be a474 04bd 2b9f 1abd
00000160: 70ec de3c 3e89 5e3e 329f 063e ed3c 6b3e
00000170: cc85 243e a2a2 903e bf31 873e 63ce 253e
00000180: 11a3 713e 66d9 1b3e e578 6dbe ab40 923e
00000190: 4379 14be 7a8f 8dbd 3f6d 8dbe 522e bd3d
000001a0: 0530 27be c393 903e c5b0 53bd 1bdb 8e3e
000001b0: 03ad ca3d 81da 173e a364 233e 156a 963e
000001c0: cd78 213e 8d37 afbd 7aea 62bd e406 48be
000001d0: df08 a83d 8ae4 133e 2e83 5fbe 46f7 963e
000001e0: 393e dd3d d835 623d 646d 4c3e a56a b9bd
000001f0: 2b39 153d c327 443e e441 173e faca 35bd
00000200: 55af 73bd b422 163e 7d40 0f3e 9eb3 8d3d
0.11718559 -0.1356687 0.1848428 -0.23747122 0.05347255 -0.036319524 -0.28478348 0.25467885
0.2719127 0.20354766 -0.14056973 0.2321109 -0.19465828 0.06979377 0.3697461 0.07844741
0.15032311 0.014369313 0.1591854 -0.20157382 -0.13184696 0.21400109 -0.07817554 0.005620639
-0.08189181 0.00080992735 0.2580155 -0.052570816 0.13759267 -0.08034185 0.20851776 0.0030799848
-0.13347138 0.15724707 0.24706674 0.032156795 -0.2634367 -0.23057249 -0.29387847 0.07315784
0.12057891 -0.1943722 -0.2432991 0.14666726 -0.05441807 0.025347639 -0.013529103 0.34856755
0.12421691 0.30550805 -0.09057062 0.27723727 0.064770624 -0.105853155 -0.11991207 -0.12768304
-0.10048657 -0.18064716 0.41018888 0.05991131 -0.28537893 0.02663421 -0.23571351 0.021045763
-0.22709458 0.3295503 -0.15355667 0.10960817 -0.08543342 -0.12619273 0.22264445 -0.1936362
0.12757984 0.21161103 -0.26022524 0.19723141 -0.17356421 0.284055 0.07260121 -0.024560133
0.35944661 -0.21144545 0.19046213 0.29340386 0.16637835 -0.22761421 -0.0323378 -0.03774945
0.027212352 0.21732041 0.13146666 0.2297246 0.16066664 0.2824908 0.2640514 0.16192012
0.23597361 0.1521965 -0.23190649 0.28564963 -0.14499383 -0.069121316 -0.2762241 0.092373505
-0.16326912 0.28237733 -0.051682252 0.2790154 0.098962806 0.14829446 0.15956359 0.2937781
0.15768738 -0.08555517 -0.055399396 -0.19533879 0.08204817 0.1444265 -0.21827385 0.2948553
0.10802884 0.05522713 0.19963604 -0.09053544 0.036431473 0.19155793 0.14771229 -0.044383027
-0.05949338 0.14661676 0.13989444 0.06919025

layers.0.bias f4 [12]
00000000: 9407 643e 7628 97bb ee6c 7a3d f88f 7d3e
00000010: 4639 4d3e 54c4 2fbd 904c 423e fd69 1d3e
00000020: 2f34 983e 7837 393e fd32 1cbd b200 13be
0.22268516 -0.0046129776 0.06113904 0.24761951 0.2004138 -0.042911842 0.18974519 0.15372463
0.29727313 0.18087566 -0.038134564 -0.14355734

layers.3.weight f4 [12, 12]
00000000: 2089 29be ce0b e1bd 672a 91be 45c2 043e
00000010: ae09 b93d 77ac 633e 2084 613e 25d3 123e
00000020: 8a2d 253e 71d5 263e af1b 6dbe 69bd 863d
00000030: 048d 883e afaf 573d b2cf 8abd 38da 3d3d
00000040: de1f 06be 8057 b83c 6389 84be 739a afbd
00000050: aeb6 19be a547 89be e64d 21be 96ce 02bd
00000060: e450 76bd 9f6c 3ebe 36c0 8d3e 4666 dabd
00000070: ed84 95bd dd19 843d f63c 8f3e e91a 98bd
00000080: cee3 3c3e f649 11be 4363 233e 048a 303e
00000090: 0e6e 48be 3470 ae3e 8415 36be 2a7d ebbc
000000a0: b63c efbd aebd 583e 4cdc 5dbd 3f29 423e
000000b0: 4732 1b3e 3198 d0bc 86a2 cfbb 492f 273d
000000c0: 3aef 843e 347d 8a3d 3ba2 91be c35c 26be
000000d0: 0903 573d 6cc9 c8bb 7c0d c33d 8a41 97be
000000e0: 7f1c 5bbd 9883 d8bc f705 7b3d b068 64be
000000f0: 586e 6a3d f631 80be 4f58 4c3e 56db c7bd
00000100: 3738 053e bd77 4fbe 8a71 99bd 386e be3d
00000110: 404e 773d b71e 363e 16fd fabd 7765 7c3e
00000120: ac10 ce3d 2181 87be 316a 933e 00aa ebbd
00000130: e7ff f1bc ff88 1fbd 6214 bfbd 8c12 09bd
00000140: bd64 8dbd 7ec6 0f3e c6b1 efbd b014 b63d
00000150: d04e 11be cb33 15bd b5cf 753e 0d5e 9dbb
00000160: 26be 95bd 3cc4 843c 6849 a9bd 5207 833e
00000170: 0fd3 853e 1647 253d 0743 013e 6540 d53d
00000180: 1898 65bd d93a d73c 3412 c83d 8259 47be
00000190: 7799 713e 9b5f b43e dd44 04be 7cb4 6f3e
000001a0: 0005 b33d b20d 873e c925 b83d 4ade c63c
000001b0: 789b 693e 3170 4c3c 9861 933d 19d7 77bd
000001c0: e59e 34be 12fa 7a3c c0bd 62bd 2b59 33be
000001d0: 4e89 cc3d 488e 523e 77f0 ebbd e554 b43d
000001e0: df85 6fbe fcbe ba3e 74c7 82bd 63ee 9cbd
000001f0: b7de a23e dac1 a53e 4089 fcbd dcf9 4eba
00000200: a509 83bc bdea 8dbe 93bb 72be 3550 39be
00000210: 4200 4e3e 1a02 9e3d f4cc 50be dddc 9cbd
00000220: 43e2 953e 9e93 383d c0d1 6fbc 9b97 a73e
00000230: fe7a 2a3e c557 073e f737 6c3e ced5 523e
-0.16556215 -0.1098858 -0.28352663 0.12964733 0.090350494 0.22233759 0.22023058 0.14338358
0.16130653 0.16292359 -0.23155092 0.06579096 0.26670086 0.05265778 -0.06777896 0.046350688
-0.13098094 0.02250266 -0.25886068 -0.08574381 -0.15011093 -0.26812473 -0.15752372 -0.031935297
-0.060135737 -0.18596123 0.27685708 -0.10664038 -0.07300744 0.064502455 0.27976197 -0.07427008
0.18446276 -0.1418837 0.15955834 0.17240149 -0.19573233 0.3406998 -0.17781645 -0.028746206
-0.116815016 0.21166107 -0.05416517 0.18961047 0.15155898 -0.025463196 -0.006336513 0.04081658
0.25963765 0.06762162 -0.28444085 -0.16246323 0.05249313 -0.006127527 0.09524056 -0.2954219
-0.053493973 -0.026429936 0.061284985 -0.2230556 0.05723414 -0.25038117 0.19955562 -0.09758632
0.13009726 -0.2026052 -0.07492359 0.09298366 0.06037736 0.17785154 -0.122553036 0.24648081
0.10061774 -0.26465705 0.28791955 -0.11507034 -0.029540969 -0.03894901 -0.093300596 -0.033464953
-0.0690398 0.14040563 -0.117038295 0.088906646 -0.14190221 -0.036426347 0.24005015 -0.0048024715
-0.073116586 0.016206853 -0.08265954 0.25591522 0.26137587 0.040350996 0.12623225 0.10412673
-0.05605325 0.026273178 0.09769097 -0.19467738 0.23593698 0.3522919 -0.12916894 0.23408693
0.08741188 0.26377636 0.08991582 0.024275918 0.22813213 0.01247792 0.07196349 -0.060507867
-0.17638738 0.0153184105 -0.05535674 -0.17514484 0.09987126 0.20562088 -0.115204744 0.08805255
-0.23390912 0.36473835 -0.06385699 -0.07662656 0.31810543 0.3237446 -0.12330866 -0.00078955083
-0.01599581 -0.27718154 -0.23704366 -0.18097003 0.20117286 0.077152446 -0.20390683 -0.07659314
0.29274186 0.045062654 -0.014637411 0.32732853 0.1664848 0.13217075 0.23068224 0.20589373

layers.3.bias f4 [12]
00000000: b7c0 3abc 24b3 723d 2cfa 84bd 58d5 a7bd
00000010: 0f85 1b3e 60e7 1b3d 149c 933e a56b 4fbe
00000020: f44d 82be 2b09 93be 7546 f0bd 636e 2f3e
-0.011398486 0.059252873 -0.06493029 -0.08194989 0.15187477 0.038062453 0.28830016 -0.20255907
-0.254501 -0.28717932 -0.117321886 0.17131953

layers.6.weight f4 [1, 12]
00000000: 190e 5d3e 56a6 693c d989 4ebe 7056 db3e
00000010: bbc3 5fbe 0a4e 3d3d 52c6 92bd d6d2 ad3d
00000020: 8bdb bf3e a472 29be 6828 bc3e c728 a23e
0.21587409 0.014260849 -0.20169772 0.42839384 -0.21852009 0.046217002 -0.07166733 0.084874794
0.37472185 -0.16547638 0.36749578 0.31671736
