models/classification/neural_networks/bedrooms/06-03-2023, 21_40_24/model.pt (torch, 4735 bytes, 6 tensors)

layers.0.weight f4 [14, 16]
0	0xbd94cb68	-0.07265359
1	0x3caaba90	0.020840913
2	0xbd8ba3d8	-0.0681836
3	0xbdc705c4	-0.097178966
4	0xbe712f9c	-0.23553318
5	0xbde09d34	-0.10967484
6	0x3db1e934	0.08687058
7	0x3c1a9a20	0.00943616
8	0xbd28a440	-0.041172266
9	0x3e320bce	0.17387316
10	0xbdbbfe70	-0.091793895
11	0x3e5e32a4	0.21699005
12	0x3e4ad232	0.19806746
13	0x3e33fdd6	0.175773
14	0xbe059e92	-0.13048771
15	0xbe4253bc	-0.18977255
16	0xbe6e997a	-0.23300734
17	0xbd848aad	-0.06471763
18	0xbe8c4511	-0.27396443
19	0xbd9b7d1d	-0.07592223
20	0xbe85b7ed	-0.26116887
21	0xbe1337e9	-0.14376797
22	0x3da670e1	0.08126999
23	0xbe62c757	-0.22146355
24	0x3e28a472	0.16468981
25	0x3d9763b9	0.073920675
26	0x3e32bf66	0.17455825
27	0x3e694f1f	0.22784089
28	0x3e1c42cc	0.15259856
29	0xbe822273	-0.25416908
30	0x3daef9b0	0.08543718
31	0xbe77a3f5	-0.24183638
32	0x3e5d13b6	0.2158955
33	0x3d2965d1	0.041356865
34	0x3e370e73	0.17876606
35	0x3d3de476	0.046360455
36	0x3d57cc21	0.052684907
37	0x3e150898	0.1455406
38	0x3e2e5a8f	0.17026733
39	0xbe040c42	-0.12895301
40	0x3eb65f89	0.35619763
41	0x3e8c2594	0.2737242
42	0x3e1095c4	0.14119631
43	0x3e9d195a	0.30683404
44	0x3e12c1d0	0.14331746
45	0x3aaefd8f	0.0013350713
46	0x3e9a646d	0.30154744
47	0x3e9b5249	0.30336216
48	0x3e559c09	0.20860304
49	0x3dacfbc8	0.08446461
50	0xbd114674	-0.03546758
51	0x3de58091	0.11206163
52	0xbe1e6f6b	-0.1547219
53	0xbe34c222	-0.17652181
54	0xbe414d44	-0.18877131
55	0xbda01930	-0.07817304
56	0xbe38a259	-0.1803068
57	0xbe1b6687	-0.1517583
58	0xbd67ffce	-0.05664044
59	0xbd8b7efd	-0.068113305
60	0x3e588705	0.21145256
61	0x3e18d605	0.14925392
62	0xbe68cd8c	-0.2273466
63	0xbd4e7b77	-0.050410714
64	0x3e392e7a	0.18084136
65	0xbdcaff6c	-0.09911999
66	0xbda3ae58	-0.07992238
67	0xbe409fba	-0.18810931
68	0xbdaf8e18	-0.08572024
69	0x3e2cbc9e	0.16868827
70	0x3d1b7038	0.037948817
71	0x3e42f564	0.19038922
72	0x3e2b5c2c	0.1673438
73	0xbde12e30	-0.10995138
74	0xbe656c58	-0.22404611
75	0xbe147c0c	-0.14500445
76	0xbd568db0	-0.052381217
77	0xbdbaaf6c	-0.0911549
78	0xbcb2b5e0	-0.02181524
79	0xbe534b76	-0.20634255
80	0x3e0075b2	0.12544897
81	0x3e8d12ab	0.27553305
82	0x3e863f53	0.26220188
83	0x3e23523a	0.15949336
84	0x3e79235f	0.24329899
85	0xbda40691	-0.08009065
86	0xbe5cb8d6	-0.21554884
87	0x3e7ccb6f	0.24686979
88	0xbe5902d9	-0.21192493
89	0xbe2624b7	-0.16224943
90	0x3e3f95bf	0.18709467
91	0x3e598e7b	0.21245758
92	0xbe0b28c9	-0.13589777
93	0x3de0903d	0.10965011
94	0xbe3360f5	-0.17517455
95	0x3db3e61a	0.08784123
96	0x3e64a07f	0.2232685
97	0x3e345da8	0.17613852
98	0xbe2d1dae	-0.16905853
99	0x3e5b5f31	0.21423031
100	0xbd83b838	-0.06431621
101	0x3e113a6e	0.14182445
102	0xbd5d71e0	-0.054063678
103	0x3e270719	0.16311301
104	0x3e4cdb67	0.2000557
105	0xbdc9704b	-0.09835871
106	0x3e8549be	0.26032823
107	0xbd2ec2c6	-0.04266622
108	0x3e59e7d9	0.21279849
109	0x3d933446	0.07187705
110	0xbe220479	-0.15822019
111	0xbd7e8494	-0.062138155
112	0x3e36dc12	0.17857388
113	0x3d2b4eb8	0.04182312
114	0xbc07ae00	-0.008281231
115	0xbd98ebe4	-0.074668676
116	0x3e1e42fe	0.15455243
117	0xbe65f296	-0.2245582
118	0xbe3b5354	-0.18293506
119	0xbc37dea0	-0.0112225115
120	0xbe4e97f2	-0.2017515
121	0x3b838900	0.0040141344
122	0x3d1702f0	0.036868036
123	0xbe59f28a	-0.21283928
124	0x3e20ef26	0.15716228
125	0xbdb9da2c	-0.09074816
126	0x3e0751f8	0.13214862
127	0x3ddf2100	0.10894966
128	0xbd98e58c	-0.074656576
129	0xbd061d80	-0.032742977
130	0x3bd150c0	0.0063878
131	0xbdb1ad7c	-0.08675668
132	0xbd7b70b0	-0.061386764
133	0x3e431c28	0.1905371
134	0x3d79aa18	0.06095323
135	0x3d9b3fbc	0.07580516
136	0xbe683076	-0.22674736
137	0xbe117e18	-0.14208257
138	0xbe3995da	-0.1812357
139	0x3e610c9c	0.21977466
140	0xbd7f6668	-0.06235352
141	0xbe44b974	-0.1921137
142	0x3d125648	0.035726815
143	0x3c3e3d00	0.011611223
144	0xbd7824c5	-0.06058194
145	0xbdfde387	-0.12396913
146	0x3d556535	0.05209847
147	0x3e578070	0.21045089
148	0x3e14500f	0.14483665
149	0x3db4924f	0.08816969
150	0x3dd95fe4	0.10613993
151	0xbdb7898e	-0.08961783
152	0x3d9ea4b7	0.077462606
153	0xbe1d021a	-0.15332833
154	0x3e1bbf11	0.15209605
155	0x3e6666b9	0.22500123
156	0x3daa8912	0.08326925
157	0xbe1b224a	-0.15149799
158	0x3e24bf36	0.16088566
159	0x3e9ee350	0.310328
160	0x3e207a79	0.1567172
161	0x3e622a1f	0.2208638
162	0xbe7ea712	-0.2486842
163	0xbe03b3ed	-0.12861605
164	0xbcc28b7d	-0.023748154
165	0xbd555826	-0.052086018
166	0xbd98b771	-0.07456864
167	0xbaacb967	-0.0013177813
168	0x3cfe5211	0.031044992
169	0xbe2f7d2b	-0.17137592
170	0x3e06336f	0.13105558
171	0xbe1cf6f7	-0.15328585
172	0x3e03be90	0.12865663
173	0x3e208dfe	0.15679166
174	0xbc99ae56	-0.018759888
175	0x3e4ca628	0.19985259
176	0x3e343684	0.17598921
177	0x3e42259f	0.18959664
178	0xbdbeb367	-0.09311562
179	0xbda2f1a9	-0.07956249
180	0x3e013606	0.12618265
181	0xbe41a7e2	-0.18911698
182	0x3d9bc531	0.07605971
183	0xbe04c267	-0.12964784
184	0x3d222c44	0.039592996
185	0xbe4a0dc3	-0.19731812
186	0x3e42c284	0.19019514
187	0xbd5ea4b8	-0.054356307
188	0xbdd18509	-0.102304526
189	0x3e26d38d	0.16291638
190	0xbe4c3dfd	-0.19945522
191	0xbd4c707c	-0.04991196
192	0x3decc210	0.11560452
193	0xbde3695c	-0.1110408
194	0xbd227544	-0.039662614
195	0x3e53cf7c	0.20684618
196	0x3eab8b44	0.3350469
197	0x3e9bc427	0.3042309
198	0x3e92add0	0.28648233
199	0x3d700e9e	0.05860769
200	0xbdd444c3	-0.10364678
201	0xbc23b253	-0.009991246
202	0xbd8b3d9e	-0.06798862
203	0xbe6096d8	-0.21932542
204	0xbdeb8b60	-0.11501193
205	0x3dab0a96	0.083516285
206	0xbdb61691	-0.08891023
207	0xbddf8318	-0.10913676
208	0xbe4fcd78	-0.20293224
209	0x3e551a06	0.20810708
210	0xbe44873c	-0.19192213
211	0xbd295298	-0.041338533
212	0x3e558618	0.20851934
213	0xbe51d500	-0.2049141
214	0x3db05850	0.08610594
215	0x3e269208	0.16266644
216	0xbdec79fc	-0.11546704
217	0xbdf5de20	-0.120052576
218	0xbe6e13e4	-0.23249775
219	0xbe63d742	-0.22250083
220	0xbe58e3e8	-0.2118069
221	0xbe155e12	-0.14586666
222	0x3dc4e354	0.09613672
223	0x3d7b4790	0.061347544

layers.0.bias f4 [14]
0	0xbe529f92	-0.20568684
1	0xbe814ce7	-0.25253984
2	0x3e5e5770	0.21713042
3	0x3c3812d8	0.011234961
4	0xbdc3031c	-0.095220774
5	0xbe53f259	-0.20697917
6	0xbd42499f	-0.04743349
7	0xbe12a656	-0.14321265
8	0x3e68c6c0	0.22732067
9	0xbd7eba2e	-0.062189274
10	0xbdba2673	-0.09089365
11	0x3e54c897	0.20779644
12	0x3e801334	0.2501465
13	0x3e2f29d0	0.17105794

layers.3.weight f4 [14, 14]
0	0x3e50cc94	0.2039054
1	0xbe940e5b	-0.28917202
2	0xbd70928d	-0.05873351
3	0xbe56dcf8	-0.2098273
4	0x3e403e30	0.18773723
5	0x3e2dfafe	0.16990277
6	0x3cf842ef	0.030305354
7	0x3da3cc08	0.079979
8	0x3db2a00c	0.08721933
9	0xbe8bf3eb	-0.27334532
10	0x3e6401a8	0.22266257
11	0xbbb2662d	-0.005444309
12	0xbdfd73f4	-0.12375632
13	0xbd83a406	-0.06427769
14	0x3d13f2a8	0.036120087
15	0x3e1b3801	0.15158083
16	0xbe302a7b	-0.17203705
17	0x3d88869f	0.06666302
18	0x3da32804	0.07966617
19	0x3e31ea82	0.17374614
20	0xbe3c6938	-0.18399513
21	0xbe3f8c8e	-0.18705961
22	0x3d0f9a68	0.035059363
23	0x3dd5ea87	0.10445123
24	0x3ddfd34c	0.109289736
25	0xbd614e30	-0.055006206
26	0xbd986016	-0.07440202
27	0xbe6d0ab7	-0.23148619
28	0xbe106dbb	-0.14104359
29	0xbe47a111	-0.19495036
30	0x3dad7866	0.0847023
31	0xbd6a4061	-0.057190303
32	0x3e0e46ca	0.13894191
33	0x3e7ad6b1	0.24495961
34	0x3e0fd5f1	0.14046456
35	0xbe54eb5c	-0.20792907
36	0xbe52019a	-0.20508423
37	0xbc69b5ea	-0.014264563
38	0x3e7d40ae	0.24731705
39	0x3deb8ab9	0.115010686
40	0x3e548a42	0.20755866
41	0xbd89017a	-0.06689735
42	0xbe049ba6	-0.1295
43	0x3e185509	0.14876188
44	0xbc10bcc9	-0.008834072
45	0xbdddad9e	-0.108241305
46	0xbe3f1484	-0.1866017
47	0x3e866674	0.2625004
48	0x3e47b525	0.19502695
49	0xbe406c0a	-0.18791214
50	0x3e6b3c4a	0.22972217
51	0x3d9f9331	0.077917464
52	0xbdcc3e63	-0.09972837
53	0x3e9ea784	0.3098718
54	0xbd8e9193	-0.0696136
55	0xbe64c29c	-0.22339863
56	0xbe5f0729	-0.21780075
57	0x3df10010	0.1176759
58	0x3ec249d8	0.37946963
59	0x3dda21fb	0.106510125
60	0xbe2def0d	-0.16985722
61	0xbdce6c0d	-0.10079203
62	0xbd82dc38	-0.0638966
63	0x3dbcca98	0.09218329
64	0xbdda576e	-0.10661207
65	0x3e96803b	0.29394707
66	0xbd9e704b	-0.07736262
67	0xbe56451c	-0.209248
68	0xbe3e95e8	-0.18611872
69	0xbc8a24a0	-0.016863167
70	0x3d977610	0.073955655
71	0x3e02e423	0.1278234
72	0x3e5cd81d	0.21566816
73	0x3df48d02	0.119409576
74	0xbc9f3f18	-0.019439265
75	0x3e91fe24	0.28514206
76	0xbca24963	-0.019810384
77	0x3da7101c	0.081573695
78	0x3e163b30	0.14671016
79	0x3e9f97c9	0.3117049
80	0xbe002f7e	-0.12518117
81	0xbe36c072	-0.1784685
82	0x3e04dd7c	0.12975115
83	0xbe7d27da	-0.24722233
84	0x3e820f3b	0.25402245
85	0x3e723763	0.23653941
86	0x3e6e7d85	0.2329007
87	0xbda1b200	-0.07895279
88	0x3df8c140	0.121462345
89	0x3e2062f8	0.15662754
90	0x3d9b76c4	0.07591012
91	0xbdc66b74	-0.09688464
92	0xbe766782	-0.24062923
93	0x3e5944fd	0.21217723
94	0x3b1f5aaf	0.0024315526
95	0x3e1c6dda	0.1527628
96	0x3e05e104	0.13074118
97	0xbe1bbaf8	-0.15208042
98	0x3bc07d00	0.005874276
99	0xbe26d0cb	-0.16290586
100	0xbe4026cf	-0.18764804
101	0xbdfc2d0a	-0.12313278
102	0x3e0130c6	0.12616262
103	0x3d39452b	0.04523198
104	0x3cf48751	0.02984968
105	0x3d2ad6b8	0.041708678
106	0x3e5f7344	0.21821314
107	0xbe6bd3e7	-0.23030053
108	0xbc151304	-0.009098772
109	0xbd91f804	-0.07127383
110	0xbc9f1951	-0.019421251
111	0x3dd11180	0.10208416
112	0xbcd28bd8	-0.025701448
113	0xbd15d66b	-0.036581438
114	0x3ea50688	0.32231545
115	0xbce059de	-0.027386602
116	0x3e83f1fd	0.2577056
117	0x3dfd78c3	0.12376549
118	0x3e0aca6f	0.13553785
119	0xbe1e42b5	-0.15455134
120	0xbe828671	-0.25493196
121	0x3d0f4603	0.034978878
122	0x3de8a4de	0.11359571
123	0x3e0954fb	0.13411324
124	0xbbe14805	-0.0068750405
125	0x3e8480f5	0.25879636
126	0xbd9af628	-0.07566482
127	0x3d7d4625	0.061834473
128	0x3df8e7d1	0.121535905
129	0xbe402759	-0.1876501
130	0xbe54e2bc	-0.20789617
131	0xbc0bc260	-0.008530229
132	0xbdd988b4	-0.10621777
133	0x3e127416	0.14302096
134	0x3df31e80	0.11871052
135	0xbb12eeb4	-0.002242011
136	0xbe97ea9b	-0.29671177
137	0x3e5387d9	0.2065729
138	0x3d5504e4	0.052006617
139	0x3d4a4910	0.049386084
140	0xbe269568	-0.16267931
141	0x3e514912	0.2043803
142	0x3eafd2a0	0.34340382
143	0xbdf75570	-0.12076843
144	0x3e38dd46	0.18053159
145	0x3e71a0aa	0.23596445
146	0xbde825a7	-0.113353066
147	0x3d3042c0	0.043032408
148	0xbda3f5fa	-0.08005901
149	0x3e31fccb	0.17381589
150	0xbd7d2180	-0.061799526
151	0x3c816e7c	0.015799753
152	0x3dd8aae3	0.10579469
153	0xbcc757c8	-0.02433385
154	0x3e05f85c	0.13083023
155	0x3d9d91ab	0.076937996
156	0x3dba3abe	0.090932354
157	0xbd76022c	-0.060060665
158	0xbe40f91e	-0.1884503
159	0x3d3aeffa	0.045639016
160	0x3d856468	0.065132916
161	0x3e81d051	0.25354245
162	0xbe5177b8	-0.20455825
163	0xbe286f50	-0.16448712
164	0xbe586946	-0.21133909
165	0xbc8af318	-0.01696162
166	0xbe9ae274	-0.30250895
167	0xbe004ee6	-0.12530097
168	0x3e316a66	0.17325744
169	0x3d3d578c	0.04622607
170	0x3ed04a22	0.4068156
171	0x3dd08f33	0.10183563
172	0x3e686236	0.22693714
173	0x3bb93221	0.005651728
174	0x3d86542a	0.06559022
175	0x3c1aad00	0.0094406605
176	0xbe3a9516	-0.18220934
177	0xbd1dd473	-0.038532685
178	0xbe492326	-0.19642314
179	0xbe0f26f9	-0.1397971
180	0x3ea0df23	0.3142024
181	0x3e3004b0	0.17189288
182	0x3cf81fe0	0.030288637
183	0xbe561342	-0.20905784
184	0xbd5a35d2	-0.053273983
185	0xbe1221fb	-0.14270775
186	0xbe844447	-0.2583334
187	0xbd091764	-0.033469573
188	0xbcc96207	-0.024582876
189	0x3bd549c0	0.006509036
190	0xbe1670ac	-0.14691418
191	0x3e917b6f	0.28414485
192	0xbe3a60d2	-0.18200997
193	0x3e0e3fde	0.13891551
194	0x3e631e11	0.22179438
195	0x3e59c542	0.21266654

layers.3.bias f4 [14]
0	0x3e282b7c	0.16422838
1	0xbe797ba9	-0.24363579
2	0x3dc5611b	0.09637662
3	0x3e789b5c	0.24278015
4	0x3ead4e2c	0.33848703
5	0x3e426faf	0.18987916
6	0x3e54e405	0.20790108
7	0xbe325d4a	-0.174184
8	0x3e54c96c	0.20779961
9	0x3d6b61cb	0.05746631
10	0x3e78c483	0.24293713
11	0x3e114d81	0.14189722
12	0x3e8a5cc2	0.27023894
13	0x3d7f9aae	0.062403373

layers.6.weight f4 [9, 14]
0	0xb9ded8eb	-0.00042504756
1	0xbe0c093d	-0.13675399
2	0x3e509ec1	0.2037306
3	0x3e89d470	0.2691989
4	0x3e931b31	0.28731683
5	0x3e8228da	0.25421792
6	0x3c4d7028	0.012538947
7	0xbe1fca03	-0.15604405
8	0x3e81d1bf	0.25355336
9	0xbe074504	-0.13209921
10	0x3df1338a	0.117774084
11	0xbd5dc1d3	-0.054139923
12	0x3e6be22d	0.23035498
13	0x3e67725f	0.22602223
14	0xba041c2d	-0.0005039599
15	0x3e7d013f	0.24707507
16	0x3e28e568	0.16493762
17	0x3e54c84f	0.20779537
18	0x3e6e58f7	0.23276125
19	0xbddf1167	-0.10891991
20	0xbe91853b	-0.2842196
21	0x3e6dc220	0.23218584
22	0xbe603b4f	-0.21897624
23	0x3e44884f	0.19192623
24	0x3dfbed0a	0.12301071
25	0x3e6115c1	0.21980955
26	0x3e3ed125	0.1863447
27	0xbe890278	-0.26759696
28	0xbe9510dc	-0.29114425
29	0xbdaef12e	-0.08542095
30	0xba39fb4a	-0.0007094635
31	0xbe4c709b	-0.1996483
32	0x3e64fc88	0.22361958
33	0xbe0cc331	-0.13746335
34	0xbe796c9b	-0.24357836
35	0x3c675f81	0.014121891
36	0xbe8b4560	-0.27201366
37	0x3b14ac70	0.0022685789
38	0xbc83d193	-0.016091144
39	0xbd0faf9b	-0.03507958
40	0xbe6e7ed6	-0.23290572
41	0x3e447fa7	0.1918932
42	0x3d8cee26	0.06881361
43	0xbd481153	-0.048844647
44	0xbc1b50dd	-0.0094797285
45	0xbdfdfc91	-0.12401689
46	0xbcae85e3	-0.021304077
47	0x3e19636c	0.14979333
48	0xbe93de9c	-0.28880775
49	0xbd36df45	-0.04464652
50	0xbe84a915	-0.2591025
51	0x3d22947b	0.039692383
52	0xbdeb9f11	-0.11504949
53	0x3d5e309f	0.054245587
54	0x3e142960	0.14468908
55	0xbe786732	-0.24258116
56	0x3d258bca	0.040416516
57	0xbeac53c8	-0.3365767
58	0xbe0c0fd9	-0.1367792
59	0xbdea4380	-0.11438656
60	0xbdba7818	-0.09104937
61	0xbe227e03	-0.15868382
62	0x39c8c565	0.00038294043
63	0x3d92b4a1	0.071633585
64	0xbebe9114	-0.3722006
65	0xbbc0da86	-0.005885425
66	0xbd540a3d	-0.051767576
67	0x3e13aacb	0.14420621
68	0x3e338918	0.17532766
69	0xbce5de8d	-0.028060222
70	0xbd3c74c3	-0.04600979
71	0x3e41162a	0.18856111
72	0x3e0e397b	0.13889115
73	0xbe2400bb	-0.16015904
74	0x3d393947	0.04522064
75	0x3d53c789	0.051703963
76	0xbde36727	-0.11103659
77	0xbba95ac5	-0.0051682913
78	0x3e0faf4d	0.14031716
79	0xbe0c5000	-0.13702393
80	0xbe7db782	-0.24777034
81	0x3da1fdd1	0.0790974
82	0x3d997580	0.074931145
83	0xbc82a7fc	-0.015949242
84	0xbd3979e8	-0.045282274
85	0x3c447034	0.011989642
86	0xbe58a2b9	-0.21155824
87	0xbde064d2	-0.1095673
88	0xbe986823	-0.2976695
89	0x3e3cfaee	0.18455097
90	0x3d812ab9	0.06306977
91	0xbe62da86	-0.22153673
92	0xbe908683	-0.28227624
93	0xbe67741b	-0.22602884
94	0xbdc49cee	-0.096002445
95	0x3e0733c8	0.13203347
96	0xbe8b7a3a	-0.2724169
97	0xbddd4f11	-0.10806096
98	0x3dde6d0c	0.10860643
99	0xbe16c3a7	-0.14723073
100	0x3e346a0f	0.17618583
101	0xbd4cb126	-0.04997363
102	0x3e37e1e0	0.17957258
103	0xbe13dcf2	-0.14439753
104	0x3d25d20d	0.040483523
105	0xbe93ec18	-0.28891063
106	0xbeafef1c	-0.34362113
107	0x3e3683e6	0.17823753
108	0xbe856569	-0.26053932
109	0x3cb019db	0.021496704
110	0x3d3ecdde	0.04658305
111	0x3dd42298	0.10358161
112	0xbea52ca8	-0.32260633
113	0x3cf4df9f	0.029891787
114	0xbe0ad82c	-0.13559026
115	0x3e2b2756	0.16714224
116	0x3e4a6e2a	0.19768587
117	0x3db5d446	0.088783786
118	0xbe303c5b	-0.17210524
119	0xbe91c494	-0.2847029
120	0xbddd826c	-0.108158916
121	0xbddaf450	-0.1069113
122	0x3dd1714e	0.10226689
123	0xbe3caddd	-0.18425699
124	0xbdc550c9	-0.09634549
125	0xbd7e5d61	-0.06210077

layers.6.bias f4 [9]
0	0xbd457348	-0.048205644
1	0xbe336247	-0.17517959
2	0x3e1b0874	0.15139943
3	0xbe705ada	-0.23472157
4	0xbdfa26b8	-0.12214416
5	0xbe2a5ed1	-0.16637732
6	0x3d35923c	0.044328913
7	0xbe8c454e	-0.27396625
8	0xbe418fa9	-0.18902458
