models/regression/neural_networks/Price_Night/22-02-2023, 20:36:05/model.pt (torch, 10207 bytes, 14 tensors)

layers.0.weight f4 [14, 12]
0	0xbe2004f5	-0.15626891
1	0xbda9d520	-0.082926035
2	0xbe6aac98	-0.22917402
3	0xbe3dc1cf	-0.18530963
4	0x3d860dd0	0.06545603
5	0x3e677ff4	0.22607404
6	0x3e50fc1e	0.20408675
7	0xbe7694b0	-0.24080157
8	0x3e857778	0.2606771
9	0x3e7e2ddc	0.24822181
10	0x3e8a6966	0.27033538
11	0xbe9184b6	-0.28421563
12	0xbe1953d1	-0.1497338
13	0xbceea990	-0.029133588
14	0x3d86b304	0.06577113
15	0xbd92e166	-0.071718976
16	0xbd89a416	-0.0672075
17	0x3cdfc930	0.027317613
18	0xbd2e409c	-0.042542085
19	0xbe04bdd6	-0.12963042
20	0x3ddb7b50	0.10716879
21	0x3e8cd78c	0.275082
22	0x3e8d40b6	0.27588433
23	0x3d735448	0.05940655
24	0xbcaa7520	-0.020807803
25	0x3e569770	0.20956206
26	0xbe80a154	-0.25123084
27	0xbe55f92a	-0.2089583
28	0x3e365272	0.17804888
29	0xbdd21a94	-0.102589756
30	0xbde9f77e	-0.114241585
31	0xbe5760f6	-0.21033081
32	0x3cd491f0	0.025948495
33	0x3e082f9e	0.13299415
34	0xbe36a10a	-0.17834869
35	0xbe6ffd82	-0.2343655
36	0x3bc9a980	0.006154239
37	0x3cdc8410	0.026918441
38	0xbe8ef19b	-0.27918705
39	0xbd331188	-0.04371789
40	0x3e83ece8	0.25766683
41	0x3e4c274c	0.19936866
42	0xbe8e088f	-0.27740905
43	0xbde606f8	-0.11231798
44	0xbdb178d4	-0.08665624
45	0x3e11dbcc	0.14244002
46	0x3e71dea0	0.23620081
47	0x3d606370	0.05478233
48	0x3cfbd570	0.030741423
49	0xbe2f948f	-0.17146514
50	0xbe86c576	-0.26322526
51	0x3e5b7270	0.21430373
52	0x3c9fea20	0.01952082
53	0x3c1f3c40	0.009718955
54	0xbe3b16a4	-0.18270355
55	0xbe645f9e	-0.223021
56	0xbd3a6f6c	-0.045516416
57	0xbd347a90	-0.044062197
58	0x3d2f47e8	0.042793185
59	0x3d882134	0.06646958
60	0xbde55580	-0.111979485
61	0xbdb7d5dc	-0.08976337
62	0xbde611f0	-0.1123389
63	0x3e524faa	0.20538202
64	0xbc913df0	-0.01772973
65	0x3e46b0c0	0.19403362
66	0xbe2e35f4	-0.17012769
67	0xbe6bd217	-0.23029362
68	0xbe8cf093	-0.27527294
69	0x3df049a0	0.11732793
70	0x3e49791a	0.19675103
71	0xbd1e30e0	-0.03862083
72	0x3dc8bc50	0.09801543
73	0x3e001784	0.1250897
74	0x3db04cbc	0.08608386
75	0xbe8a06ca	-0.26958305
76	0xbda25288	-0.07925898
77	0x3dec6e4c	0.11544475
78	0x3e929c0c	0.2863468
79	0xbe0e0c1c	-0.13871807
80	0x3b66b680	0.0035203993
81	0x3e91eb6c	0.28499925
82	0x3e546714	0.20742446
83	0x3e0d52d2	0.13801125
84	0x3d473880	0.048637867
85	0xbbdb92c0	-0.0067008436
86	0x3e49d6e6	0.19710883
87	0xbda0ccf2	-0.0785159
88	0x3e0aa7c0	0.13540554
89	0xbd445a18	-0.047937483
90	0xbddbcf28	-0.10732871
91	0x3e6bdb58	0.23032892
92	0xbd309244	-0.04310824
93	0xbe467a29	-0.19382538
94	0xbde8154a	-0.113321856
95	0xbde6cdfe	-0.11269759
96	0xbe6c01e4	-0.23047596
97	0x3da3dde0	0.08001304
98	0xbe77720f	-0.24164604
99	0x3e172ec0	0.14763927
100	0x3de672b8	0.112523496
101	0xbe08d931	-0.13364102
102	0x3da6d328	0.081457436
103	0x3e580cec	0.2109868
104	0x3dd74100	0.10510445
105	0x3be5bd00	0.007011056
106	0xbd996d32	-0.074915305
107	0x3e933d56	0.28757733
108	0xbe8ecfc4	-0.27892888
109	0xbd0c9e28	-0.034330517
110	0x3d8d05e0	0.06885886
111	0x3d6f8d60	0.058484435
112	0xbe70a604	-0.2350083
113	0xbd1e6420	-0.038669705
114	0x3e579a3e	0.21054932
115	0x3e878870	0.2647128
116	0x3db1c028	0.08679229
117	0x3dfc859c	0.123301715
118	0x3df0c138	0.117556036
119	0xbd39c098	-0.045349687
120	0x3cfa32c0	0.030541778
121	0xbdbfff18	-0.09374827
122	0x3de18dd8	0.11013383
123	0x3d99afbc	0.07504222
124	0x3e816706	0.25273913
125	0x3e5996dc	0.21248955
126	0x3e5f1418	0.21785009
127	0xbdd123ac	-0.10211882
128	0x3e7f9808	0.24960339
129	0x3e2d76e6	0.16939887
130	0xbe827a40	-0.25483894
131	0x3d8480ec	0.064699024
132	0xbe30abba	-0.17253008
133	0xbe838ffa	-0.25695783
134	0xbb4b5080	-0.0031023324
135	0xbe75e85c	-0.2401442
136	0x3cd00830	0.02539453
137	0xbda67da4	-0.08129433
138	0xbdc2849a	-0.09497948
139	0xbdc1bda8	-0.09460002
140	0xbcc221b0	-0.023697704
141	0xbe27f522	-0.16402104
142	0x3e1c3bde	0.15257213
143	0xbe2bef72	-0.1679056
144	0xbdaf50aa	-0.08560307
145	0x3e26de0c	0.16295642
146	0xbe5afb6e	-0.21384975
147	0xbe72c21a	-0.23706856
148	0xbe84215b	-0.25806698
149	0xbd5c5ea8	-0.05380121
150	0xbe459e92	-0.19298771
151	0x3d8ef474	0.069802195
152	0x3e5f91c0	0.21832943
153	0xbe187f91	-0.14892413
154	0xbdb20f68	-0.08694345
155	0xbe7dc68e	-0.24782774
156	0xbd4d92fc	-0.050189003
157	0x3dc1a640	0.09455538
158	0x3cbf4110	0.023346454
159	0x3def379c	0.116805285
160	0x3e69acd0	0.22819829
161	0xbe8261f1	-0.25465348
162	0xbe01304d	-0.12616082
163	0x3e93b7a4	0.28851044
164	0x3d59a7b8	0.053138465
165	0x3e832cee	0.25620216
166	0x3e2a214e	0.16614267
167	0xbe34a9ce	-0.176429

layers.0.bias f4 [14]
0	0x3e8dd81c	0.2770394
1	0x3e67dc5c	0.22642654
2	0xbe6f5b56	-0.23374686
3	0xbe1cf2e3	-0.15327029
4	0x3cdb8bb0	0.026800007
5	0xbd1d0668	-0.038336188
6	0xbd81b914	-0.06334129
7	0xbe3acf4e	-0.18243143
8	0xbe8b3f4f	-0.27196738
9	0x3de670e0	0.11251998
10	0x3baf4680	0.0053489804
11	0xbe6ae06c	-0.22937173
12	0xbcfc7560	-0.030817688
13	0x3e77a4a8	0.24183905

layers.2.weight f4 [14, 14]
0	0x3ce03ff0	0.027374238
1	0xbcb5e3d8	-0.02220337
2	0xbdad9940	-0.08476496
3	0x3e1f8506	0.15578088
4	0xbdcaaed4	-0.09896627
5	0x3d95f13c	0.073214024
6	0xbe291f38	-0.16515815
7	0x3e51ff7e	0.20507619
8	0x3e250caa	0.16118112
9	0xbe568d73	-0.20952396
10	0x3dd02a64	0.10164335
11	0x3cd4fba0	0.02599889
12	0xbe88cca6	-0.26718634
13	0x3db95788	0.090498984
14	0x3e02bf3e	0.12768266
15	0xbe21e99a	-0.15811768
16	0x3d8c5ce8	0.06853658
17	0x3e83342b	0.25625739
18	0x3ddc2678	0.10749525
19	0xbd8785ea	-0.06617339
20	0x3da5030c	0.08057222
21	0x3de38b58	0.11110562
22	0xbe8476e6	-0.25871962
23	0xbe7ad382	-0.24494746
24	0xbe4c5f7e	-0.19958302
25	0x3e82090f	0.25397536
26	0x3dd98a80	0.1062212
27	0x3e17d0e4	0.14825779
28	0xbe7fb2cb	-0.24970548
29	0x3e64ac78	0.22331417
30	0x3e71d472	0.23616198
31	0xbe656d10	-0.22404885
32	0xbd655d08	-0.055996925
33	0xbe5cb73a	-0.2155427
34	0x3e0995dc	0.13436073
35	0xbd6b5510	-0.05745417
36	0x3e27ac36	0.16374287
37	0xbb87f500	-0.0041490793
38	0x3e7aaea6	0.24480686
39	0x3cb6fd70	0.022337645
40	0x3cdce280	0.026963472
41	0x3e6083b4	0.21925241
42	0xbe58cf2b	-0.21172778
43	0x3e83ca95	0.25740495
44	0x3e31335e	0.17304751
45	0xbe12e526	-0.14345226
46	0xbdcd1ef4	-0.100156695
47	0xbe803266	-0.2503845
48	0xbe1400a2	-0.14453366
49	0xbe02f9e9	-0.12790646
50	0xbdaba73a	-0.08381505
51	0x3e24c478	0.16090572
52	0xbb80e040	-0.0039329827
53	0xbde0498e	-0.109515294
54	0x3e51a570	0.20473266
55	0xbdb44548	-0.08802277
56	0x3e156ffe	0.14593503
57	0x3d38bd48	0.045102388
58	0x3db607c4	0.088882
59	0x3dadf0d4	0.084932
60	0x3da152c0	0.078771114
61	0xbdfdc53e	-0.123911366
62	0xbe55ce84	-0.2087956
63	0xbe85a088	-0.26099038
64	0xbda9fd1c	-0.0830023
65	0x3d6a1638	0.057150096
66	0x3e50cbb0	0.203902
67	0x3e2d209c	0.1690697
68	0xbe3fbbc3	-0.18723969
69	0xbda1d51e	-0.07901977
70	0xbe1da16e	-0.15393612
71	0x3e228924	0.15872627
72	0x3e2f4fa4	0.17120224
73	0xbe3b5144	-0.18292719
74	0x3df75f34	0.120787054
75	0x3d2fbf00	0.04290676
76	0x3da71028	0.081573784
77	0xbe4530d0	-0.19256902
78	0xbe119939	-0.14218606
79	0x3e610264	0.21973568
80	0x3de532e8	0.1119135
81	0x3ddd9abc	0.10820529
82	0xbe1a3535	-0.1505936
83	0x3bed7c40	0.007247478
84	0x3e211a02	0.15732577
85	0xbe68f96d	-0.22751398
86	0x3e5ca35a	0.21546689
87	0x3d459438	0.048237056
88	0x3dee4048	0.116333544
89	0x3a35bc00	0.0006932616
90	0x3df21cf0	0.11821926
91	0xbd8c52ea	-0.06851752
92	0x3db28cb0	0.0871824
93	0xbc1228a0	-0.008920819
94	0xbdfd6e22	-0.12374522
95	0xbe09a652	-0.13442352
96	0x3e7fbe7e	0.24975011
97	0x3e055fd2	0.13024834
98	0xbe5b7129	-0.21429886
99	0xbe0f74e0	-0.14009428
100	0xbd5147ec	-0.05109398
101	0xbe12c984	-0.14334685
102	0x3d802eb8	0.06258911
103	0x3e459a18	0.19297063
104	0xbe7afbf9	-0.24510182
105	0x3e1b06c6	0.15139303
106	0x3d3cde78	0.0461106
107	0xbe079157	-0.13239037
108	0xbe456938	-0.19278419
109	0x3d97e520	0.07416749
110	0xbe4916ce	-0.19637606
111	0x3e0fac48	0.14030564
112	0xbe28fdc7	-0.16503058
113	0xbcf53e10	-0.02993682
114	0x3e57de7c	0.21080965
115	0xbdabc48e	-0.08387099
116	0x3cf8b8b0	0.030361503
117	0x3e1663c6	0.14686498
118	0xbe81af8d	-0.25329247
119	0x3e5c197c	0.21494097
120	0xbe83ff6d	-0.25780812
121	0x3e450e42	0.1924372
122	0xbe312206	-0.17298135
123	0xbe010e33	-0.12603073
124	0x3e1c94e8	0.15291178
125	0xbdd44ca4	-0.103661805
126	0x3e856b9b	0.2605866
127	0x3d5155d0	0.051107228
128	0x3e3c3574	0.18379766
129	0x3e81f811	0.25384572
130	0xbe5a83b3	-0.21339302
131	0xbd6fc004	-0.05853273
132	0x3e23318c	0.1593687
133	0xbd957290	-0.07297242
134	0xbd141320	-0.03615105
135	0xbc31cbe0	-0.01085183
136	0xbe3cb364	-0.18427807
137	0x3db3ca0c	0.08778772
138	0x3d24b3a8	0.040210396
139	0xbe40ede0	-0.18840742
140	0xbe2cff51	-0.1689427
141	0xbe736fba	-0.23773089
142	0xbbbed4c0	-0.0058237016
143	0xbe47b726	-0.1950346
144	0x3c4bc7e0	0.012437791
145	0xbcc14df8	-0.023596749
146	0xbc427fe0	-0.011871308
147	0xbe0b5e50	-0.13610196
148	0xbd431884	-0.0476308
149	0xbc8afcd0	-0.016966254
150	0xbe2f1c98	-0.17100751
151	0x3bc019c0	0.0058624446
152	0x3b0ef900	0.0021815896
153	0xbe7a949c	-0.24470752
154	0x3ca58490	0.020204812
155	0x3d14c3f8	0.036319703
156	0x3e1660f8	0.14685428
157	0xbde2a174	-0.11065951
158	0xbe7b6c30	-0.24552989
159	0x3e5de42c	0.21669072
160	0xbe582862	-0.21109155
161	0xbdacb1e2	-0.08432366
162	0xbd92dd1c	-0.071710795
163	0x3e58ff3c	0.21191114
164	0xbe3fc873	-0.18728809
165	0x3aee2900	0.0018170178
166	0x3df3ca68	0.1190384
167	0x3e247df6	0.16063675
168	0xbd111f58	-0.035430282
169	0x3e00a8a8	0.12564337
170	0x3e7b2c22	0.24528554
171	0x3e2fdd2c	0.17174214
172	0xbe42ff2c	-0.19042653
173	0xbd8d0102	-0.06884958
174	0xbe40e9a6	-0.1883913
175	0x3cff56a0	0.031169236
176	0x3e01b93c	0.12668318
177	0xbe3ea6ea	-0.1861836
178	0xbe7726a0	-0.24135828
179	0xbe7dc598	-0.24782407
180	0xbe7fa849	-0.2496654
181	0xbc1cc600	-0.009568691
182	0x3e16e13c	0.14734358
183	0x3dac2c54	0.084068924
184	0x3e512a0a	0.20426193
185	0x3e03ac3c	0.12858671
186	0xbe840232	-0.25782925
187	0x3e809caf	0.2511954
188	0xbe1acc3e	-0.15116975
189	0xbe7bd63c	-0.24593443
190	0x3d61d2d8	0.055132717
191	0xbdb09ee8	-0.08624059
192	0xbc2545c0	-0.0100874305
193	0x3e21d314	0.15803176
194	0xbdd6a2f4	-0.104802996
195	0x3e54d9d4	0.2078622

layers.2.bias f4 [14]
0	0x3e6c1708	0.2305566
1	0x3cf27080	0.02959466
2	0xbd097bb4	-0.033565238
3	0x3e21b70c	0.15792483
4	0xbb9a5f00	-0.004711032
5	0xbd1785f8	-0.036992997
6	0x3c0cc140	0.008590996
7	0x3e41e272	0.18934038
8	0xbe0e060d	-0.13869496
9	0xbd5a452c	-0.053288624
10	0xbe87fc52	-0.26559693
11	0xbe7c4812	-0.24636868
12	0x3da24e5c	0.07925102
13	0xbd9a621c	-0.07538244

layers.4.weight f4 [14, 14]
0	0xbdf56502	-0.11982156
1	0x3e0abf9c	0.13549656
2	0x3e646052	0.22302368
3	0xbd501000	-0.05079651
4	0x3dc6db84	0.09709838
5	0xbda638a2	-0.081162706
6	0x3d925f1c	0.07147047
7	0x3e1f21b2	0.15540197
8	0xbd563900	-0.052300453
9	0x3dec26a4	0.115308076
10	0x3df0a2a8	0.11749774
11	0xbe02f52f	-0.12788843
12	0xbe496fc2	-0.19671538
13	0xbe24a646	-0.16079053
14	0x3ccff0c0	0.025383353
15	0x3e5c9696	0.21541819
16	0x3d9a7868	0.07542497
17	0xbd49d284	-0.04927303
18	0xbe7d2c98	-0.24724042
19	0x3dd4e17c	0.1039457
20	0x3e0c9122	0.13727239
21	0x3df13e40	0.11779451
22	0x3e3f022a	0.1865317
23	0x3e6a8006	0.229004
24	0xbe2b2cb0	-0.16716266
25	0xbe27ca84	-0.16385847
26	0xba355c00	-0.0006918311
27	0xbe85e8cc	-0.26154172
28	0x3e00ba9e	0.12571189
29	0x3e34e5b0	0.17665744
30	0xbd285aa4	-0.041102067
31	0x3e60016c	0.21875542
32	0xbe6d2c64	-0.23161465
33	0x3e8477a3	0.25872526
34	0xbd75310c	-0.059861228
35	0xbe37fc8f	-0.17967437
36	0xbd883a08	-0.066516936
37	0x3e654b12	0.22391918
38	0xbe09d931	-0.13461758
39	0x3b8e9700	0.0043514967
40	0xbe054b50	-0.1301701
41	0xbe342af4	-0.1759451
42	0x3e49a36c	0.19691247
43	0x3ddcf3e4	0.10788706
44	0xbcb106d0	-0.021609694
45	0x3e8144a7	0.2524769
46	0xbdaf7bec	-0.08568558
47	0x3e3ec35c	0.18629211
48	0xbe58ad22	-0.21159795
49	0x3cfb39c0	0.030667186
50	0x3e34c684	0.17653853
51	0x3e42f2b4	0.19037896
52	0x3e3db42c	0.18525761
53	0xbdba85d8	-0.0910756
54	0x3e1426f4	0.14467984
55	0xbe829043	-0.25500688
56	0xbd12568c	-0.03572707
57	0xbdd6a38e	-0.10480414
58	0xbe7984ec	-0.24367112
59	0x3afd8a00	0.0019343495
60	0xbdf32e8c	-0.118741125
61	0xbded7fa4	-0.11596611
62	0xbd800c18	-0.06252307
63	0x3dad9884	0.08476356
64	0x3e154d46	0.14580259
65	0x3d82bd60	0.06383777
66	0x3d94db34	0.07268372
67	0xbdb32c60	-0.08748698
68	0x3e11c9da	0.14237157
69	0x3dfe44fc	0.124155015
70	0xbdb1b9d2	-0.086780205
71	0x3d340bf0	0.043956697
72	0xbdf6609e	-0.12030147
73	0xbe0b50c0	-0.13605022
74	0xbc13bf40	-0.0090177655
75	0xbe8299b9	-0.25507906
76	0xbe0715e0	-0.13191938
77	0xbe1ba413	-0.15199308
78	0x3e7e47e6	0.24832115
79	0xbe67448b	-0.22584741
80	0xbe6f59b2	-0.2337406
81	0xbe0c4337	-0.13697515
82	0xbe81bb9a	-0.2533844
83	0xbe103aef	-0.14084981
84	0xbe53bc9b	-0.20677416
85	0x3c8c54e0	0.017130315
86	0x3d0bc810	0.03412634
87	0x3e491514	0.19636947
88	0x3dc1fb50	0.09471762
89	0xbe10f5e4	-0.141563
90	0xbddce5d6	-0.10786025
91	0x3e696ba4	0.22794968
92	0xbcde5b90	-0.02714327
93	0x3e77db42	0.24204734
94	0xbc051a60	-0.008123964
95	0x3dfe2a9c	0.12410471
96	0xbd99a086	-0.075013205
97	0xbe052f87	-0.13006411
98	0xbe837424	-0.25674546
99	0x3db00448	0.085945666
100	0x3cc05990	0.023480207
101	0xbe3c197a	-0.18369094
102	0x3df3fc8c	0.11913404
103	0xbe55524c	-0.20832175
104	0xbe38de9a	-0.18053666
105	0x3db85dd4	0.09002271
106	0xbe228596	-0.15871271
107	0x3e80f6c1	0.25188258
108	0x3e2def46	0.16985807
109	0x3e510a58	0.20414102
110	0xbe725255	-0.2366422
111	0x3d3b5a38	0.045740336
112	0xbe4afd06	-0.19823083
113	0x3d3e2d10	0.046429694
114	0xbe8728b1	-0.26398233
115	0xbe30963e	-0.17244813
116	0xbe116a5a	-0.14200726
117	0xbd527d70	-0.051389158
118	0xbe883636	-0.2660386
119	0xbe8790a6	-0.26477545
120	0xbe535475	-0.20637687
121	0x3d612058	0.054962486
122	0x3c5713c0	0.013127267
123	0x3d508a68	0.050913244
124	0x3e5cf184	0.21576506
125	0x3e50bb8a	0.2038404
126	0x3e3c3a88	0.18381703
127	0xbddad644	-0.10685399
128	0x3e51fb36	0.20505986
129	0x3d176588	0.036962062
130	0x3de29d08	0.110651076
131	0xbe8752d2	-0.26430374
132	0xbe16df0c	-0.14733523
133	0xbe188c2e	-0.14897224
134	0x3d5b0658	0.053472847
135	0xbe82f677	-0.25578663
136	0xbe26c1f8	-0.1628493
137	0xbe20a2ad	-0.15687056
138	0xbe1ca79c	-0.15298313
139	0x3e833063	0.25622854
140	0x3e786a02	0.24259189
141	0xbdb34878	-0.08754057
142	0x3dd62c54	0.10457674
143	0x3dba5eac	0.091000885
144	0xbe53b9c6	-0.20676336
145	0xbd8b0234	-0.067875296
146	0xbbd342c0	-0.006447166
147	0x3e7f6316	0.24940142
148	0x3e861a7d	0.26192084
149	0xbd8bbd92	-0.06823267
150	0x3e67d538	0.2263993
151	0xbde9356e	-0.11387144
152	0xbe46953b	-0.19392864
153	0xbe0d9a03	-0.13828282
154	0xbe2ba4c1	-0.16762067
155	0xbe8383f0	-0.25686598
156	0x3e80899f	0.25104997
157	0x3e78cb3a	0.24296275
158	0xbe66dbe9	-0.22544827
159	0x3e6a54d6	0.22883925
160	0x3e59661e	0.21230361
161	0x3ac7a600	0.0015231967
162	0x3e33361c	0.1750111
163	0xbe865670	-0.26237822
164	0xbd7c4bc8	-0.061595708
165	0x3caf6450	0.021410137
166	0x3cf41730	0.029796213
167	0xbe4e02f0	-0.20118308
168	0xbe594ae2	-0.21219972
169	0x3e022928	0.12711012
170	0xbe069845	-0.13144024
171	0xbe1fde97	-0.15612255
172	0x3e081690	0.13289857
173	0xbe8458ba	-0.25848943
174	0x3dbff1b0	0.0937227
175	0x3e1170b0	0.14203143
176	0x3ba82480	0.0051313043
177	0x3c1c8460	0.009553045
178	0x3c886e40	0.016654134
179	0xbe66bf35	-0.22533877
180	0xbd4d05f8	-0.05005452
181	0xbe1eb9b0	-0.15500522
182	0xbd354848	-0.044258386
183	0xbe880b77	-0.26571247
184	0x3d91f088	0.07125956
185	0x3e3f160e	0.18660757
186	0x3d794890	0.060860217
187	0xbddbc0c0	-0.107301235
188	0xbcc2f048	-0.023796216
189	0x3e36b8a0	0.17843866
190	0xbe804a18	-0.2505653
191	0x3dbe5790	0.09294045
192	0x3e739322	0.23786595
193	0x3d8edecc	0.06976089
194	0x3dd600d4	0.10449377
195	0x3d4ba7d0	0.049720585

layers.4.bias f4 [14]
0	0xbe7e6a98	-0.2484535
1	0x3be9bb80	0.0071329474
2	0xbe372952	-0.17886856
3	0xbe6ede2e	-0.23326942
4	0xbe4afa08	-0.19821942
5	0xbc71b640	-0.014752924
6	0x3e7fd31e	0.24982879
7	0x3e194b0e	0.14970037
8	0xbe66f672	-0.22554949
9	0xbda2c55a	-0.07947798
10	0x3e05ad60	0.13054419
11	0x3e74154a	0.23836246
12	0x3e36838e	0.17823622
13	0xbd6259d8	-0.055261463

layers.6.weight f4 [14, 14]
0	0xbe7a89c9	-0.24466623
1	0x3e5e6886	0.2171956
2	0xbe58726e	-0.21137401
3	0x3e6a1ee4	0.22863346
4	0xbe1ccca2	-0.15312436
5	0x3e808f1d	0.25109187
6	0xbe5d8c9e	-0.21635672
7	0x3d98d068	0.07461625
8	0xbe865891	-0.26239446
9	0xbd994876	-0.07484524
10	0xbdf68842	-0.12037708
11	0xbddfc6fa	-0.10926624
12	0xbe39b172	-0.18134096
13	0xbdb98694	-0.09058872
14	0xbe4755ef	-0.19466375
15	0xbd9af7d8	-0.07566804
16	0xbda0b970	-0.078478694
17	0x3e542e7c	0.20720857
18	0x3adf0000	0.001701355
19	0x3e24ba46	0.16086683
20	0xbd6b13b8	-0.057391852
21	0xbe2eeeec	-0.17083329
22	0x3de38c58	0.11110753
23	0x3df8b194	0.12143245
24	0xbe810361	-0.2519789
25	0xbe265dfe	-0.16246793
26	0x3e520610	0.20510125
27	0xbdba17ea	-0.090865925
28	0xbd7344a4	-0.059391633
29	0xbe76fac7	-0.24119101
30	0x3e40b7ea	0.18820158
31	0xbe8534ca	-0.26016837
32	0x3e0a1884	0.13485914
33	0xbe16eef6	-0.14739594
34	0x3d70e640	0.058813334
35	0x3e849fd1	0.2590318
36	0x3e7668d6	0.24063429
37	0x3db8a848	0.09016472
38	0xbcc26c20	-0.023733199
39	0xbd3c1b90	-0.045924723
40	0x3e00e0f6	0.12585816
41	0x3d097300	0.03355694
42	0xbd11c640	-0.035589457
43	0xbd2dc878	-0.04242751
44	0x3e43bf10	0.19115853
45	0xbde7b080	-0.113129616
46	0x3c767620	0.015042812
47	0x3e5edd32	0.21764067
48	0xbe8754c9	-0.26431873
49	0x3df80ff4	0.12112418
50	0xbdfaa712	-0.122388974
51	0x3e394a1a	0.18094674
52	0xbd4b8424	-0.049686566
53	0xbdcfa654	-0.101391464
54	0xbd9bdc9a	-0.07610436
55	0x3e845209	0.25843838
56	0xbe11a736	-0.14223942
57	0xbe4d697a	-0.20059767
58	0xbdd91c50	-0.10601103
59	0xbe55e506	-0.20888147
60	0x3df71198	0.120639026
61	0x3e4cfc9a	0.20018235
62	0x3e3ad032	0.18243483
63	0xbd3d185c	-0.04616581
64	0x3db25788	0.087081015
65	0xbcfea428	-0.031084135
66	0xbd197ed0	-0.037474453
67	0xbdee3ae8	-0.11632329
68	0x3c923790	0.01784876
69	0xbe776dce	-0.24162981
70	0x3e49b7d0	0.19699025
71	0xbe3ccde9	-0.18437923
72	0x3e1cbee2	0.15307191
73	0x3c90d990	0.017681867
74	0x3e85f55b	0.26163754
75	0xbe32efc0	-0.1747427
76	0xbe1ff710	-0.1562159
77	0xbd455adc	-0.048182353
78	0xbe727064	-0.23675686
79	0xbe05edeb	-0.1307904
80	0x3e6cd6c2	0.23128799
81	0x3d19f198	0.037583917
82	0xbe12b676	-0.14327416
83	0xbda1ae36	-0.07894556
84	0xbe81a2db	-0.2531956
85	0xbe541844	-0.20712382
86	0x3e415c24	0.18882805
87	0xbddf188e	-0.10893355
88	0xbd89121e	-0.06692909
89	0xbe2b47ec	-0.16726655
90	0x3d66d8e8	0.0563592
91	0x3e532ca4	0.20622498
92	0xbe8231d0	-0.2542863
93	0x3e55d698	0.20882642
94	0xbdf523ae	-0.11969696
95	0xbd762574	-0.06009431
96	0x3e83eb5d	0.25765505
97	0xbe4c7d72	-0.19969729
98	0xbb6e9f00	-0.003641069
99	0x3df7ed70	0.121058345
100	0x3cd3b1e0	0.025841653
101	0xbe483dac	-0.19554776
102	0xbda8ab6a	-0.0823582
103	0xbdbefb6a	-0.09325297
104	0x3e18da32	0.14926985
105	0xbe446171	-0.19177796
106	0x3e0d5760	0.13802862
107	0x3d53cf30	0.05171126
108	0x3e8898a1	0.26678947
109	0x3e35a4b6	0.17738613
110	0xbe64237d	-0.22279163
111	0x3e7ae552	0.24501541
112	0x3dcb1268	0.0991562
113	0xbe0202af	-0.12696336
114	0x3e48a8f6	0.19595703
115	0x3e5bf672	0.2148073
116	0x3d04d6a8	0.032431275
117	0x3e689f80	0.22717094
118	0xbe38d68b	-0.18050592
119	0xbd988dfc	-0.07448956
120	0x3e883383	0.266018
121	0xbe513d00	-0.20433426
122	0x3e6c36e6	0.23067817
123	0xbe432d9a	-0.19060364
124	0x3d28d078	0.041214436
125	0xbdfe38a2	-0.124131456
126	0x3e0e405c	0.13891739
127	0x3e84e811	0.25958303
128	0x3e24dd72	0.161001
129	0xbe29f129	-0.16595902
130	0x3e4556ca	0.19271389
131	0xbe51fb28	-0.20505965
132	0xbde3a762	-0.1111591
133	0x3d867fb8	0.06567329
134	0x3dfea030	0.12432897
135	0x3e6fa916	0.23404345
136	0x3db2a680	0.087231636
137	0xbdb3aa02	-0.08772661
138	0xbe81bdd8	-0.25340152
139	0xbd056108	-0.03256324
140	0x3e32b81a	0.17453042
141	0xb8d5c000	-0.00010192394
142	0x3dd4c6b8	0.10389465
143	0x3e4f4358	0.20240533
144	0xbe00a003	-0.1256104
145	0xbe1c1c22	-0.15245107
146	0xbc5dbc40	-0.013533652
147	0xbe4401cc	-0.1914131
148	0x3e39fabe	0.18162057
149	0x3e177176	0.14789376
150	0x3d6811a8	0.056657463
151	0x3e71789e	0.23581168
152	0xbe38b978	-0.180395
153	0xbda560ca	-0.08075102
154	0xbde72c46	-0.11287741
155	0x3e25804c	0.16162223
156	0xbdf6a860	-0.12043834
157	0xbe1af274	-0.15131551
158	0x3dc2bd20	0.09508729
159	0xbe513f3a	-0.20434275
160	0x3e2f57ee	0.17123386
161	0x3cc1c7d0	0.023654848
162	0xbe78384c	-0.24240226
163	0xbe5d3312	-0.21601513
164	0x3e64c732	0.22341612
165	0x3d99b724	0.075056344
166	0xbdb4016e	-0.08789335
167	0xbe4c3bdb	-0.19944708
168	0x3d0e7780	0.034781933
169	0xbe301eae	-0.17199203
170	0x3da4ae54	0.08041063
171	0x3e2eb13a	0.17059794
172	0xbe829a8a	-0.2550853
173	0xbe804ab5	-0.25056997
174	0xbc65cc20	-0.014025718
175	0xbe71e6af	-0.23623155
176	0xbd06ba20	-0.032892346
177	0xbdeda9e4	-0.1160467
178	0xbe86001f	-0.26171967
179	0xbe02a1e6	-0.12757072
180	0xbca42928	-0.020039156
181	0x3ce92510	0.028460056
182	0xbe228844	-0.15872294
183	0xbe2905a3	-0.16506056
184	0xbdc58d5c	-0.09646103
185	0x3da90038	0.08251995
186	0x3e0a0870	0.13479781
187	0x3c040160	0.008056968
188	0xbcf120e0	-0.029434621
189	0xbd634038	-0.055481166
190	0xbe5721aa	-0.21008936
191	0x3e4906a0	0.19631433
192	0xbe3e6f04	-0.18597037
193	0x3e02b0ca	0.12762752
194	0xbbffc380	-0.007805288
195	0xbe05e1ef	-0.13074468

layers.6.bias f4 [14]
0	0xbe5fb6d4	-0.21847087
1	0x3dad4400	0.084602356
2	0xbdafcc40	-0.085838795
3	0x3da7d098	0.08194083
4	0x3e853b1d	0.26021662
5	0x3cfc7660	0.030818164
6	0x3df6bf7c	0.120482415
7	0x3e2782c2	0.16358474
8	0x3e2ca4a0	0.16859674
9	0xbceca660	-0.028887928
10	0xbd369094	-0.044571474
11	0x3db42fe0	0.08798194
12	0x3cf5b490	0.029993325
13	0xbd6ffa3c	-0.05858825

layers.8.weight f4 [14, 14]
0	0xbe889356	-0.26674908
1	0x3dfc3a7c	0.123158425
2	0x3e710f1e	0.23540923
3	0xbe4fa135	-0.2027634
4	0xbc36ad00	-0.011149645
5	0x3e206504	0.15663534
6	0xbbe7a140	-0.007068783
7	0x3e78155a	0.24226895
8	0xbd7f9150	-0.06239444
9	0x3e4c8c5e	0.19975421
10	0x3cc574f0	0.024103612
11	0x3e83c0c3	0.25733003
12	0x3e47901c	0.19488567
13	0xbd3dd998	-0.04635009
14	0xbe67dec3	-0.2264357
15	0x3e070942	0.13187125
16	0x3df5106c	0.11966023
17	0x3dd4295c	0.10359451
18	0xbdac4532	-0.084116355
19	0x3e0c976e	0.13729641
20	0xbc3007a0	-0.010744005
21	0x3e48ac08	0.19596875
22	0x3e09b8b8	0.13449371
23	0x3de0b3ec	0.109718174
24	0x3d8b911c	0.06814787
25	0x3d844858	0.06459111
26	0xbe3ed1ed	-0.18634768
27	0x3dc04cb8	0.09389633
28	0xbdca0c00	-0.0986557
29	0x3e4e810a	0.20166412
30	0x3d919740	0.07108927
31	0x3b42f780	0.0029749572
32	0xbe2e5454	-0.17024356
33	0x3bc63600	0.006048918
34	0x3e5893cc	0.2115013
35	0x3e2bdbc8	0.16783059
36	0x3e79653e	0.24355027
37	0xbe059a9d	-0.13047262
38	0xbde01434	-0.109413534
39	0x3c86c3d0	0.016450793
40	0xbe6af54a	-0.22945133
41	0xbe3873e8	-0.18012965
42	0xbdaf9f0e	-0.08575259
43	0x3e5fe186	0.21863374
44	0xbca28248	-0.019837514
45	0xbd1755a0	-0.036946893
46	0xbe458046	-0.19287214
47	0x39bdd000	0.0003620386
48	0x3e60644a	0.21913257
49	0xbd082fec	-0.033248827
50	0x3c1d3ee0	0.00959751
51	0x3e4177e8	0.18893397
52	0xbe77faf6	-0.24216828
53	0xbe611ae2	-0.21982911
54	0xbe22938a	-0.15876594
55	0xbd85356e	-0.065043315
56	0x3e86433d	0.26223174
57	0xbe4d3a6a	-0.20041814
58	0xbd45bc6c	-0.048275396
59	0xbe539fb7	-0.20666395
60	0xbe477eba	-0.19481936
61	0x3e38aeb2	0.18035391
62	0xbe030ab9	-0.12797059
63	0xbe0a95d2	-0.13533714
64	0x3e354402	0.17701724
65	0xbd2546a8	-0.040350586
66	0xbe6b96d2	-0.23006752
67	0x3d33c008	0.043884307
68	0x3e28df20	0.16491365
69	0x3e05b98a	0.13059059
70	0x3d8ef5e0	0.06980491
71	0x3dbc13e0	0.09183478
72	0xbdc482cc	-0.0959526
73	0x3bcb6a00	0.0062077045
74	0x3e6c6e1a	0.23088875
75	0x3cc7dfd0	0.024398714
76	0xbe53325f	-0.20624684
77	0x3e7d8376	0.2475718
78	0x3d5da560	0.054112792
79	0x3e7f28a6	0.2491785
80	0x3e525124	0.20538765
81	0x3e6ee59a	0.23329774
82	0x3c602b00	0.013682127
83	0x3de80378	0.113287866
84	0xbe6649fa	-0.22489157
85	0xbe18728a	-0.14887443
86	0x3e72000e	0.23632833
87	0x3e34dc36	0.17662129
88	0x3e656532	0.22401884
89	0x3d76f590	0.06029278
90	0x3e41ec5e	0.18937823
91	0x3e425356	0.18977103
92	0x3dd24854	0.10267702
93	0x3e6e5e96	0.23278269
94	0xbda2285a	-0.07917853
95	0xbd9b30ae	-0.07577644
96	0xbe55d318	-0.20881307
97	0xbe31699e	-0.17325446
98	0x3e88c33d	0.26711455
99	0xbe72b7c6	-0.23702917
100	0x3e52922c	0.20563573
101	0x3dc09358	0.094031036
102	0x3e554102	0.2082558
103	0xbe744102	-0.23852924
104	0xbdfbb9cc	-0.12291297
105	0x3e129eea	0.14318433
106	0xbe852d2e	-0.26011032
107	0x3e393816	0.18087801
108	0x3e7996fe	0.24374005
109	0x3e5db336	0.21650395
110	0xbd5c9bd8	-0.05385956
111	0xbe09b9b6	-0.1344975
112	0x3d881efc	0.06646535
113	0xbde6d28e	-0.11270629
114	0x3dd4bc30	0.103874564
115	0x3e4d05b8	0.20021713
116	0x3d0ff100	0.035141945
117	0xbe136a14	-0.14395934
118	0x3e46ac1c	0.19401592
119	0x3e63ddb0	0.22252536
120	0x3d9c9924	0.07646397
121	0xbda1799c	-0.07884523
122	0xbe840596	-0.25785512
123	0x3e1d4fe6	0.1536251
124	0xbe60245e	-0.21888873
125	0x3e4e0b4e	0.201215
126	0xbe42a8f4	-0.19009763
127	0xbd8b51e0	-0.06802726
128	0xbdb47b4a	-0.08812578
129	0xbe5455ca	-0.20735851
130	0xbe25ead6	-0.16202864
131	0x3da4db78	0.08049673
132	0x3e73905a	0.23785535
133	0x3e3c6f00	0.18401718
134	0x3e31a8aa	0.17349496
135	0x3cf00cb0	0.029302925
136	0xbe62ae8c	-0.22136897
137	0x3dd8e3b4	0.10590306
138	0xbd329bec	-0.04360573
139	0x3d5d0620	0.05396092
140	0xbe6fefc6	-0.2343131
141	0xbe4cdcbe	-0.20006081
142	0xbe6bc3fd	-0.23023982
143	0xbe270cb4	-0.1631344
144	0x3e3fd9e2	0.1873546
145	0x3e44e8c2	0.19229415
146	0x3e6dc3d4	0.23219234
147	0x3d891234	0.06692925
148	0x3e823993	0.2543455
149	0xbd75e71c	-0.060034856
150	0x3e4639e0	0.19358015
151	0xbd5867a4	-0.052833214
152	0x3cd140d0	0.0255436
153	0x3db1293c	0.08650443
154	0xbccc2458	-0.024919674
155	0x3e5d16f2	0.21590784
156	0xbcf2b828	-0.029628828
157	0xbc471a00	-0.012152195
158	0x3e0b4336	0.13599858
159	0x3e0ec258	0.13941324
160	0xbe363440	-0.1779337
161	0x3e6f3876	0.23361382
162	0xbdfde1fa	-0.12396617
163	0xbd9aefb0	-0.07565248
164	0x3d81ec7c	0.06343934
165	0xbe09eda5	-0.1346956
166	0x3e81a17d	0.25318518
167	0x3e09297a	0.13394728
168	0x3ca08bc0	0.019597888
169	0xbdf32f5e	-0.11874269
170	0xbdefdcfa	-0.1171207
171	0xbe82ccca	-0.25546867
172	0x3e052f32	0.13006285
173	0x3e8100ed	0.2519602
174	0x3e81938b	0.2530788
175	0xbdf67508	-0.12034041
176	0x3d628618	0.055303663
177	0x3e66b4a2	0.22529843
178	0x3bfe3340	0.0077575743
179	0xbe71114f	-0.23541759
180	0x3dcdbda8	0.1004594
181	0xbe6906aa	-0.22756448
182	0xbe6a4778	-0.22878826
183	0xbe67085c	-0.22561783
184	0xbe211c10	-0.15733361
185	0x3daeadd0	0.08529246
186	0xbdfdefb8	-0.12399238
187	0xbcd5e418	-0.02610974
188	0xbe11a9aa	-0.14224878
189	0x3d86bddc	0.065791816
190	0xbe201e1c	-0.15636486
191	0xbd2e3fe0	-0.042541385
192	0xbdd99002	-0.106231704
193	0x3c7bd8e0	0.015371531
194	0xbd59b0b8	-0.053147048
195	0xbe023e0f	-0.12718986

layers.8.bias f4 [14]
0	0x3d1e52c8	0.038653165
1	0x3cc18aa0	0.023625672
2	0x3e88d597	0.26725456
3	0x3e4b37e0	0.19845533
4	0x3e2e560a	0.17025009
5	0xbdfa7ed8	-0.12231225
6	0xbd800d06	-0.06252484
7	0x3e752856	0.23941168
8	0xbe3901c8	-0.18067086
9	0x3e00d28e	0.1258032
10	0xbe18cdb5	-0.14922221
11	0xbe7718b3	-0.24130516
12	0xbda17e8a	-0.078854635
13	0x3e4d3c6a	0.20042577

layers.10.weight f4 [1, 14]
0	0x3d4a9e60	0.049467444
1	0xbe2f3c73	-0.17112903
2	0x3d2a24a0	0.041538835
3	0xbe88a825	-0.26690784
4	0xbe73f876	-0.23825249
5	0x3e64306c	0.22284096
6	0x3c589fc0	0.013221681
7	0xbe52ebe2	-0.20597795
8	0x3d948394	0.07251659
9	0x3dad12a8	0.08450824
10	0x3d9427c0	0.07234144
11	0xbd94759a	-0.07248993
12	0x3e6dc628	0.23220122
13	0x3dbb24b4	0.0913786

layers2.0.weight f4 [14, 12]
0	0x3e665cc2	0.22496322
1	0x3daf4861	0.08558727
2	0x3edb5803	0.42840585
3	0x3e10733e	0.14106461
4	0xbd062a85	-0.032755394
5	0xbd98c214	-0.074588925
6	0x3ea8b612	0.3295141
7	0x3e52e58e	0.2059538
8	0x3e5f2a4b	0.21793477
9	0x3e52176f	0.20516752
10	0x3e383f7d	0.17992969
11	0x3e8d6b95	0.2762114
12	0x3e9963f0	0.2995906
13	0x3ec8642d	0.39138928
14	0x3eb41651	0.35173276
15	0x3e7fd21c	0.24982494
16	0xbda28754	-0.07935968
17	0xbd953bd5	-0.07286803
18	0xbe0d1b3f	-0.13779925
19	0x3e8372aa	0.2567342
20	0x3e3941c8	0.180915
21	0x3d93afb9	0.07211251
22	0x3e1fe559	0.15614833
23	0xbd015a17	-0.031580057
24	0xbde87a8e	-0.113515005
25	0x3e34796f	0.17624448
26	0x3e3a724a	0.1820766
27	0xbeaa13dc	-0.33218277
28	0xbd1de695	-0.03854998
29	0xbe78257e	-0.24233052
30	0x3e200163	0.15625529
31	0xbebaa508	-0.36454034
32	0x3d7ba0a5	0.0614325
33	0xbdcb9e9b	-0.09942361
34	0x3e12d59b	0.14339297
35	0x3e1fc620	0.15602922
36	0x3e8fc4ff	0.28079984
37	0x3ea63811	0.3246465
38	0x3ea4d014	0.3219
39	0x3e4e490a	0.2014505
40	0x3e3af386	0.1825696
41	0x3e8a7c6f	0.2704806
42	0x3db6bd19	0.08922786
43	0x3c28a2da	0.010292733
44	0x3dd2fce9	0.10302145
45	0x3ebc5f94	0.3679167
46	0x3d4287e6	0.047492884
47	0xbd71cf23	-0.05903543
48	0xbe6d2740	-0.23159504
49	0x3da5330c	0.08066377
50	0x3d584438	0.052799433
51	0xbd8dc35a	-0.06922026
52	0xbd21754c	-0.039418504
53	0xbe269933	-0.16269378
54	0x3e290964	0.16507488
55	0xbe8740b0	-0.2641654
56	0x3e8eb9e0	0.27876186
57	0xbdc697ae	-0.09696899
58	0xbe90846a	-0.28226024
59	0x3e2bce60	0.16777945
60	0xbdb5b76c	-0.088728756
61	0xbde73e6a	-0.112912014
62	0xbe3fa7d4	-0.18716365
63	0xbe4b194e	-0.19833872
64	0xbd092e98	-0.0334917
65	0xbcd19200	-0.025582314
66	0xbe20ee1c	-0.15715832
67	0x3d92a1a4	0.07159737
68	0xbe442772	-0.19155672
69	0x3c389ce0	0.011267871
70	0xbe532195	-0.2061828
71	0x3e3f67c0	0.18691921
72	0xbc9e8afb	-0.01935338
73	0x3e4b20ea	0.19836774
74	0x3ee883f0	0.4541316
75	0x3eed1256	0.46303052
76	0x3a86f7f7	0.0010297288
77	0x3e797e85	0.2436467
78	0x3e8ef628	0.27922177
79	0x3e2009f8	0.15628803
80	0x3c3da73d	0.011575517
81	0x3e2001ca	0.15625682
82	0x3f060f7a	0.52367365
83	0x3ec0592a	0.37568027
84	0xbe19cdff	-0.15019988
85	0xbe4e829c	-0.20167011
86	0xbe333756	-0.17501578
87	0x3d8a9c44	0.067680866
88	0x3db95960	0.0905025
89	0xbdbe494c	-0.09291324
90	0xbe8504d2	-0.2598024
91	0x3d810bc0	0.06301069
92	0x3e8e7058	0.27820086
93	0xbd41e9a8	-0.047341973
94	0xbcb84d00	-0.022497654
95	0x3e72834c	0.23682898
96	0xbbca138b	-0.0061668805
97	0x3e84113c	0.257944
98	0x3ee37fec	0.44433534
99	0x3d4e3538	0.050343722
100	0x3cda84aa	0.026674587
101	0x3e9fb34e	0.31191486
102	0x3db3e3f5	0.08783714
103	0x3e7400a1	0.23828365
104	0x3ec14831	0.3775039
105	0xbc7d6486	-0.015465861
106	0x3ec3c5dc	0.38236892
107	0x3dca95c8	0.0989185
108	0xbe30e9fa	-0.17276755
109	0xbd08bcc8	-0.03338316
110	0xbe4d3e89	-0.20043387
111	0xbe7a537b	-0.24445908
112	0x3e46e78c	0.19424266
113	0x3dba7d98	0.09105986
114	0xbe8f6522	-0.28006846
115	0x3e730b18	0.237347
116	0xbe8f7467	-0.28018495
117	0xbcdb4870	-0.02676794
118	0xbe2d23e2	-0.1690822
119	0xbdfcd5e8	-0.12345487
120	0x3dbd4395	0.09241406
121	0xbe427665	-0.18990476
122	0x3dfcd847	0.12345939
123	0x3e0aa165	0.1353813
124	0x3e49ddee	0.19713566
125	0xbeae1a22	-0.34004313
126	0xbe2df4ed	-0.16987963
127	0xbd918413	-0.07105269
128	0x3e265595	0.16243584
129	0xbdcbeaf5	-0.09956924
130	0xbe07d072	-0.1326311
131	0x3dd59eee	0.10430704
132	0xbc9f9596	-0.019480508
133	0x3f00e3f2	0.50347817
134	0x3ed108b4	0.40826952
135	0xbd72c975	-0.059274156
136	0x3e304d31	0.17216946
137	0x3ef3ecc9	0.4764159
138	0x3ed5ec0a	0.41781646
139	0x3e51817c	0.2045955
140	0x3d2b4727	0.041815903
141	0x3cd2efe3	0.025749153
142	0x3eb52c0d	0.3538517
143	0x3ed03749	0.4066718
144	0x3e7f7468	0.24946749
145	0x3e23cb91	0.15995623
146	0xbe06540c	-0.13117999
147	0x3e78997c	0.242773
148	0x3e54dc44	0.2078715
149	0x3dee106e	0.116242275
150	0x3e69401e	0.22778365
151	0x3e635094	0.22198707
152	0x3e3a652f	0.18202661
153	0x3dc30fd1	0.09524501
154	0x3e6a3d20	0.2287488
155	0x3dbbb5f8	0.09165567
156	0x3dadce1a	0.084865764
157	0x3db8d305	0.09024624
158	0xbea04894	-0.31305373
159	0xbe19d995	-0.15024407
160	0xbd33c01d	-0.043884385
161	0xbe4386b1	-0.1909435
162	0x3e061484	0.13093764
163	0x3c23c771	0.009996281
164	0x3d2ca5e3	0.04215039
165	0xbe986a7b	-0.29768738
166	0xbe8627b4	-0.26202166
167	0xbe99a3af	-0.30007693

layers2.0.bias f4 [14]
0	0x3e89fad1	0.2694917
1	0xbd9d17bc	-0.076705426
2	0x3e429344	0.1900149
3	0x3ea7387b	0.3266028
4	0x3d9f3ae0	0.077749014
5	0x3dd7e24c	0.105412096
6	0x3e2f1760	0.1709876
7	0xbe81e0c1	-0.25366786
8	0x3e2ac738	0.16677558
9	0xbe4c59ac	-0.19956082
10	0xbeafe618	-0.34355235
11	0x3efa00fa	0.4882887
12	0xbe0ebec2	-0.13939956
13	0xbe91b837	-0.28460857

layers2.2.weight f4 [1, 14]
0	0x3e87aac6	0.26497477
1	0x3e761401	0.24031068
2	0xbe225c7c	-0.15855592
3	0x3e485cd3	0.1956666
4	0xbd36ee58	-0.044660896
5	0x3d11d888	0.03560689
6	0x3e842ef0	0.2581706
7	0x3df7e128	0.12103492
8	0x3efc26d0	0.49248362
9	0xbc1f8ee0	-0.009738654
10	0xbe5a1bda	-0.21299687
11	0x3eb8d67d	0.36101142
12	0x3e7ef310	0.24897408
13	0xbe6630a5	-0.22479494
