models/regression/neural_networks/17-02-2023, 19:16:05/model.pt (torch, 2195 bytes, 3 tensors)

layers.0.weight f4 [12, 12]
00000000: a069 2bc9 fcd8 95c5 a9c9 2cc5 eec7 0cc5
00000010: 694b b0c5 9853 b3c5 f685 b3c5 c9b0 b3c5
00000020: e6a8 b2c5 4ba1 aec5 9f74 1fc7 3f6b 01c5
00000030: 68ac f6bd acb5 5abe 007b f53a 3427 f9bd
00000040: db50 55be 2c37 563e 474c 37be 92fd a4bd
00000050: 40d2 85bc 82d1 053e 48ba 5e3d 428c 8b3e
00000060: 7aa1 aac1 04c0 653d 9cbd 90be 3e8a d4bd
00000070: 3812 62bd 0c5b 093d d68f 9bbd 8062 ceba
00000080: 1073 93be 28ab dfbe 3db8 ccbf 08a1 4fbd
00000090: 7e3c b2be a983 8fc1 3b6c 0fc1 fe38 13c1
000000a0: f3ae 26c2 e157 2ac2 6ca5 1bc2 f97c 34c2
000000b0: e9d0 1ac2 7e16 1bc2 78f2 ebc2 3e44 14c1
000000c0: 3612 b7c1 500d b1be 727a d0be 315f b7bd
000000d0: 7100 d5be da45 b5be fbd2 ccbe dea7 08bf
000000e0: 72fc eebe f283 52be 96c1 08c0 8f3d acbe
000000f0: d856 59c1 289d 773d c2f0 bb3d e879 99be
00000100: cc01 2abe 2a6e f3bd 406d 41be 9d95 bdbe
00000110: 3059 80bc 9288 cfbe e612 adbf bdb5 40be
00000120: 9843 89be f01f 13bd 48ee 923e 648e c43d
00000130: f0a2 0d3e d237 dfbd e2ca 2dbe f4ca dabd
00000140: dcc0 80be 7858 773d 3cd6 71be 60ed c1bd
00000150: f8db cbbd 4dfa 01be 5827 ca3d 6c07 ff3d
00000160: 9a60 a1bd 2c58 fcbd d060 483d 80d1 f93c
00000170: e478 0b3e 2431 f2bd 5044 af3c 5cfb 1dbe
00000180: 1c08 eed2 d94d 50cf 74c3 f5ce 121b 91ce
00000190: f41d 58cf 122f 59cf 5fdf 5bcf 661e 59cf
000001a0: c33a 5bcf 69de 54cf 82c3 f8d0 3c77 afce
000001b0: 47d1 0cc1 71c5 c3bd f025 8bbd 0c7f efbd
000001c0: 00fc c63d bf67 c9bd 300b 72be c31e f83d
000001d0: 7de8 15be a54f 5cbe 2067 7cbf 786f 72be
000001e0: 6d47 ebcc cc67 2dc9 11a0 0bc9 5ba6 5ac8
000001f0: 5d8b 63c9 ee2c 64c9 411b 67c9 c759 65c9
00000200: 18fc 66c9 05d2 5cc9 0028 dcca c3c4 a3c8
00000210: 4951 15c7 1a6a 82c3 d13c 16c3 2ac4 f5c2
00000220: 0384 99c3 4543 9cc3 5e3d 9cc3 f05e 9cc3
00000230: 2a6b 9bc3 f709 98c3 cbd6 0ac5 0df1 e0c2
-702106.0 -4795.123 -2764.6038 -2252.4956 -5641.4263 -5738.449 -5744.745 -5750.098
-5717.1123 -5588.1616 -40820.62 -2070.703 -0.12044603 -0.21358365 0.0018728673 -0.121656805
-0.20831625 0.20919484 -0.17900191 -0.08056177 -0.016335607 0.13068202 0.05437687 0.27255446
-21.328846 0.056091323 -0.2826966 -0.1037793 -0.055193156 0.033534095 -0.07595794 -0.0015745908
-0.28798723 -0.4368527 -1.5993725 -0.05069068 -0.34811777 -17.939287 -8.963923 -9.201414
-41.67085 -42.58582 -38.911545 -45.122044 -38.704014 -38.771965 -117.97357 -9.266661
-22.883892 -0.3458047 -0.40718418 -0.08953703 -0.416019 -0.35404855 -0.40004715 -0.53381145
-0.46676975 -0.20558146 -2.1368155 -0.33640715 -13.583702 0.06045261 0.0917678 -0.2997582
-0.16602248 -0.118862465 -0.18889332 -0.37028208 -0.015667528 -0.40533882 -1.3521392 -0.18819328
-0.26809382 -0.03591913 0.2869742 0.09597471 0.13831687 -0.10899319 -0.16971925 -0.106832415
-0.2514714 0.060387105 -0.2361688 -0.09469104 -0.09954065 -0.12693138 0.098707855 0.124525875
-0.078797534 -0.12321505 0.048920453 0.030495405 0.13620335 -0.11825779 0.021394879 -0.15427917
-5.1116913e+11 -3.4947628e+09 -2.0616136e+09 -1.2172352e+09 -3.6258417e+09 -3.6437407e+09 -3.6888492e+09 -3.642648e+09
-3.6780613e+09 -3.5713457e+09 -3.3388499e+10 -1.4719135e+09 -8.801093 -0.09559143 -0.067943454 -0.11694154
0.09716034 -0.09834241 -0.2363708 0.12115242 -0.14639468 -0.21514757 -0.98594856 -0.23675334
-1.2335396e+08 -710268.75 -571905.06 -223897.42 -932021.8 -934606.9 -946612.06 -939420.44
-946113.5 -904480.3 -7.21408e+06 -335398.1 -38225.285 -260.82892 -150.23756 -122.88313
-307.03134 -312.52554 -312.47943 -312.7417 -310.83722 -304.07785 -2221.4246 -112.4708

layers.0.bias f4 [12]
00000000: 956d 91c4 7825 3fbd 085d 83be 80ed 0ec1
00000010: 6622 b4be 8130 12be 3ccc 36be caae 4e3e
00000020: 208e 30ce 20f3 b1bc 03af 3ac8 8b3b 7cc2
-1163.4244 -0.046666592 -0.25656915 -8.932983 -0.35182494 -0.14276315 -0.17851347 0.20183864
-7.405261e+08 -0.021722376 -191164.05 -63.058147

layers.2.weight f4 [1, 12]
00000000: 704f 27c8 7071 6d3e 235c be3f 0768 9b42
00000010: 512d d641 522d f440 1310 23be 69fc 24be
00000020: 6f09 16d2 02ee a041 8ffa e5cb bd2c 01c8
-171325.75 0.23187804 1.4871868 77.70318 26.772127 7.6305323 -0.159241 -0.16111912
-1.6110084e+11 20.116215 -3.0143774e+07 -132274.95
