models/regression/neural_networks/19-02-2023, 11:06:20/model.pt (torch, 2349 bytes, 3 tensors)

layers.0.weight f4 [12, 12]
00000000: 573a febd b5c6 0b41 2b45 f940 429e 2641
00000010: 6eef c43d 8c43 90be 1848 53be 314f 353e
00000020: 8a27 08bb 625b 13bf 9313 83be 9809 1f41
00000030: 83cf 27bf 178b 01bf a1c4 e4be 9383 b7be
00000040: 821c 56bf 8582 e2be dc21 12bf 64b5 fdbe
00000050: 84bd 59bf 0946 a6be 4ea2 02bf 74e7 febe
00000060: 9444 a93d 8166 0d41 ea84 f140 5230 2941
00000070: a867 4b3f ec87 843f 51f8 6c3f afe5 ab3f
00000080: e411 7f3f bb7c 0d3f ec80 7f3f 7c43 2541
00000090: bb09 0bbf 1ede 4dbf c98e 7fbf 8b12 1abf
000000a0: 2663 1dbf c543 3fbf faac 0abf b312 5bbf
000000b0: d5dc 23bf 0725 07bf d426 18bf 2d56 49bf
000000c0: 803b f7be c7b9 05bf 022f 44be a9a2 2cbe
000000d0: b87e e5be 1861 02bf b13d 55be c2b1 e0be
000000e0: ee6e cabd 9931 cfbd cc12 14bf 964d 5abe
000000f0: ab61 31bf 0017 8dbe ddd6 07bf 4e8b 10bf
00000100: 28c6 39bf 5479 b2be d95a 94be 80de a9be
00000110: 2310 39bf a7a8 48bf 414e b9be 165d d7be
00000120: d751 1ebf f0ed 0dbf dc26 2dbf b6d8 73bf
00000130: 6e57 0ebf dab4 86bf 1ead fcbe cda1 3abf
00000140: bb79 67bf 7505 84bf 83fc 14bf b15b 76bf
00000150: de7e 24bf e5e8 3bbf 535b 18bf 7669 0bbf
00000160: 1965 49bf f00a 47bf 63ce 7dbf 4a2c 07bf
00000170: 22e8 44bf b4f5 74bf 1d2a 0bbf 85f2 82bf
00000180: 77d3 6cbf a5fc a73f 8398 d23e bebd 0640
00000190: 7ab6 fa3f 426c a83f 4a8d e13f f3d8 fd3f
000001a0: a44f 9b3f 7e9a b33f e1c4 2abe 2e43 e73f
000001b0: f3f2 16bf 22ee 1dbf 450d d1be 63a4 47bf
000001c0: 0f15 38bf b33f 0cbf 2e34 cfbe 3c04 c1be
000001d0: 85f7 2bbf 9262 bcbe 1410 5cbf 521a f8be
000001e0: ba9c 18bf d602 01bf b090 b3be e4de f9be
000001f0: 6e3f 4dbf b8e3 b3be 78e8 10bf a4f8 fbbe
00000200: 0e8e d9be f5fd 18bf 2d29 d3be 1eab f1be
00000210: 2f40 b9bd f82f 1b41 a319 0141 9ed4 2a41
00000220: d8db 813e 553c 133e adb5 00be d562 1e3f
00000230: 0baf 0dbe 6d24 cbbe 8c5c b1bc 0c34 2a41
-0.12413471 8.736012 7.7896934 10.413637 0.0961598 -0.28176534 -0.2063297 0.1770599
-0.002077552 -0.57561314 -0.2560087 9.939842 -0.6555101 -0.5060286 -0.44681266 -0.3584257
-0.8363725 -0.44240203 -0.57082915 -0.49552453 -0.850548 -0.32475308 -0.5102891 -0.4978596
0.08265033 8.837525 7.547475 10.574297 0.7945504 1.035398 0.925664 1.3429469
0.99636674 0.5526845 0.99806094 10.328976 -0.5431172 -0.8041705 -0.9982725 -0.60184544
-0.61479414 -0.74712783 -0.5417019 -0.8557541 -0.6400884 -0.52790874 -0.59434247 -0.7864712
-0.48287582 -0.522366 -0.19158557 -0.16858925 -0.4482324 -0.50929403 -0.20824315 -0.43885618
-0.098844394 -0.10116882 -0.5784118 -0.21318659 -0.69289654 -0.2755661 -0.5306223 -0.5646256
-0.7256799 -0.3485819 -0.2897556 -0.33177567 -0.7229025 -0.78382343 -0.36192515 -0.42063206
-0.6184363 -0.5544119 -0.6763742 -0.9525255 -0.5560216 -1.0523942 -0.49350828 -0.7290314
-0.9042012 -1.0314165 -0.581978 -0.9623366 -0.64256084 -0.73402244 -0.5951435 -0.54457796
-0.7866989 -0.77751064 -0.99143046 -0.52801955 -0.76916707 -0.95687413 -0.54361135 -1.0230261
-0.9251017 1.3123976 0.41131982 2.105331 1.9586937 1.3158038 1.7621243 1.9831833
1.2133679 1.4031522 -0.16676666 1.8067377 -0.5896446 -0.61691487 -0.40830436 -0.7798521
-0.7190713 -0.547847 -0.40469497 -0.37698543 -0.6717456 -0.36793953 -0.85962033 -0.4845758
-0.59614146 -0.5039495 -0.35071325 -0.48802865 -0.8017491 -0.35134673 -0.5660472 -0.49213135
-0.42491192 -0.5976251 -0.41242352 -0.47200865 -0.09045445 9.699211 8.068759 10.6769085
0.2536304 0.14378484 -0.12569304 0.61869556 -0.13836305 -0.39676228 -0.021650575 10.637707

layers.0.bias f4 [12]
00000000: ea46 80be f95f 48bf d70c 4f3f 36cc 53bf
00000010: d0d0 cbbd 4069 b8be 45d9 4dbf f21d 68bf
00000020: 13f0 cc3f 05aa 36bf 8db1 55bf 8444 fa3c
-0.25054103 -0.7827144 0.8087897 -0.82733476 -0.09951937 -0.360178 -0.8040965 -0.9067069
1.6010765 -0.7135318 -0.83474046 0.030550249

layers.2.weight f4 [1, 12]
00000000: 7074 c43e c344 ce3e 7616 1d3f e973 133f
00000010: 4a61 dabe 5193 f73e c9fe ff3e 5493 f43e
00000020: c350 933e 1bee ed3e d454 c43e 906c ef3e
0.38370085 0.40286836 0.613624 0.5759874 -0.4265235 0.4835458 0.49999073 0.47768652
0.28772554 0.46470723 0.3834597 0.46762514
