models/regression/neural_networks/Price_Night/22-02-2023, 23:52:41/model.pt (torch, 3967 bytes, 5 tensors)

layers.0.weight f4 [14, 11]
000000 5f 73 05 c1 a6 37 95 c0 0d a2 24 c0 5c 4e 10 c1
       -8.340667 -4.663043 -2.5723908 -9.019131
000010 8c 49 0e c1 da d9 13 c1 26 96 0e c1 bc 3a 0e c1
       -8.892956 -9.240686 -8.911657 -8.889339
000020 29 80 07 c1 bc d9 6a c2 6d b7 4a c0 98 46 26 c0
       -8.468789 -58.71263 -3.1674454 -2.5980587
000030 42 03 d2 bf ac 02 7a bf 2f 31 8d c0 5e c2 86 c0
       -1.6407244 -0.97660327 -4.412254 -4.2112265
000040 58 0c 8e c0 30 63 85 c0 b2 cf 88 c0 6d 0e 8a c0
       -4.439007 -4.168358 -4.2753534 -4.314261
000050 ac ed 1a c2 41 b9 87 bf 64 96 16 be 10 26 55 bd
       -38.7321 -1.060341 -0.14705807 -0.052038252
000060 b0 81 96 be c1 4e 92 be 3d 0f cf bd 50 bf 04 bd
       -0.2939582 -0.2857571 -0.10110328 -0.032409012
000070 6f 1d 94 be 8d dc d2 bd a8 64 13 be 1c 53 e0 be
       -0.28928706 -0.10295973 -0.14393866 -0.43813407
000080 94 1f 05 bc bb df f2 be 59 3a 80 3d 64 70 fa 3d
       -0.008125205 -0.47436318 0.06261129 0.12228468
000090 bd fa 58 be 54 2b 21 be c9 b0 98 be ed ac ca be
       -0.21189399 -0.15739185 -0.29822376 -0.39585057
0000a0 f9 09 a6 be eb ae 7e be 8d 3e 7a bf 68 07 ea bc
       -0.32429484 -0.24871413 -0.97751695 -0.028567985
0000b0 94 68 94 bd c2 e1 c1 bd cc 7a b9 bd ba 4d 8a bd
       -0.07246509 -0.09466888 -0.09056625 -0.067531064
0000c0 d6 f0 19 3e 78 40 b3 3d a4 a3 fe bd 22 77 2e 3e
       0.15033278 0.08752531 -0.12433556 0.17037633
0000d0 aa 70 3b be 10 7a b9 bc b0 18 a6 3d b1 30 98 bd
       -0.18304697 -0.022641212 0.081101775 -0.07431162
0000e0 d8 2f a0 bb 7c b8 92 3e e4 82 1f be 5c 90 c8 3b
       -0.004888516 0.28656375 -0.15577275 0.0061207246
0000f0 63 6e 04 be a1 0f d9 bd 53 13 57 3e 9f cf 88 be
       -0.12932734 -0.10598684 0.21003465 -0.26720902
000100 ac e4 32 be 84 7f 07 3e a0 c0 bf bb d5 9b 56 be
       -0.17470044 0.13232237 -0.00585182 -0.20957883
000110 20 e2 cb 3d fe f5 42 be b7 b1 1c be ec 61 14 bd
       0.09955239 -0.19039151 -0.15302168 -0.036226198
000120 04 fd 81 be d0 05 1b 3d 7c e7 00 bf 2a aa 39 bf
       -0.25388348 0.03784734 -0.5035322 -0.72525275
000130 2c 41 ff bd fd fd a4 3d 18 a2 90 be ae fb 91 bc
       -0.124636024 0.08056257 -0.28248668 -0.017820206
000140 5a 6d 26 3e 2b e6 19 3e 5e 47 07 be 3a 0a 1d bd
       0.16252652 0.15029208 -0.13210818 -0.03833983
000150 6e 4c 37 be 5c 05 d3 bc d6 31 14 bf ff 2a 3c be
       -0.1790025 -0.025759391 -0.57888544 -0.18375777
000160 0b 5a ba c3 09 a6 4e c3 98 f8 e1 c2 e6 52 c4 c3
       -372.70346 -206.64857 -112.985535 -392.64764
000170 a9 53 c4 c3 6d 82 c6 c3 9a ef c5 c3 be 13 c7 c3
       -392.6536 -397.01895 -395.8719 -398.15424
000180 8e de c0 c3 32 f9 7f c5 ae a2 1e c3 6b 1e 12 c3
       -385.7387 -4095.5747 -158.63547 -146.11882
000190 2a b4 a5 c2 9e cc 58 c2 bd 5b 57 c3 79 bb 58 c3
       -82.85188 -54.19982 -215.35835 -216.73232
0001a0 4f 31 5b c3 74 3c 58 c3 6a 18 5b c3 d2 d9 56 c3
       -219.19261 -216.23615 -219.09537 -214.85086
0001b0 fe ff de c4 5c e5 6c c2 18 10 86 bd 7c fa 66 bd
       -1783.9998 -59.223984 -0.065460384 -0.056391224
0001c0 70 ea 61 3d 90 d1 ac 3d 44 63 8e be 9d cb 39 be
       0.055155218 0.084384084 -0.2781011 -0.18144079
0001d0 3c 2d 51 3e e4 cb 7f be c2 a5 36 be 72 fa 59 be
       0.20427412 -0.24980122 -0.17836669 -0.21286944
0001e0 98 23 13 bd a4 c3 2a 3e fc 4f 01 3e 4c 9c 49 3e
       -0.035922617 0.16676193 0.12628168 0.19688529
0001f0 9d 69 4e be b6 f7 ce be c8 29 a4 3d 42 04 d1 3d
       -0.20157476 -0.40423363 0.08015782 0.1020589
000200 78 56 1a be c4 d6 af be 72 2f 59 bf e4 e1 a6 3d
       -0.15072048 -0.3434354 -0.8483802 0.08148554
000210 64 b8 14 c2 35 24 a2 c1 98 3e 4b c1 1c c8 64 c2
       -37.18007 -20.26768 -12.702782 -57.19542
000220 fd 00 67 c2 80 5a 68 c2 7c 85 66 c2 d9 90 67 c2
       -57.750965 -58.08838 -57.630356 -57.891453
000230 dd 9f 62 c2 09 99 de c3 59 fe 6e c1 01 9f 9c be
       -56.656116 -445.1956 -14.937097 -0.3059006
000240 04 27 7c 3e 60 0c 48 3e 7a 0d 1b be 69 89 9b be
       0.24624258 0.1953597 -0.1514186 -0.30378273
000250 7d 23 7d be 02 5f 17 be c8 ec f9 bc 92 21 e7 bd
       -0.24720569 -0.14782336 -0.030508414 -0.112857
000260 92 ea 55 be c0 75 eb 3d
       -0.20890263 0.114970684

layers.0.bias f4 [14]
000000 ed 52 08 c0 57 53 88 bf 66 af 84 be 03 d1 c8 bd
       -2.1300614 -1.0650433 -0.25915068 -0.09805491
000010 29 07 51 be 5e ce 8d 3d a0 3f 1f 3e 21 15 3c 3e
       -0.20412888 0.06924127 0.15551615 0.18367435
000020 eb 77 a0 c2 88 77 32 c2 f2 3b 43 3e b2 0f 8e 3d
       -80.234215 -44.61673 0.19065836 0.069365874
000030 78 8b 39 c1 6e 48 92 3d
       -11.59655 0.07142721

layers.3.weight f4 [14, 14]
000000 f0 fa 7a 3d c4 63 74 be 74 b4 28 3e 02 8f 37 3c
       0.06127447 -0.23866183 0.16475087 0.011203529
000010 98 52 26 3d 2b 2d 41 be c2 ef 40 be 4a d5 14 3e
       0.04060611 -0.18864886 -0.1884146 0.14534488
000020 5a 7b 67 be fa 12 c2 c3 58 4e 0b 3e 47 88 91 3d
       -0.22605649 -388.14825 0.13604105 0.07106071
000030 7f 92 6d c3 a3 aa 7a be 15 30 cf c1 2b 7e eb c0
       -237.57225 -0.24479155 -25.898478 -7.3591514
000040 98 9b 1f be 24 42 b4 bd d4 22 88 3d 0e 6c 7d bd
       -0.15586698 -0.08801678 0.06647268 -0.061870627
000050 48 55 45 3e 10 2b e4 be c3 05 49 42 93 1c 8a be
       0.19270813 -0.44564104 50.255627 -0.26974925
000060 d4 e6 d7 bd d9 56 17 bf e0 b5 c4 bd fa 36 ea 3d
       -0.10542074 -0.59116894 -0.096050024 0.11436267
000070 9e f0 e3 bf d0 09 60 be d6 59 18 3d 44 9c a5 3d
       -1.7807806 -0.21878743 0.03719505 0.08086446
000080 de f1 4b 3e aa b8 0c be f5 1e 50 3c d9 0c 5e 3e
       0.19916484 -0.13742319 0.012702693 0.21684588
000090 2b 58 82 40 e5 46 e7 bd c1 cf 81 3e ae 08 d2 bd
       4.0732627 -0.11292819 0.25353816 -0.10255562
0000a0 1b a6 91 bd 2c 58 4d be a8 c6 4c be 58 26 2b bd
       -0.0711176 -0.20053166 -0.19997656 -0.041784614
0000b0 6b 1d 69 3e 89 3e 3b 3e 18 64 e3 3d 90 27 95 3e
       0.22765128 0.18285574 0.11103076 0.29131746
0000c0 af 9a 60 be fd b3 c0 bd ae ed 24 be 00 ee 1f c3
       -0.21934007 -0.0940933 -0.16106293 -159.92969
0000d0 d0 6f d4 3d 78 d0 47 bd 4a 96 c6 c2 d0 3b a7 3e
       0.10372889 -0.048782796 -99.29353 0.3266282
0000e0 cc e5 33 be 5a 00 b7 3d 51 37 31 be ae f7 a3 3e
       -0.1756813 0.08935614 -0.17306258 0.32024902
0000f0 34 76 c5 3d 86 ac 6d 3e 68 d9 4d 3c b7 39 be bd
       0.09641686 0.23210344 0.012564041 -0.09288352
000100 30 f4 b5 3c 58 54 8c c4 8f 26 63 be 22 a8 58 3d
       0.022211164 -1122.6357 -0.22182678 0.05289472
000110 f1 45 15 c4 f0 d8 a5 3d c3 fe 59 be 74 f6 0b bf
       -597.09283 0.08098018 -0.2128859 -0.5467293
000120 ef ec 92 bd 94 1d 57 bd b8 d4 47 3d c6 e5 2a 3e
       -0.07174098 -0.052518442 0.04878685 0.16689214
000130 0c b6 0a be 5f fb b9 bd ae 97 20 41 75 6b 89 be
       -0.13546008 -0.09081148 10.037031 -0.26839796
000140 53 f8 05 be cb 5a 88 be 6f da e6 be c3 a0 6c bd
       -0.1308301 -0.2663177 -0.45088527 -0.0577705
000150 78 f0 d0 3d de 7a 28 be 72 c0 5d 3e 27 e6 69 be
       0.10202116 -0.1645312 0.21655443 -0.22841702
000160 81 c4 73 be a6 e3 39 3e ff 5d 6e be a7 80 da bc
       -0.23805429 0.18153247 -0.23278044 -0.026672674
000170 7c 79 5e be 87 75 3c c3 60 53 1b bc 47 1a 6e be
       -0.2172603 -188.45909 -0.009480327 -0.23252212
000180 d1 61 ba c2 43 5c 08 be 90 74 db 3c c4 90 b3 3d
       -93.19105 -0.13316445 0.02678898 0.08767846
000190 8b ee 5c 3e 1d d5 03 be 48 91 13 3d e5 1f 14 3d
       0.21575372 -0.12874265 0.036027223 0.03616323
0001a0 7a a9 3b be 93 96 d3 3d c4 c6 34 c7 5a d1 38 c4
       -0.18326369 0.10331454 -46278.766 -739.2711
0001b0 e8 1b 4d be 0b 38 85 be cf 89 bf c3 de 89 51 be
       -0.20030177 -0.2601932 -383.07663 -0.20462748
0001c0 2f cf 7a c1 48 af 7f c0 29 b4 56 be e7 6f 45 be
       -15.675582 -3.9950733 -0.20967163 -0.19280969
0001d0 6e 81 3a 3e f4 19 67 bd f0 1f 04 bb 56 dd cb bd
       0.18213436 -0.056421235 -0.0020160638 -0.09954326
0001e0 ae f5 8c 41 48 cc 90 bd 00 f2 ef bb 5f ee 86 be
       17.61996 -0.070702136 -0.00732255 -0.26353738
0001f0 86 ca c3 bd a2 ab 9d bd 38 a4 5f be 7a fb 9e bc
       -0.09560113 -0.07698752 -0.21839988 -0.019407023
000200 0e 6b ab bd f0 28 32 be c0 ed ff 3c 83 92 5e 3e
       -0.083700284 -0.17398429 0.031241298 0.21735577
000210 f0 2f 61 3d 1e bf 15 3e c9 e6 2a be b8 78 e0 bd
       0.054977357 0.14623687 -0.166896 -0.10960525
000220 4e 0c 39 3e 00 b7 fa 3d 58 16 6f bc 01 bd 22 be
       0.180711 0.12241936 -0.0145927295 -0.15892412
000230 5b c5 7a 41 50 bd b3 bc e0 db 6c 3e 62 44 fb 3e
       15.6731825 -0.021940857 0.2313075 0.4907561
000240 10 08 a2 bd fe 18 09 be 62 81 25 3e be b3 a3 bd
       -0.07911694 -0.1338844 0.16162637 -0.079932675
000250 00 fe 6a bd 68 b2 28 c3 c6 96 52 3e da de e9 3e
       -0.05737114 -168.6969 0.20565328 0.45677835
000260 a9 99 d1 c2 9e c8 36 3e 15 2a 8f bf 9a 18 7b bf
       -104.80012 0.17849967 -1.1184717 -0.98084414
000270 22 20 1b be 5e 15 6b be d8 79 52 be 60 8f a9 bb
       -0.15148976 -0.2295737 -0.20554292 -0.0051745623
000280 bf a7 81 bc 0e 9c ad be 7c c1 80 42 3a 68 3a bf
       -0.015827058 -0.33908123 64.3779 -0.7281529
000290 04 88 45 3e 54 46 e4 be a4 68 15 bf f8 2c ef be
       0.19290167 -0.44584906 -0.58362794 -0.46713996
0002a0 5a 9e 65 c0 e3 92 c9 bf e0 14 f6 bd cd 3c fa be
       -3.58779 -1.5747951 -0.120157 -0.48874512
0002b0 6a 3c 0b 3e 06 09 83 be 60 f8 f8 bb 8e 12 89 be
       0.13597265 -0.25592822 -0.007597968 -0.2677197
0002c0 d7 85 6e 42 76 18 3a bf 0b dc 7c be 31 40 f0 be
       59.630703 -0.72693574 -0.24693315 -0.46923974
0002d0 c3 a7 64 bf 16 e7 24 be 49 8f 21 c1 43 1f 9c c0
       -0.89318484 -0.16103777 -10.097482 -4.878816
0002e0 c0 95 08 3e 28 c3 fa bd 7a 6a e7 bd 34 ef 69 bd
       0.13338375 -0.12244254 -0.11299606 -0.057112888
0002f0 59 1c 02 be 4b c1 86 be 2a ff 73 41 f0 ba 51 be
       -0.12706126 -0.26319346 15.249796 -0.20481467
000300 ea 4d 90 bd 92 00 3f be 88 f5 de bc 6d 5c 83 be
       -0.07046111 -0.18652561 -0.027216688 -0.25656453

layers.3.bias f4 [14]
000000 9b 8d 04 c0 c0 28 07 bd e4 a9 9a 40 d1 3f 8d bf
       -2.071143 -0.032997847 4.8332386 -1.10351
000010 5a a0 d1 c0 55 92 b3 40 97 0c 89 bf 59 59 2a c4
       -6.550824 5.611613 -1.0706967 -681.39606
000020 00 21 0b be dc 13 9b 40 6a fa c8 c0 3d 15 99 40
       -0.13586807 4.8461742 -6.280568 4.7838426
000030 5c 94 91 40 e0 a3 e9 bd
       4.5493603 -0.1140821

layers.6.weight f4 [1, 14]
000000 8e dd 13 c4 1c b3 29 41 3d 59 9f 40 d7 10 a0 c1
       -591.4618 10.606228 4.9796433 -20.008223
000010 64 d4 e2 c4 8d e1 b5 40 32 e6 35 c3 23 a4 53 c4
       -1814.6372 5.683783 -181.8992 -846.56464
000020 9f ea 1d 41 7a 0c 9b 40 f5 5c cc c1 f0 eb a5 40
       9.869781 4.845273 -25.54539 5.185051
000030 d5 69 ab 40 b9 47 32 41
       5.356669 11.14251
