models/regression/neural_networks/Price_Night/20-02-2023, 22:37:21/model.pt (torch, 2349 bytes, 3 tensors)

layers.0.weight f4 [12, 12]
00000000: 0940 5f3d 6ebc b43f a358 e63f 8ba7 dc3f
00000010: 0200 643e 8c82 213f b5b3 1c3f 7634 0d3f
00000020: 88b6 2b3f ec71 063f fbdf 123f ac73 c93f
00000030: 6610 febd 300c edbd b8b0 343d 2c3c 053e
00000040: e0fa 00bd fbf8 54be 98b0 4a3d b8df 76be
00000050: 343e f93d dc96 2dbd a4ab b53d 6880 7fbd
00000060: e4b5 84bd f012 bfbc 48ee 4fbd b00e 6d3e
00000070: 340b 023e e0db 0dbc 38eb b53d 5cf9 5cbd
00000080: 24d1 6bbe d87d 26be b011 1e3d 003e 4ebd
00000090: fd37 c73d 82fd d93f 9c67 ee3f 405f ff3f
000000a0: 955d 773e a02a 443e c8ea 173f 0547 693e
000000b0: df0f 0c3f a385 b83e c284 233f d57a c33f
000000c0: 1a5e 25bd f152 b3be 6575 d6bd 1a24 5bbd
000000d0: 7cc5 51be 9eb2 38be 3059 d2be 4254 f6be
000000e0: 29d5 5c3d f99f a8bd 1922 a2bc 7daf 77be
000000f0: 0432 43bd f8f7 1a40 abad 2640 e9f3 1140
00000100: 407f 053f 4c21 433f d19d 783f 5cba 2b3f
00000110: 5ff6 803f c738 133f 7d2b 613f 11ec 1840
00000120: 8b86 73be 5990 66be 42b6 bc3d 8b59 1dbe
00000130: 75f7 84be c456 68be 589e 6d3d 8ea9 7a3d
00000140: c432 92bd 0fd5 65bd b2ce 6a3d 9780 0c3a
00000150: 51bc 57bb cf7a e5be 5ad4 c33d 08e2 d5bc
00000160: 771e 3cbe 08e2 78be 5f9d 45be 8934 f1be
00000170: 2735 92be ea0b 65be 5aff abbe aeb3 c83d
00000180: 4b44 993d f125 ed3f e283 dd3f cfd1 db3f
00000190: 3ec0 243f e2e6 c83e 8c55 303f 1258 df3e
000001a0: f23d d63e 7c64 ea3e 9b7a 8e3e 0d5f ed3f
000001b0: a17a 84bd 87a1 9cbe f475 a0be 025b f7be
000001c0: dd79 9bbe 1c64 bebd bbda e0be ffc8 d0be
000001d0: b496 b03d 17c9 c9be ec4d c73b 0828 b13d
000001e0: 04d1 f9bc 0dd2 9f3d 84b1 83be b438 8dbe
000001f0: 7be6 16be d7e3 d5bb 85c5 bd3d 70ab 43bb
00000200: 0ded adbe f419 4a3d 1e0e b9be 8f5a a3be
00000210: 07e8 95bb 8ec4 a93f cc4c e53f 434b cf3f
00000220: b40e 793c ee9b 733d cd9d da3e dec8 d53e
00000230: f24f 83bd ca9a 09bd 8d94 853e 6982 b83f
0.054504428 1.4120004 1.79958 1.723863 0.22265628 0.63089824 0.6121171 0.55158174
0.67075396 0.5251758 0.5737302 1.5738425 -0.124054715 -0.1157459 0.044113845 0.13011235
-0.031489253 -0.20798104 0.04948482 -0.2410878 0.121700674 -0.0423802 0.088706285 -0.062378317
-0.064800054 -0.02332446 -0.050764352 0.23150134 0.12699586 -0.008658379 0.08882755 -0.053948745
-0.23029 -0.16258943 0.038591087 -0.050352097 0.09727476 1.703049 1.8625369 1.9950943
0.24156792 0.19156885 0.5934262 0.22780998 0.5471172 0.36039457 0.6387445 1.527186
-0.040372945 -0.35024217 -0.1047161 -0.053501226 -0.2048549 -0.18036887 -0.4108367 -0.4811116
0.053914223 -0.08233637 -0.01979165 -0.24188037 -0.04765512 2.4213848 2.6043499 2.280512
0.52147293 0.7622268 0.9711581 0.67081237 1.0075186 0.5750851 0.8795698 2.3894083
-0.23781793 -0.22516002 0.092144504 -0.15366189 -0.25970045 -0.22689348 0.058012336 0.061196856
-0.07138589 -0.05611139 0.057326026 0.00053597376 -0.0032918642 -0.44820258 0.09561987 -0.026108757
-0.18370996 -0.24304974 -0.19298314 -0.47110394 -0.28556177 -0.22367826 -0.33593255 0.09799896
0.07483729 1.8527204 1.7305872 1.7173404 0.6435584 0.3923865 0.68880534 0.4362188
0.41844136 0.45779788 0.27827916 1.8544632 -0.06468702 -0.30591986 -0.3133999 -0.4831162
-0.30366412 -0.09296438 -0.43916878 -0.40778348 0.08622494 -0.39411232 0.006082287 0.086502135
-0.030495174 0.07803736 -0.2572137 -0.27582324 -0.14736359 -0.0065274048 0.092661895 -0.0029856823
-0.33969918 0.049341157 -0.36143583 -0.31905028 -0.004574779 1.3263109 1.7914062 1.6194843
0.015201259 0.059474878 0.42698517 0.41754812 -0.06411733 -0.033594884 0.26089898 1.4414798

layers.0.bias f4 [12]
00000000: d012 7e3e 88bd 5e3e 64bc 643e a57e 643e
00000010: 8fd8 b5bd a70f 303f bf29 acbe 58ce bdbe
00000020: 12ca 8c3e bbc8 bdbe f021 afbe 724b 473e
0.24811864 0.21751988 0.2233749 0.22313936 -0.08879196 0.68773884 -0.336256 -0.3707149
0.27497917 -0.37067208 -0.3420558 0.19462374

layers.2.weight f4 [1, 12]
00000000: 2f4b d13e 9ea6 89be ccc9 75be 72bd 803e
00000010: 4260 593b 180f ae3f e9e5 3b3d 931e 5a3d
00000020: 3a6a 093f 65fc 58bd d70f a53c 5565 303e
0.40877673 -0.2688493 -0.2400276 0.25144535 0.0033168946 1.3598356 0.045873556 0.053251814
0.53677714 -0.052975077 0.020149155 0.17226155
