models/regression/neural_networks/19-02-2023, 11:01:46/model.pt (torch, 2349 bytes, 3 tensors)

layers.0.weight f4 [12, 12]
00000000: ba18 4cbf 247e a9be 3b53 c8be 5b0b fabe
00000010: 5653 17bf f7eb 09bf a3a2 cbbe 1d07 05bf
00000020: 4a4a ecbe 02dd 39bf a879 91be 64e3 07bf
00000030: ebbf 7dbe d7ca ed40 3ea4 c840 4eae 2941
00000040: be05 b23e 6367 a23e fc88 a1be 89e5 fb3d
00000050: df7d 043e 8014 b9be 96d8 60be 8c7e 0841
00000060: 6578 0bbf 237d cfbe f020 2dbf 4deb fcbe
00000070: 9e65 5fbf 4e24 3fbf 8721 1ebf 51a1 2dbf
00000080: 7997 00bf 8c88 52bf 11bc 19bf 7421 1fbf
00000090: 7252 09bf e70a 2cbf e6cb 3cbf 246c d6be
000000a0: 8013 30bf 5443 25bf 4c9c d5be 1ad5 3dbf
000000b0: b9a8 38bf 60c3 b0be 9e49 17bf ed8a a3be
000000c0: 5aeb d9bd 6a4c 8c3e a0e8 e73d c85c bf3d
000000d0: 12d0 043e c0d4 36bc a241 90be b87d 6bbd
000000e0: 6b2f 1abe 309e b03d c94e 83be e08c 493e
000000f0: f032 83bd 1a56 513e 9c3c 4fbd fefa 3a3e
00000100: 84f8 cc3d 547e a43d da6a 2dbe aed0 80be
00000110: 9035 f53d 2824 7d3e 5d3c 74be 48f6 8bbe
00000120: 0a4c d9bd c733 2cbe 32d6 dcbd 24e9 66be
00000130: 6c40 92bd 9a02 823e 3c9d 773e b096 f7bd
00000140: f88f 663d 54b5 993d 2174 0abe 740a ecbd
00000150: b4cf 37bf 88b5 753f 745f 4a3f 0ea4 8540
00000160: 9479 3e40 3922 4440 715e 3d40 4e2a 3140
00000170: 91c7 3940 e452 2840 89db 8b3e fc3b be3f
00000180: e016 4dbe 7041 d2bc 340a babd 2117 7b3f
00000190: 3bbb 0d3f 3d66 a63e ea0d 283f dc2b 3d3f
000001a0: ca16 2a3f 788a 0b3f d085 e0be 51ac 273d
000001b0: e493 b33d 0a89 e940 8cc2 ca40 b41b 2241
000001c0: a48b 513f 9c8b 783f 99d1 343f 2449 a03f
000001d0: c446 e63e 9780 9a3e e46f 313f 2615 0441
000001e0: 42d2 94bd 4e38 93bd cfab 19be d610 463e
000001f0: 9801 7a3e 4469 0a3e 20b0 69bc f4f9 743e
00000200: f91c 46be 4045 f7bb d0dc 7ebe 7608 81be
00000210: 1183 6b3d d776 fb40 d178 cf40 bfca 2641
00000220: 1011 433f 5bd3 593f ccdd 983e 98f2 483f
00000230: 774e 873e 496d e93d ce77 e03e cfb1 0b41
-0.7972523 -0.3310405 -0.39126 -0.4883679 -0.59111536 -0.5387568 -0.3977252 -0.5196398
-0.46150428 -0.72602856 -0.2841313 -0.53081346 -0.24780242 7.4310107 6.270049 10.605055
0.34770006 0.31719503 -0.31549823 0.1229964 0.12938641 -0.36148453 -0.21957621 8.530895
-0.5448058 -0.4052516 -0.67628384 -0.4939827 -0.8726443 -0.7466477 -0.6176991 -0.67824274
-0.5023113 -0.82239604 -0.6005259 -0.6216042 -0.53641427 -0.67204136 -0.73748624 -0.4187938
-0.68779755 -0.6455586 -0.41720808 -0.7415329 -0.7213245 -0.3452406 -0.59096706 -0.3194193
-0.10640593 0.2740205 0.113236666 0.093438685 0.12969998 -0.011159122 -0.28175074 -0.05749294
-0.15057151 0.08623922 -0.25646046 0.19682646 -0.064062 0.20443001 -0.05059491 0.18259808
0.10008338 0.08031908 -0.16935292 -0.2515921 0.11973107 0.24720824 -0.23851152 -0.27336335
-0.106102064 -0.16816626 -0.10783042 -0.22549874 -0.07141194 0.2539261 0.24181074 -0.12089288
0.056289643 0.07505289 -0.13520862 -0.11525431 -0.71801305 0.9598012 0.790519 4.176276
2.9761705 3.0645888 2.9588892 2.768207 2.9028056 2.6300592 0.2731593 1.4862056
-0.20028257 -0.025665969 -0.09083977 0.98082167 0.55363816 0.32499877 0.6564623 0.7389505
0.66441023 0.5450816 -0.4385209 0.040935818 0.08768442 7.2979784 6.3362484 10.131763
0.818537 0.97088027 0.7063232 1.2522321 0.44975865 0.3017623 0.69311357 8.255163
-0.07266666 -0.07188474 -0.15006946 0.1934236 0.2441467 0.13516718 -0.014263183 0.23923475
-0.1934699 -0.007546097 -0.24888921 -0.25201768 0.05749804 7.858257 6.483498 10.424499
0.7619791 0.8508813 0.29856718 0.7849517 0.2642705 0.113977976 0.43841404 8.73091

layers.0.bias f4 [12]
00000000: 00e4 24bf 5970 3b3e 2a8b dcbe 1b99 40bf
00000010: bce3 3dbd 77b9 70be 7ac3 d9bd c7dd 2340
00000020: fd54 023f a349 203f 7e5a 5bbe 5c54 273f
-0.644104 0.18304576 -0.43074924 -0.7523362 -0.046359763 -0.23508249 -0.10632987 2.5604112
0.5091093 0.6261236 -0.21421239 0.653631

layers.2.weight f4 [1, 12]
00000000: 89a7 c83e fd6f 043f dec5 143f e896 d03e
00000010: ccda 883d 409d 2d3e 2873 8d3d 67b7 ed3e
00000020: 0d78 783d b3af 063f f8ea 2dbe 858c f13e
0.3919032 0.5173338 0.5811442 0.40740132 0.06682357 0.16954517 0.0690673 0.46428987
0.060661364 0.52611846 -0.16984165 0.4717752
