models/regression/neural_networks/Price_Night/22-02-2023, 23:49:04/model.pt (torch, 3967 bytes, 5 tensors)

layers.0.weight f4 [14, 11]
-0.0012911335 0.100583375 -0.140304 -0.022270214 -0.09633083 -0.3089358 0.049085706 -0.26941863
-0.034769174 -0.07501545 0.24480419 -2.604069 -1.961524 -1.1767286 -3.160628 -3.076283
-3.3941636 -3.2994468 -3.111087 -3.3856678 -31.745134 -1.0706723 -0.22519083 -0.2755468
0.23869205 -0.08687785 -0.037835807 0.18896878 -0.18882045 0.21635234 -0.081403345 -0.09882748
0.14661962 0.22240382 -0.115415126 0.11827731 -0.19853494 -0.00449124 -0.026236713 0.007765293
-0.26841342 -0.2563877 -0.26391202 -0.17701638 -6.6035967 -4.2430086 -2.3444176 -7.9601126
-8.31055 -8.332311 -8.237796 -8.143355 -8.164902 -76.64851 -2.730153 -0.13673195
-0.23060912 -0.045554608 -0.067825034 -0.26056185 -0.20197055 -0.0022524595 0.22296387 0.25506628
-0.13509454 0.056170613 -0.33613893 -0.18161719 0.057145417 -0.41118938 -0.026409358 -0.10294345
-0.33538082 -0.34707588 -0.18592355 -0.467237 0.21597773 -0.004141651 -0.15750992 0.15888798
0.05784526 0.1824873 -0.0077221505 -0.1309174 0.07849178 -0.23278546 -0.5809778 0.124631755
-0.5063843 0.08561784 0.24833444 -0.04553312 -0.44970262 -0.33089048 -0.5849155 -0.29718244
-0.4793918 -4.7449107 -0.1259431 -2.3261077 -1.8423868 -0.85387295 -3.0520098 -2.544161
-3.0175514 -3.015172 -2.8395998 -2.515184 -26.630503 -0.8062786 -0.6815054 -0.43277213
-0.16052404 -0.9898659 -0.63019794 -0.88146675 -0.6700087 -0.65060705 -0.97650266 -6.992829
-0.12509462 -0.7838206 -0.6698139 -0.40847808 -1.5818007 -1.3908463 -1.3215402 -1.2671045
-1.5917186 -1.1833339 -12.423125 -0.436669 -0.028517392 -0.17542821 0.17514747 -0.11117529
0.12402676 -0.19097501 0.008004444 0.14833117 0.22134897 -0.1859233 -0.16707802 0.21075535
-0.09176031 -0.16218503 -0.046302587 -0.22637159 0.06518954 -0.22988832 -0.18995595 0.29216498
-0.03757578 -0.08984201
00000000: 403b a9ba a8fe cd3d daab 0fbe 0670 b6bc
00000010: 1949 c5bd d52c 9ebe 180e 493d 3df1 89be
00000020: 1f6a 0ebd b3a1 99bd f3ad 7a3e 11a9 26c0
00000030: 3813 fbbf 0b9f 96bf bb47 4ac0 d2e1 44c0
00000040: fa39 59c0 232a 53c0 0d1c 47c0 c8ae 58c0
00000050: 09f6 fdc1 ca0b 89bf 6d98 66be 7814 8dbe
00000060: b06b 743e 04ed b1bd b8f9 1abd 0881 413e
00000070: 265a 41be 788b 5d3e ccb6 a6bd 1066 cabd
00000080: 7423 163e d4bd 633e c45e ecbd 603b f23d
00000090: be4c 4bbe 402b 93bb 60ee d6bc 0074 fe3b
000000a0: 7c6d 89be 4045 83be 7a1f 87be c843 35be
000000b0: aa50 d3c0 bac6 87c0 f00a 16c0 3eb9 fec0
000000c0: 03f8 04c1 2551 05c1 03ce 03c1 2f4b 02c1
000000d0: 70a3 02c1 0a4c 99c2 d4ba 2ec0 7603 0cbe
000000e0: cc24 6cbe 7897 3abd dae7 8abd 5d68 85be
000000f0: 5ed1 4ebe 009e 13bb a450 643e 0c98 823e
00000100: 3956 0abe 2813 663d 671a acbe dbf9 39be
00000110: 5011 6a3d 6a87 d2be 7058 d8bc 04d4 d2bd
00000120: 09b7 abbe eeb3 b1be be62 3ebe b039 efbe
00000130: 4429 5d3e b0b6 87bb 484a 21be 88b3 223e
00000140: 27ef 6c3d f3dd 3a3e 180a fdbb 360f 06be
00000150: 4cc0 a03d 505f 6ebe f6ba 14bf ef3e ff3d
00000160: 67a2 01bf 6858 af3d 624b 7e3e f080 3abd
00000170: 6c3f e6be 7a6a a9be 06bd 15bf 4c28 98be
00000180: d872 f5be 4fd6 97c0 3af7 00be f3de 14c0
00000190: 55d3 ebbf 6b97 5abf 2154 43c0 89d3 22c0
000001a0: 901f 41c0 94f8 40c0 01bc 35c0 c6f8 20c0
000001b0: 450b d5c1 4668 4ebf 2377 2ebf 4f94 ddbe
000001c0: 6a60 24be da67 7dbf a754 21bf cea7 61bf
000001d0: b185 2bbf 2f8e 26bf 14fc 79bf 41c5 dfc0
000001e0: ce18 00be 78a8 48bf ec78 2bbf 0a24 d1be
000001f0: 7278 cabf 4007 b2bf 3b28 a9bf 7b30 a2bf
00000200: 6fbd cbbf 7c77 97bf 1fc5 46c1 1493 dfbe
00000210: 4e9d e9bc 74a3 33be dc59 333e dfaf e3bd
00000220: be01 fe3d f48e 43be 1225 033c 20e4 173e
00000230: 4ea9 623e ad62 3ebe 8016 2bbe 40d0 573e
00000240: d4ec bbbd d513 26be c8a7 3dbd f4cd 67be
00000250: 1882 853d d867 6bbe d083 42be a696 953e
00000260: 10e9 19bd 16ff b7bd

layers.0.bias f4 [14]
-0.28601536 -0.39193943 -0.0656956 0.17450994 -1.7385678 -0.26246405 0.032237917 -0.08304674
0.22796898 -0.44899917 -0.16957763 0.0014118254 -0.16950887 0.22616857
00000000: 9b70 92be 49ac c8be 6a8b 86bd bcb2 323e
00000010: 6489 debf b061 86be e80b 043d 6914 aabd
00000020: b370 693e 38e3 e5be c2a5 2dbe 000d b93a
00000030: bc93 2dbe bc98 673e

layers.3.weight f4 [14, 14]
-0.20151272 -6.4899583 -0.15741222 -0.0017953217 -6.207217 -0.23142885 0.08130607 -0.20831455
-0.23467928 -3.3483157 -2.1734457 -0.45482472 0.19095737 0.21552789 -0.00021738186 -0.5171292
-0.06856768 -0.15120661 -0.69024646 0.017350823 0.03332773 -0.8600657 6.068603 -0.4473887
-0.2955606 -0.20815529 0.15517703 0.034912437 -0.15933898 -4.8488836 -0.123528376 0.21091515
-4.9072385 0.0460411 -0.11641228 0.34259015 -64.84133 -3.138883 -1.4130703 -0.38591596
-0.058112487 -0.2611998 -0.04414001 -0.16938224 -0.08113314 -0.18421552 -0.1729851 -0.09685457
-0.18664175 -0.051191725 3.0873659 0.17950144 -0.14843722 -0.19606644 0.20935881 -0.24461962
0.017694741 -0.11476572 -0.020059764 0.061193347 -0.22631222 -0.057087496 -0.04081464 -0.113431305
-0.1960705 -0.06017673 -0.021709234 -0.067333385 -0.14654826 0.038805008 0.18871015 -62.78776
0.02071324 0.009027213 -60.45128 -0.07263085 0.16176265 0.9050683 -0.0082809925 -34.096188
-20.710741 -3.6237118 -0.123545036 0.15441442 -0.25971156 -0.18748388 0.08262551 -0.18356508
-0.20577869 0.21575934 -0.25100443 -0.20418517 2.071175 -0.19112362 -0.09983207 -0.14293239
0.08324033 -0.19620714 -0.20680146 -3.2481256 -0.12832153 -0.20775831 -3.1297016 -0.15691495
0.23944822 -0.031804357 -0.19189186 -1.5472057 -1.1529759 -0.22674645 0.018749774 0.23439494
0.12201354 -0.29673976 0.14654073 -0.22598186 -0.3721729 -0.18127215 -0.21290842 -0.061540812
-0.19936389 -0.15484697 0.12480829 0.031187816 -0.11000578 -0.022319034 0.10847822 -0.25009745
0.05985102 -0.08746649 -0.7157488 -0.08175562 -0.10415742 -0.41026625 -0.007196933 0.06523618
-0.36192158 -0.1226868 0.23642054 0.22376409 -0.16483076 -0.36573666 0.26612458 -0.09233685
-0.117295355 -0.24828419 0.21076423 -0.15570816 8.554141 -0.3108232 -0.031162873 0.13654777
0.11758506 0.01721397 -0.01193694 -0.07981907 0.0065538287 -0.22650634 0.5893683 -0.12457517
0.039331973 0.10066317 20.00898 -0.2527684 -0.108491644 -0.20377074 -0.07408602 -0.18433046
0.21662644 -33.221207 -0.16541198 0.23977003 -31.454124 0.23658165 -0.049993306 1.2572814
-410.66376 -17.762651 -10.925774 -2.2331867 0.11270884 0.26588514 0.2662735 -0.26144403
0.16862407 -0.23209038 -0.19069985 -0.21140893 -0.059738062 -0.011900931 4.4090486 -0.34048694
-0.054491304 -0.18154936 0.11330833 0.23564628
00000000: 5a59 4ebe bdad cfc0 ab30 21be 0051 ebba
00000010: 86a1 c6c0 affb 6cbe cc83 a63d 6950 55be
00000020: c44f 70be ce4a 56c0 bc19 0bc0 c9de e8be
00000030: 548a 433e 58b3 5c3e 00f1 63b9 9462 04bf
00000040: 366d 8cbd e8d5 1abe feb3 30bf 5023 8e3c
00000050: a882 083d 442d 5cbf ff31 c240 2210 e5be
00000060: b853 97be a926 55be bae6 1e3e 5800 0f3d
00000070: c229 23be 0e2a 9bc0 72fc fcbd 24fa 573e
00000080: 1908 9dc0 9895 3c3d 9069 eebd fa67 af3e
00000090: c3ae 81c2 76e3 48c0 7ddf b4bf c796 c5be
000000a0: 5c07 6ebd fbbb 85be 28cc 34bd 8a72 2dbe
000000b0: 2229 a6bd fea2 3cbe 0223 31be b05b c6bd
000000c0: 041f 3fbe 6aae 51bd 6797 4540 3acf 373e
000000d0: edff 17be a4c5 48be 2862 563e 917d 7abe
000000e0: 90f4 903c 4a0a ebbd 6054 a4bc e0a5 7a3d
000000f0: 64be 67be 94d4 69bd 402d 27bd ac4e e8bd
00000100: b5c6 48be e07b 76bd 90d7 b1bc 16e6 89bd
00000110: bf10 16be 00f2 1e3d 3c3d 413e ab26 7bc2
00000120: d0ae a93c e0e6 133c 1cce 71c2 7cbf 94bd
00000130: 1ca5 253e 8eb2 673f 00ad 07bc 7f62 08c2
00000140: 99af a5c1 e5ea 67c0 2e05 fdbd d01e 1e3e
00000150: eaf8 84be c6fb 3fbe 9037 a93d 7cf8 3bbe
00000160: a6b7 52be 04f0 5c3e a783 80be eb15 51be
00000170: 228e 0440 e9b5 43be c274 ccbd de5c 12be
00000180: e879 aa3d 86ea 48be c3c3 53be 4ae1 4fc0
00000190: b866 03be 98be 54be 084d 48c0 50ae 20be
000001a0: ea31 753e 4945 02bd 4d7f 44be d60a c6bf
000001b0: b794 93bf 3930 68be 2099 993c 3a05 703e
000001c0: 3ce2 f93d 46ee 97be c60e 163e ca67 67be
000001d0: 728d bebe 689f 39be aa04 5abe 3812 7cbd
000001e0: 0c26 4cbe 3490 1ebe 7d9b ff3d 977d ff3c
000001f0: b64a e1bd 68d6 b6bc d429 de3d c60c 80be
00000200: 5826 753d a221 b3bd 503b 37bf 7e6f a7bd
00000210: 7c50 d5bd 6b0e d2be 40d4 ebbb 8c9a 853d
00000220: c94d b9be 3843 fbbd 3a18 723e 6a22 653e
00000230: 65c9 28be d641 bbbe 7b41 883e 1a1b bdbd
00000240: 8c38 f0bd 363e 7ebe 94d2 573e f671 1fbe
00000250: c3dd 0841 3824 9fbe 4849 ffbc 2ed3 0b3e
00000260: 70d0 f03d 5004 8d3c 2893 43bc 2e78 a3bd
00000270: 80c1 d63b 47f1 67be d7e0 163f 4421 ffbd
00000280: 901a 213d 7e28 ce3d 6412 a041 dc6a 81be
00000290: de30 debd 47a9 50be 69ba 97bd 20c1 3cbe
000002a0: 52d3 5d3e 84e2 04c2 c261 29be 4686 753e
000002b0: 0ca2 fbc1 7642 723e c8c5 4cbd 99ee a03f
000002c0: f654 cdc3 e919 8ec1 f8cf 2ec1 88ec 0ec0
000002d0: e4d3 e63d 1922 883e 0055 883e fedb 85be
000002e0: caab 2c3e 1aa9 6dbe d246 43be 957b 58be
000002f0: e6af 74bd 1ffc 42bc ed16 8d40 4e54 aebe
00000300: 4632 5fbd 13e8 39be 330e e83d 424d 713e

layers.3.bias f4 [14]
-4.406328 -0.14403592 -5.552867 -0.13550165 1.5987084 -0.7518597 6.599455 -0.00074933097
-0.2477714 -0.20497274 4.754304 4.852688 -6.180665 4.671944
00000000: a400 8dc0 277e 13be 16b1 b1c0 f2c0 0abe
00000010: 7aa2 cc3f e179 40bf bc2e d340 c06e 44ba
00000020: c9b7 7dbe 60e4 51be 4223 9840 3849 9b40
00000030: 02c8 c5c0 9180 9540

layers.6.weight f4 [1, 14]
-11.156963 4.4600224 -12.073264 2.7047145 1.5979317 -40.966614 6.7850704 -1.6902483
-0.14330474 0.22307919 5.1290865 7.8521185 -32.809208 4.9412456
00000000: ec82 32c1 81b8 8e40 172c 41c1 0b1a 2d40
00000010: 0789 cc3f d0dd 23c2 4c1f d940 0e5a d8bf
00000020: 7abe 12be df6e 643e 7a21 a440 8e44 fb40
00000030: a13c 03c2 af1e 9e40
