models/regression/neural_networks/19-02-2023, 10:58:09/model.pt (torch, 2349 bytes, 3 tensors)

layers.0.weight f4 [12, 12]
00000000: ad24 c13c 1b62 9e3f 0f7d c23f 7710 ab3f
00000010: 140c 583e b277 923e feb2 7f3e 5a13 d13d
00000020: 8aa9 093f 6528 783e bad3 913e 949d ba3f
00000030: 4fab 09bd 838e f63f 8164 ce3f a777 fa3f
00000040: 2eae 203f 08e4 323f e4e2 a43e 4f1d 523f
00000050: eefa c73e 1e63 9c3e 850b d63e 6afb 0340
00000060: 602f 9b3d 0c22 dd3f 70b8 b43f f711 a13f
00000070: 7e49 2e3c 8d92 a23e b605 e73e 1345 a03e
00000080: b2f0 733e dcae da3e 5140 bb3e 42f3 e83f
00000090: f453 dbbc 710d 2f3e 251c 9ebe 1eec acbe
000000a0: 0054 9c3d e3e2 93be d40d 01be 25ce 2dbe
000000b0: c8bd ac3d c5c9 363e edf2 a9be ceb3 943d
000000c0: b929 9fbd 8f65 81bd 53ab 8fbd 3e7e e3bd
000000d0: b569 7fbe a709 bdbe 68ca 95bd e499 4cbe
000000e0: cf7b 66be 9833 ea3d 72bc b13c 71c0 84bd
000000f0: e40c 2cbd d06e ff3f 94f0 0440 778c e13f
00000100: 3f65 403f 5551 0d3f 3d56 3f3f 57d7 3d3f
00000110: ba70 553e b673 7f3e f7f5 db3e e92a 0440
00000120: 26dc 8dbe e6b1 5abe b03e 73be 0682 063e
00000130: 2a3b 2f3e 9ee2 483e 604f 5d3d a2cd 7cbe
00000140: 80e6 4a3c 78a0 40be 259c 84be 304d ac3c
00000150: 8c0e b3bd 8c89 983d a6b7 f4bd d657 243e
00000160: 182f c73d 2867 63be 5560 44be dbdf 3abe
00000170: 5ec6 1c3e fddc 0abe faa6 c1bd 00ce 123d
00000180: a053 343e 7d83 953f 8eaf b83f 3f7d a63f
00000190: 71b9 893e 37fb a33e dc17 f13e 7ba4 d93d
000001a0: e8fa ef3e 10c3 2e3e d12e 5e3d 22f0 ca3f
000001b0: 5b44 173e ea70 9b3f ac95 be3f ef2d b03f
000001c0: 3d0a 933e f3f7 203e 172e 0c3e 2416 6f3e
000001d0: 95f6 083f 8df2 d13e 0412 9d3e 3595 de3f
000001e0: e22f e6bd 31cd 38be a3e2 f73d 2acd 1d3e
000001f0: 14ab 873d 2c7c 0dbe 856a bd3d 960f 6ebd
00000200: 31f0 1fbe ecf3 f3bd 2193 653d 79d9 c8bd
00000210: e793 0ebd 2fe8 c63f 0cd2 c33f 32f9 db3f
00000220: 8c57 223f b479 423e a7eb 243f d37f 873e
00000230: 677d b93e 05cd 163f 08cc ab3e 622b d63f
0.023577059 1.237369 1.5194415 1.33644 0.21098357 0.28606945 0.24970624 0.10208769
0.5377432 0.2423416 0.28481847 1.4579339 -0.03361064 1.9262241 1.6124421 1.9567765
0.6276578 0.698792 0.32204354 0.8207597 0.39058632 0.3054437 0.41805664 2.06222
0.075773954 1.7276015 1.4118786 1.2583607 0.010637639 0.31752434 0.45121545 0.313027
0.23822287 0.42711532 0.36572507 1.8199236 -0.02677343 0.17094971 -0.30880848 -0.33773893
0.07633209 -0.28884038 -0.12602931 -0.16973169 0.084346354 0.17850406 -0.3319315 0.072608575
-0.0777163 -0.06318199 -0.070150994 -0.11108063 -0.24942668 -0.36921427 -0.073139966 -0.1998058
-0.22508167 0.11435622 0.021696303 -0.06482018 -0.04200448 1.9955692 2.0771837 1.7620991
0.7515449 0.5520223 0.74740964 0.7415671 0.20843783 0.24946484 0.42961094 2.065119
-0.27707022 -0.21356925 -0.23754382 0.13135538 0.17112413 0.19617698 0.054030776 -0.24687818
0.012384057 -0.18811214 -0.2590038 0.0210329 -0.08743009 0.0744811 -0.11949091 0.16049132
0.09725779 -0.2220732 -0.19177373 -0.18249457 0.15310046 -0.13560863 -0.094556764 0.03584099
0.17610025 1.1680752 1.4428575 1.3006972 0.26899293 0.320276 0.47088516 0.10627075
0.46871114 0.17066598 0.054243866 1.5854533 0.1477217 1.2143834 1.4889426 1.3764018
0.2871875 0.15719585 0.13689457 0.2334829 0.53501254 0.41005364 0.30677807 1.7389284
-0.11239602 -0.18047024 0.121037744 0.15410295 0.066244274 -0.13816899 0.092488326 -0.058120333
-0.1561897 -0.11911759 0.056048516 -0.098071046 -0.03480902 1.5539607 1.5298476 1.7185423
0.63414836 0.18991739 0.64422077 0.2646471 0.36228487 0.58906585 0.335541 1.6731989

layers.0.bias f4 [12]
00000000: 732c 623e 8944 bf3e af2e f43e 1791 adbe
00000010: d705 b5be b6b7 f03e b293 71be 1041 613e
00000020: 34a4 9f3e cdc6 8d3e 65db 4fbe 9774 113f
0.22087269 0.37356976 0.47691867 -0.33899757 -0.35356018 0.4701516 -0.23591498 0.21997476
0.31179965 0.27690735 -0.20298536 0.56818527

layers.2.weight f4 [1, 12]
00000000: 72cc 223e 03ff 5c3f ae89 303e e740 98bd
00000010: 5a6b 24be dc54 883f 9ce5 293e ed5d 55be
00000020: e5a0 933e ded1 723e e5d9 8bbd 02e6 783f
0.15898302 0.86326617 0.1724002 -0.07434254 -0.16056576 1.0650897 0.16591495 -0.20836611
0.2883369 0.2371287 -0.068286695 0.97225964
