models/regression/neural_networks/18-02-2023, 11:16:26/model.pt (torch, 2195 bytes, 3 tensors)

layers.0.weight f4 [12, 12]
-639.37006 -6.778014 -3.7039871 -2.2597363 -7.8558254 -8.187847 -8.129785 -8.178774
-8.150129 -7.8658915 -51.729683 -2.1244583 -695.7684 -7.6646185 -4.241635 -2.2346144
-8.560909 -8.948718 -8.904586 -8.460681 -8.940087 -8.683612 -56.30863 -2.2690892
-3.6274784e+22 -2.276953e+20 -9.8714004e+19 -8.145203e+19 -2.9055263e+20 -2.9046852e+20 -2.930489e+20 -2.8912195e+20
-2.9184992e+20 -2.8251198e+20 -2.5573612e+21 -8.692828e+19 -0.040225998 0.0030980706 0.15789145 0.17396834
-0.27358377 -0.039707363 -0.1968621 0.24022275 0.17162159 0.035160482 -0.26523346 -0.029538542
-8.717798e+14 -4.1691038e+12 -2.8547542e+12 -1.5846547e+12 -7.2463365e+12 -7.264309e+12 -7.3528676e+12 -7.2158345e+12
-7.357888e+12 -7.190881e+12 -5.0373855e+13 -1.6522407e+12 -2380.6992 -26.028671 -13.65259 -7.62708
-29.27385 -29.808384 -29.549147 -29.828102 -29.80612 -28.72479 -192.26666 -8.70949
-0.0738612 0.27187002 0.10020122 0.16754192 0.037503988 -0.15355413 0.04156813 -0.2370389
0.11844155 0.14297232 -0.21170023 -0.2746663 -9.197626e+14 -4.398572e+12 -3.0118804e+12 -1.6718743e+12
-7.6451744e+12 -7.6641353e+12 -7.757569e+12 -7.612994e+12 -7.762865e+12 -7.586667e+12 -5.314643e+13 -1.7431804e+12
-849.4583 -9.21006 -4.985048 -2.7470446 -10.51795 -10.644057 -10.397937 -10.646426
-10.372277 -10.177934 -68.749825 -3.2052925 -2.5158864e+12 -1.2031697e+10 -8.2385905e+09 -4.5731855e+09
-2.0912339e+10 -2.0964207e+10 -2.1219783e+10 -2.0824314e+10 -2.1234268e+10 -2.07523e+10 -1.4537487e+11 -4.768233e+09
-1.9164112e+07 -1.5970094e+06 -798504.94 -798504.5 -3.9925235e+06 -3.9925235e+06 -3.9925238e+06 -3.9925238e+06
-3.9925238e+06 -3.6731218e+06 -2.874617e+07 -798504.56 -4.496141e+14 -2.150185e+12 -1.4723188e+12 -8.17274e+11
-3.737245e+12 -3.7465138e+12 -3.7921874e+12 -3.7215134e+12 -3.794776e+12 -3.7086442e+12 -2.5979945e+13 -8.521311e+11
00000000: afd7 1fc4 7ee5 d8c0 200e 6dc0 859f 10c0
00000010: ec62 fbc0 6c01 03c1 9913 02c1 42dc 02c1
00000020: ee66 02c1 62b5 fbc0 32eb 4ec2 20f7 07c0
00000030: 2df1 2dc4 8e44 f5c0 79bb 87c0 ec03 0fc0
00000040: 7cf9 08c1 f32d 0fc1 2f79 0ec1 f35e 07c1
00000050: 990a 0fc1 13f0 0ac1 0a3c 61c2 c238 11c0
00000060: b8ce f5e4 837e 45e1 d33d abe0 f84b 8de0
00000070: a503 7ce1 f8f0 7be1 ed2d 7ee1 f8c5 7ae1
00000080: b323 7de1 430a 75e1 84a2 0ae3 e9cb 96e0
00000090: 04c4 24bd 0009 4b3b 4cae 213e c224 323e
000000a0: 2c13 8cbe 30a4 22bd 3896 49be f4fc 753e
000000b0: 92bd 2f3e 7004 103d aecc 87be d0fa f1bc
000000c0: 4338 46d8 7dac 72d4 272b 26d4 647a b8d3
000000d0: 6ae5 d2d4 526b d3d4 22ff d5d4 2802 d2d4
000000e0: 8a24 d6d4 3d48 d1d4 4f42 37d6 9c58 c0d3
000000f0: 30cb 14c5 b83a d0c1 0271 5ac1 0a11 f4c0
00000100: d830 eac1 9277 eec1 a764 ecc1 f49f eec1
00000110: ef72 eec1 5fcc e5c1 4444 40c3 125a 0bc1
00000120: 8a44 97bd 8c32 8b3e 4c36 cd3d 1c90 2b3e
00000130: c89d 193d 4b3d 1dbe 5843 2a3d 53ba 72be
00000140: 7c91 f23d 5667 123e f2c7 58be 10a1 8cbe
00000150: 3b21 51d8 ea03 80d4 8450 2fd4 bda1 c2d3
00000160: fd80 ded4 420e dfd4 65c6 e1d4 3a91 ddd4
00000170: daed e1d4 13cd dcd4 7858 41d6 d3ee cad3
00000180: 555d 54c4 685c 13c1 8385 9fc0 94cf 2fc0
00000190: 8649 28c1 0f4e 2ac1 f35d 26c1 c357 2ac1
000001a0: d9f4 25c1 d1d8 22c1 e97f 89c2 8323 4dc0
000001b0: a171 12d4 4849 33d0 7587 f5cf a34a 88cf
000001c0: 1fcf 9bd0 0d32 9cd0 8619 9ed0 3a27 9bd0
000001d0: 2735 9ed0 df9d 9ad0 1264 07d2 bb1a 8ecf
000001e0: e835 92cb 8bf2 c2c9 8ff2 42c9 88f2 42c9
000001f0: 2eaf 73ca 2eaf 73ca 2faf 73ca 2faf 73ca
00000200: 2faf 73ca 8730 60ca dd50 dbcb 89f2 42c9
00000210: f875 ccd7 8250 fad3 8566 abd3 5449 3ed3
00000220: 4a89 59d4 6813 5ad4 ffbb 5cd4 df9e 58d4
00000230: 92e2 5cd4 1bdf 57d4 6b07 bdd5 f966 46d3

layers.0.bias f4 [12]
-1.3579617 -1.7929273 -5.8986494e+19 0.18796286 -1.4824516e+12 -5.9883504 0.04309362 -1.5640457e+12
-2.332001 -4.2782356e+09 -798504.7 -7.645636e+11
00000000: b0d1 adbf a47e e5bf 88a6 4ce0 5679 403e
00000010: 8094 acd3 91a0 bfc0 f082 303d 3214 b6d3
00000020: 813f 15c0 b200 7fcf 8bf2 42c9 8b03 32d3

layers.2.weight f4 [1, 12]
2121.4866 2154.9236 -1.1855343e+23 -0.14529242 -4.504626e+14 1144.1616 0.013133079 -8.0159914e+14
974.24426 -1.2468007e+14 1.6874006e+07 -3.9484775e+14
00000000: c997 0445 c7ae 0645 5bd6 c8e5 89c7 14be
00000010: c0d8 ccd7 2c05 8f44 202c 573c 3643 36d8
00000020: a28f 7344 afca e2d6 0bbd 804b 548e b3d7
