models/regression/neural_networks/17-02-2023, 19:40:44/model.pt (torch, 2195 bytes, 3 tensors)

layers.0.weight f4 [12, 12]
00000000: fa45 70c8 0531 b2c4 349b 94c4 fd9d dfc3
00000010: b3fd e9c4 09a3 e9c4 b855 edc4 50ad ecc4
00000020: 2602 edc4 0a80 e5c4 11b2 3bc6 281a 0fc4
00000030: fe3a cfca 2cac 19c7 5731 00c7 60f4 40c6
00000040: 7bcc 49c7 8888 49c7 4bb7 4cc7 b524 4cc7
00000050: 5b71 4cc7 b8f9 45c7 49e5 a1c8 b8e0 76c6
00000060: ffbe 1bc2 1cf8 c0bd 28e9 e4bd 7a5c a53d
00000070: f602 f9be 1bbc 15bf 7412 13be f047 63bd
00000080: 62d3 22be f22b 32be 4e30 1ec0 76b4 24bd
00000090: 6ee4 05be 1f45 1abe 4884 53be 8c36 93be
000000a0: 0804 f63d 5a4d 843e c078 9c3c a687 7cbe
000000b0: a312 48be 8a88 6dbe a029 be3c 8d1f 83be
000000c0: 34d3 74be 8a13 94bd 7837 393e b2c2 d1bd
000000d0: 939b 39be 3411 343e 7cc4 833e 5c7a dfbd
000000e0: 3cce 68be dca6 163e 7607 67be de68 49be
000000f0: f872 13bf 7df4 1f3e 6ed4 523d b216 21be
00000100: a016 9ebd 3c22 adbd e70a 05be 18a4 f53d
00000110: 1fab afbe e0e0 17be 94d4 f2bd f7c7 75be
00000120: 065b fdbd e046 19bc e44f 32be 9010 1c3d
00000130: 9027 a63d f0ea e0bc 0611 a2bd e0d3 703d
00000140: 06ee 113e 788e c63d b607 49be ce3e c6bd
00000150: 64a3 95c6 e2bd c4c2 3ef5 5bc2 1530 3ec2
00000160: c6f9 38c3 7ef4 39c3 a791 3bc3 ec04 3bc3
00000170: d9b1 3bc3 0469 36c3 2c98 cac4 f831 28c2
00000180: 47f4 03c2 97a2 dfbe ee5f 66be 32ef 3abd
00000190: f6c1 e5be 5033 36be 7c3e 02bf f063 1cbf
000001a0: d056 98be e84b 00be a174 09c0 8a3c c63d
000001b0: a91d 11c9 2038 57c5 5a8a 33c5 6427 87c4
000001c0: 0851 8dc5 9322 8dc5 275d 8fc5 15f6 8ec5
000001d0: a328 8fc5 cca4 8ac5 51bd e2c6 01da acc4
000001e0: 3dea 53ce 03c7 b4ca 939d 64ca e54c f5c9
000001f0: d427 b0ca 8f5a b4ca 66f7 b6ca f3b6 b6ca
00000200: 1f82 b5ca c583 afca d5c0 31cc 50ab 0aca
00000210: b848 53c1 766a d23d 2e92 413e 4155 74bd
00000220: 23d5 813d 2554 a0be fade b9be 7049 a5bc
00000230: a0cd c43c 4409 67be 86e2 92bf ecd7 543e
-246039.9 -1425.5319 -1188.8501 -447.23428 -1871.9281 -1869.0948 -1898.6787 -1893.416
-1896.0671 -1836.0012 -12012.517 -572.4087 -6.790527e+06 -39340.17 -32817.34 -12349.094
-51660.48 -51592.53 -52407.293 -52260.707 -52337.355 -50681.72 -331562.28 -15800.18
-38.93652 -0.09422323 -0.111772835 0.08074279 -0.48635072 -0.5849015 -0.14362508 -0.055488527
-0.15900949 -0.17399576 -2.4716983 -0.040211163 -0.1307542 -0.1506543 -0.2065593 -0.28752553
0.12012488 0.25840265 0.019100547 -0.24661121 -0.1953836 -0.23196617 0.023213208 -0.2561001
-0.23908693 -0.07230289 0.18087566 -0.10242213 -0.18125753 0.17584687 0.25735843 -0.1091201
-0.22734922 0.1471209 -0.2256144 -0.1966891 -0.57597303 0.15620609 0.05147212 -0.15731314
-0.07719159 -0.08453795 -0.1299244 0.11994189 -0.34310243 -0.14831877 -0.11856952 -0.24002062
-0.12370877 -0.009355277 -0.17413288 0.038101733 0.08113015 -0.027455777 -0.07913403 0.05879581
0.14250955 0.096951425 -0.19631848 -0.09679948 -19153.695 -98.370865 -54.989494 -47.546955
-184.97568 -185.95505 -187.56895 -187.01923 -187.69472 -182.41022 -1620.7554 -42.048798
-32.988552 -0.43678734 -0.22497532 -0.04563827 -0.44874543 -0.17793012 -0.50876594 -0.6108999
-0.29753733 -0.12528956 -2.1477435 0.09679516 -594394.56 -3443.5078 -2872.647 -1081.231
-4522.129 -4516.322 -4587.644 -4574.7603 -4581.0796 -4436.5996 -29022.658 -1382.8126
-8.888359e+08 -5.9237135e+06 -3.7456368e+06 -2.0095006e+06 -5.772266e+06 -5.9098315e+06 -5.995443e+06 -5.9871935e+06
-5.9476635e+06 -5.7512665e+06 -4.6596948e+07 -2.271956e+06 -13.205254 0.10274212 0.1890342 -0.059651617
0.06339481 -0.31314197 -0.3630293 -0.02017662 0.02402383 -0.22562128 -1.147538 0.20785493

layers.0.bias f4 [12]
00000000: 9d98 bfc3 523a 25c6 b674 8cbe c0b9 8b3e
00000010: f1ac 09be beb5 e73d e053 73bd 83d3 17c2
00000020: 0271 c63d 0970 67c4 09e9 93c9 3f12 d73d
-383.1923 -10574.58 -0.27432793 0.27290154 -0.13444878 0.113139614 -0.05940616 -37.956554
0.09689523 -925.75055 -1.2116811e+06 0.10501527

layers.2.weight f4 [1, 12]
00000000: 6ec1 9ec9 5d8b 72c8 0c8e c640 a470 2b3e
00000010: fae3 5abe 8022 c4bd 04a2 693e 8582 60c4
00000020: 9bea 1642 2030 6cca e327 99cd bbc7 0c42
-1.3005258e+06 -248365.45 6.2048397 0.16742188 -0.21376029 -0.09576893 0.2281571 -898.03937
37.729107 -3.869704e+06 -3.21191e+08 35.19505
