models/regression/neural_networks/17-02-2023, 19:43:22/model.pt (torch, 2195 bytes, 3 tensors)

layers.0.weight f4 [12, 12]
000000 2b 35 8f be c6 28 54 be d8 d9 30 3d 1c aa 18 be
       -0.2797025 -0.20718679 0.043176502 -0.14908642
000010 f4 58 6e 3e 00 21 2c bd 00 f8 07 ba dc ec 87 3d
       0.2327612 -0.04202366 -0.0005186796 0.06636974
000020 d2 bf 68 be 67 06 7a be a0 5e c3 bd af 5a 28 be
       -0.22729424 -0.24416505 -0.09539533 -0.16440843
000030 0a 97 9f c9 ab d1 d2 c5 1d 14 82 c5 16 a1 2a c5
       -1.3073612e+06 -6746.2085 -4162.514 -2730.0679
000040 90 56 0c c6 9e 8c 0d c6 01 53 0e c6 4c 79 0d c6
       -8981.641 -9059.154 -9108.751 -9054.324
000050 19 55 0e c6 fb d2 09 c6 3a ac 94 c7 a9 b4 47 c5
       -9109.274 -8820.745 -76120.45 -3195.2913
000060 64 29 a4 cb 24 dc d8 c7 4a cd 85 c7 24 87 2f c7
       -2.1517e+07 -111032.28 -68506.58 -44935.14
000070 51 5b 10 c8 de 99 11 c8 b8 67 12 c8 42 86 11 c8
       -147821.27 -149095.47 -149918.88 -149017.03
000080 79 68 12 c8 3b c5 0d c8 6e ee 98 c9 93 6b 4d c7
       -149921.89 -145172.92 -1.2528138e+06 -52587.574
000090 eb ba ac c1 04 f6 e7 be 04 1d f0 bd 96 8b 9c bd
       -21.591269 -0.45304883 -0.11724284 -0.076438114
0000a0 b9 b8 86 be 40 dc 7a bd e4 40 fd bd d5 6e ea be
       -0.26312807 -0.061245203 -0.123658925 -0.45787683
0000b0 08 35 ab be 02 60 c4 be c4 5a c9 bf 98 ac 31 be
       -0.33438897 -0.38354498 -1.5730824 -0.17350996
0000c0 0e 87 f5 bd f6 e4 8c be 50 5c 8c bc 30 09 66 3e
       -0.1198865 -0.27518433 -0.017133862 0.22464442
0000d0 38 7e 52 3d 81 f1 0b be 10 7b 68 3e 30 50 9e 3c
       0.051389903 -0.13666345 0.22703195 0.019325346
0000e0 7c 5d 30 be 00 40 a2 38 58 28 88 3d c0 38 ef 3d
       -0.17223161 7.736683e-05 0.0664832 0.11680746
0000f0 ab ed da c1 14 67 75 be 82 59 05 3e 23 05 39 be
       -27.366049 -0.23965102 0.13022426 -0.18068366
000100 0a 02 dd be 38 58 b4 bd 20 b1 ba bd e1 de 09 bf
       -0.43165618 -0.08805889 -0.09115815 -0.5385571
000110 87 fa e5 be bc 33 7e be f1 2a 10 c0 4e 0d 5c be
       -0.449177 -0.24824423 -2.252621 -0.2148945
000120 58 96 2e cb e8 a1 66 c7 d7 4c 0e c7 83 ac ba c6
       -1.1441752e+07 -59041.906 -36428.84 -23894.256
000130 55 86 99 c7 33 d9 9a c7 0f b4 9b c7 0d c4 9a c7
       -78604.664 -79282.4 -79720.12 -79240.1
000140 ca b4 9b c7 1c c6 96 c7 d0 a4 22 c9 69 77 da c6
       -79721.58 -77196.22 -666189.0 -27963.705
000150 a8 08 8f bd 2c ce c0 3d 54 b1 4d be 81 a6 40 be
       -0.06984073 0.09414324 -0.20087177 -0.18813516
000160 1c ef 6d 3e 28 2e 86 bd a4 84 46 be 7c 8b 2d 3e
       0.23235744 -0.06551772 -0.19386536 0.1694774
000170 50 d5 7c 3e 46 af 8f be c8 50 6e bd c7 42 1d be
       0.24690747 -0.2806341 -0.058182508 -0.15357505
000180 28 c6 67 c3 8e a1 42 3f 8e 57 19 bd e9 a3 a1 3d
       -231.77405 0.7602776 -0.037437014 0.078925915
000190 48 3b b9 3f ce a1 a6 3f 8c 21 db 3f 4a b7 b3 3f
       1.4471216 1.3018129 1.7119613 1.404031
0001a0 f1 16 d9 3f 2c d2 b5 3f 94 55 15 41 a2 e7 25 3e
       1.6960126 1.4204764 9.333393 0.16201642
0001b0 b4 dd ab c9 05 0a e3 c5 fd 16 8c c5 10 c0 37 c5
       -1.4079265e+06 -7265.2524 -4482.8735 -2940.004
0001c0 65 22 17 c6 dc 6f 18 c6 ec 46 19 c6 03 5b 18 c6
       -9672.599 -9755.965 -9809.73 -9750.753
0001d0 0d 48 19 c6 fc 6c 14 c6 04 1c a0 c7 86 0f 57 c5
       -9810.013 -9499.246 -81976.03 -3440.9702
0001e0 4e 1f 02 bf 26 5d 8b 3d 8f 04 89 be 98 a5 7f 3e
       -0.5082902 0.06804876 -0.2676129 0.24965513
0001f0 80 01 31 bd b0 3f 72 bc ac 2b 01 bd 00 ca cd 39
       -0.04321432 -0.014785692 -0.03153579 0.0003925115
000200 40 2d 07 3b d0 5a af 3c 0e 1c 1a bf ea c0 33 3d
       0.0020626336 0.021405607 -0.6019906 0.04388515
000210 b1 a2 31 ca e0 a7 6a c6 10 c9 10 c6 6f ed bd c5
       -2.9103802e+06 -15017.969 -9266.266 -6077.679
000220 28 34 9c c6 90 8d 9d c6 95 6b 9e c6 60 77 9d c6
       -19994.078 -20166.781 -20277.791 -20155.688
000230 7c 6c 9e c6 af 67 99 c6 a5 7b 25 c8 12 48 de c5
       -20278.242 -19635.842 -169454.58 -7113.009

layers.0.bias f4 [12]
000000 67 10 8a be 47 91 e4 c4 49 17 eb c6 1a 74 88 3d
       -0.2696564 -1828.5399 -30091.643 0.066627696
000010 0e 54 2a 3e 18 28 4d 3c 1a 05 7a c6 3e 4c 13 be
       0.16633627 0.012521766 -16001.275 -0.14384553
000020 e5 d5 14 3f 0e 1a f6 c4 2a a1 2b be 39 60 7e c5
       0.5813888 -1968.8142 -0.16760698 -4070.014

layers.2.weight f4 [1, 12]
000000 da 9e a8 bd 9a 39 ba c9 10 71 20 cb 51 64 f0 41
       -0.082334235 -1.5255552e+06 -1.0514704e+07 30.048983
000010 b2 11 48 be cd 07 e2 41 2e 44 c6 ca 7e de 81 3e
       -0.19538 28.253809 -6.496791e+06 0.2536506
000020 06 ed 12 c4 50 46 82 cb 81 8f 69 be 1f 84 1d cb
       -587.7035 -1.707536e+07 -0.22808649 -1.0322975e+07
